PJ2/model/Chinese/bilstm_crf_model.pth (torch, 45375 bytes, 12 tensors)

transitions f4 [30, 30]
000000 a9 bf b5 bf 99 0f 9c bf 43 9a 82 3e d8 1a af 3e
       -1.4199115 -1.219226 0.25508317 0.34200168
000010 71 7e 9b bf ec 91 0a c0 44 d6 4a bf fc 1e 63 3e
       -1.2147962 -2.1651564 -0.79233193 0.22179788
000020 1c 6e 9b 3f 3b d2 5f bf 1a bd 56 bf 3d af 0e bf
       1.2142978 -0.8743016 -0.83882296 -0.5573614
000030 94 bb b1 be 36 8e 4c bf 2f d4 a6 be 33 a7 98 bf
       -0.34713423 -0.79904497 -0.32583758 -1.1926025
000040 7c 9d 1e c0 69 8d f7 be 8f 85 94 bf 54 60 2e 3f
       -2.478362 -0.48350075 -1.1603259 0.68115735
000050 06 59 c7 bd 14 5c 79 be 27 1d 98 3e 33 fe 8a 3c
       -0.09733777 -0.24351531 0.2970974 0.016966915
000060 07 46 f0 3f 2e d2 34 bf 0e 3b 92 bf 5c b3 eb 3f
       1.8771371 -0.7063321 -1.1424272 1.8414111
000070 2b 9b 89 3f 10 23 06 c6 eb f9 9a bf 66 16 83 bf
       1.0750479 -8584.766 -1.2107519 -1.024121
000080 e3 f0 c3 bf d6 05 a1 3e 90 fa 86 be f6 d0 eb bd
       -1.5307888 0.31449765 -0.2636304 -0.115144655
000090 56 87 d6 bf f1 07 13 bf 95 37 40 3f 95 5a 49 3d
       -1.6760051 -0.5743399 0.7508481 0.04915865
0000a0 b5 dd c7 be b9 b7 97 3e ff 82 23 40 cd 88 99 40
       -0.39036337 0.29632357 2.5548704 4.7979493
0000b0 32 ce 05 3e 5b b5 b6 bf 79 e9 ad 3d f6 21 54 bf
       0.13066939 -1.4274095 0.08491797 -0.8286432
0000c0 55 b0 47 bd 78 49 80 be b7 81 29 bf 65 aa 40 bf
       -0.048752148 -0.25056052 -0.66213554 -0.7526
0000d0 d3 b2 5e 3f ef 3c e8 be 6e fd b2 3f 60 95 61 bf
       0.86991614 -0.4535899 1.3983591 -0.88118553
0000e0 95 51 ad be ca b2 a7 3f bc 3c b5 3f 10 23 06 c6
       -0.33851305 1.3101437 1.415916 -8584.766
0000f0 84 93 78 be 49 1f 2b bf 41 aa 3b 3f b8 e1 3b 3f
       -0.24275023 -0.6684461 0.7330666 0.73391294
000100 b4 4c 07 3e 82 2f 1b bf 14 12 a3 be 70 45 15 3f
       0.13212854 -0.60619366 -0.3184973 0.5830908
000110 7d 18 68 bf c3 60 e4 be 06 4c 24 3f a8 7f 0c be
       -0.90662366 -0.44605073 0.641785 -0.13720572
000120 76 99 74 bf e7 cc 30 be 3c a2 16 3e c9 ef 17 bf
       -0.9554666 -0.17265664 0.14710325 -0.5935026
000130 71 97 17 be 88 2f 5a bf 28 92 94 be f0 ac ea be
       -0.14803864 -0.85228777 -0.29017758 -0.45835066
000140 29 95 72 bf d8 25 12 bf c1 76 8d bf fc ab cf be
       -0.9475885 -0.57088995 -1.1051866 -0.405609
000150 50 df 0f 40 24 0e 65 3f 7a 4d f5 3e f9 e0 81 bf
       2.248005 0.894747 0.47910672 -1.0146781
000160 fc 4b 73 3e 10 23 06 c6 7b 64 65 bf 1a 02 c9 3e
       0.23759454 -8584.766 -0.89606446 0.39259416
000170 bc d5 64 be c4 ae 29 3f 92 0a 17 be a5 ca 7d bf
       -0.22347158 0.66282296 -0.14750126 -0.99137336
000180 63 3a b8 3e 94 2b ae be ee d2 69 be 83 aa 35 3e
       0.35982046 -0.34017622 -0.2283437 0.17740826
000190 7e 52 9f bf c5 23 5f 3e 3b f7 22 be f6 c9 4d bf
       -1.244705 0.21790989 -0.15914623 -0.8038629
0001a0 80 e6 ca 3f f6 bc 7d 3f 7d 9d f0 bf 68 07 f2 3d
       1.5851593 0.99116457 -1.8798062 0.11817819
0001b0 76 b4 0f 3e 21 c1 39 bf 1c 2b 5d bf ef a7 e5 be
       0.14033684 -0.72560316 -0.86393905 -0.44854686
0001c0 b2 06 6e 3e 28 9f e1 bf c7 3b ea be b9 a5 bf bf
       0.23244742 -1.7626696 -0.45748731 -1.497245
0001d0 06 91 2d bf c2 be 2f 3f e4 bc ca 40 10 23 06 c6
       -0.67799413 0.6865045 6.335558 -8584.766
0001e0 10 02 4d be 7c b9 1c bf bc 1d 9c 3d 56 82 ee be
       -0.20020318 -0.61220527 0.07622859 -0.46583813
0001f0 eb 35 35 bf ba 21 c0 be de f1 4e be cb f7 19 bf
       -0.707854 -0.3752573 -0.20209453 -0.6014373
000200 e0 80 3c 3e 55 5b 52 bf d8 80 51 3e de f7 19 bf
       0.18408537 -0.8217061 0.20459306 -0.6014384
000210 06 1f 45 bf ce 67 ac be 87 35 20 bf d9 35 6f 3e
       -0.77000463 -0.33672947 -0.62581676 0.23360385
000220 1b 5b 3e bf 00 91 2e bf 41 e0 9d be 41 5e a5 bd
       -0.74357766 -0.6819 -0.30835155 -0.08074618
000230 58 72 9b bf 2e 4a 68 bf 12 c4 01 bf 3f cc cd bf
       -1.214427 -0.9073819 -0.50689805 -1.6077956
000240 f1 f7 6b 40 ed 1b 32 3f 9d 77 53 bf 37 00 fe bb
       3.6870081 0.6957386 -0.8260439 -0.0077514905
000250 7c de 93 40 10 23 06 c6 4b 83 5a bf 12 5f 20 bf
       4.6209087 -8584.766 -0.8535659 -0.62645066
000260 cf f0 29 3f ef 47 41 bc de e6 b3 3e 70 22 08 c0
       0.6638307 -0.011796935 0.35137075 -2.127102
000270 1c 1e b5 be a9 2b ed be 5e 95 fc be 49 20 83 3e
       -0.35374534 -0.46322373 -0.49332708 0.2561057
000280 91 e7 9d be 64 e4 76 3f 39 9f 93 40 10 b1 24 3e
       -0.30840734 0.96442246 4.6131864 0.16083169
000290 20 85 26 3f 43 79 42 bf b7 9d ab 3e 7b ce ca 3e
       0.6504688 -0.7596628 0.33518764 0.39610657
0002a0 9f 9c f1 bd 79 f8 53 bf 0d 58 30 bd f3 7a 53 be
       -0.11797451 -0.82801014 -0.04305272 -0.2065237
0002b0 7f 54 15 3e 1e 8e 3e bf 14 b6 ef 3f ea d6 08 bf
       0.14583014 -0.74435604 1.8727441 -0.5345293
0002c0 58 52 ea 3e 7f 96 f5 be 72 1e 31 bf 10 23 06 c6
       0.45765948 -0.47966382 -0.6918708 -8584.766
0002d0 1f bd a5 3e d1 9c eb 3d 00 7a 23 3e 17 3e eb bf
       0.3237085 0.1150452 0.15964508 -1.8378323
0002e0 fb d5 76 bf a5 85 43 3f 1f ea 32 3f 1f f3 75 be
       -0.9642026 0.763758 0.6988849 -0.24018525
0002f0 da 7a 8a be 5b 9d 4a bf cd 63 00 3e 67 be 96 3f
       -0.27046853 -0.79146355 0.12538071 1.1776856
000300 f0 e9 4f bd 81 42 f6 bf d4 4d 44 bf 9a a9 a5 bf
       -0.05076021 -1.9239045 -0.76681256 -1.2942383
000310 82 ef 52 bf 54 a5 14 be 38 0b 9a be 11 eb 44 bf
       -0.8239671 -0.14516193 -0.30086684 -0.7692118
000320 c1 17 17 3f ad 22 0d bf 6a c2 06 be cd 93 b3 3e
       0.5902062 -0.55131036 -0.131601 0.350737
000330 81 04 02 40 27 9e 2f 3f 49 0a 97 3f 8f 17 4f 3f
       2.031525 0.68600696 1.1800014 0.8089532
000340 e1 f9 dd 3e 10 23 06 c6 81 7a ba be 60 29 02 bf
       0.43354705 -8584.766 -0.36421588 -0.50844383
000350 d4 f6 ad be f0 55 41 bf 5c 17 48 bf b9 7b 13 bf
       -0.33977377 -0.75521755 -0.78160644 -0.5761066
000360 0f 86 71 bf 97 2b c6 bf 58 07 8e 3d 6f 3d 01 be
       -0.9434518 -1.5482053 0.069349945 -0.12621091
000370 4e 01 87 bf 8c b3 ba 3e 3d 08 c7 40 37 13 c5 be
       -1.0547273 0.36465108 6.2197556 -0.38491222
000380 03 98 f7 3d 6d 22 96 bf 73 63 04 be 67 77 f1 be
       0.12089541 -1.1729256 -0.12928562 -0.4716141
000390 7f aa 62 bf 16 91 0e be f4 04 01 c0 ca 62 83 bf
       -0.88541406 -0.13922533 -2.0159273 -1.0264523
0003a0 33 09 19 bd 14 fc 7a bf 82 60 64 40 f2 1f a3 3f
       -0.03736229 -0.9804089 3.5683904 1.2744124
0003b0 55 9b 59 be ef f8 0b bd 7e 91 1e 40 10 23 06 c6
       -0.2125066 -0.03417295 2.4776301 -8584.766
0003c0 8f 36 8f be af 99 04 bf ac dc 8a 3e cf f7 01 be
       -0.27971312 -0.51797 0.27121484 -0.12692188
0003d0 6a ca 10 3f 67 7f 8e be 5b f4 59 3f d5 b9 1a be
       0.5655886 -0.27831575 0.8513848 -0.15109952
0003e0 4d 96 47 bf de 0a 02 bf 7f cd 9f be 52 71 a3 bf
       -0.77963716 -0.5079783 -0.3121147 -1.2768958
0003f0 ca 65 74 be 1f 17 94 bf d5 ae ed 3e 1b 00 0e bf
       -0.23866954 -1.1569556 0.4642245 -0.5546891

word_embeds.weight f4 [1845, 5]
000000 d4 d1 ce bf 82 bd 24 3e c4 62 dd be 19 30 87 bf
       -1.6157784 0.16087916 -0.43239415 -1.0561553
000010 62 4a 31 3f 8a 77 c5 be cb 9d 14 bf e3 17 b9 bf
       0.69254124 -0.38567764 -0.5805327 -1.4460415
000020 55 2a 6a bf ae 03 da 3e d4 1d 36 bf a5 39 69 be
       -0.91470844 0.42580932 -0.71139264 -0.22775896
000030 97 21 49 be 5a 8a b9 3f 4c ca 4d 3e 8a fa ce 3e
       -0.1964172 1.4495347 0.20096701 0.4042552
000040 03 04 19 bf f4 f4 7e bf b4 ea 18 3f d7 b0 30 3e
       -0.59771746 -0.9959252 0.5973313 0.17254959
000050 68 e4 d8 bf f7 56 02 bf 69 e6 42 bf 0e ee a4 3f
       -1.6944704 -0.5091395 -0.7613283 1.2885149
000060 72 ef 90 3f fa bc 32 3f 1f 63 13 c0 3d 98 97 bf
       1.1323073 0.69819605 -2.3029249 -1.1843334
000070 f5 f9 88 3f b1 e1 7d 3e 0a 45 19 bf 05 07 5f 3e
       1.0701281 0.24793126 -0.5987097 0.21780021
000080 bd 4b c9 3f 8b 17 4d 3e 97 91 86 be 42 e4 b5 bf
       1.5726238 0.20028512 -0.2628295 -1.4210284
000090 d5 93 00 3d b4 e6 cb 3b 62 e9 37 3e 69 32 8d be
       0.031390984 0.0062225703 0.17960122 -0.27577522
0000a0 74 bd 25 bf 5f 58 34 be 1f a6 da bf 70 e9 8c 3f
       -0.6474221 -0.17611836 -1.7081946 1.100874
0000b0 38 e4 44 3f 0d 8d c2 bf 34 4c 2e 3f fa ec 63 bf
       0.76910734 -1.5199295 0.68085027 -0.8903347
0000c0 53 e9 ef bf ea 19 af 3e b3 96 e2 3f 68 51 a8 be
       -1.874308 0.34199458 1.770224 -0.32874608
0000d0 be ab 14 3f c8 32 44 be 54 87 cf 3e 4e 5e 46 40
       0.5807456 -0.19159997 0.40532935 3.099506
0000e0 82 d7 91 bf 94 64 b9 3f 30 12 44 3e 17 90 14 bf
       -1.1393893 1.4483819 0.19147563 -0.58032364
0000f0 e2 56 0c 40 97 9c 98 be 6d 6a 26 c0 14 77 fd be
       2.192803 -0.2980697 -2.6002457 -0.49504912
000100 4c 5c 9a be 91 47 93 bf e9 9c 88 bf 8d 01 fd be
       -0.30148542 -1.1506215 -1.0672885 -0.49415246
000110 96 a7 01 be 58 09 c6 3e 46 64 0e 40 a8 ed a8 3e
       -0.12661585 0.38679004 2.2248702 0.32993817
000120 e9 38 ca be ea 51 2d bf 7e b4 6b bf 0b 72 82 bf
       -0.39496544 -0.67703116 -0.92072284 -1.0191053
000130 01 96 5e bf 5c fc bd be 07 7c 32 3e 86 4e 10 bf
       -0.8694764 -0.37106597 0.17430125 -0.5636982
000140 66 19 bf bf 3a 78 e9 3e c2 62 87 be b4 04 16 3f
       -1.4929626 0.45599538 -0.26442534 0.58600926
000150 9a 71 3c bf bb 71 89 bf c3 59 97 3c 4c 81 50 bc
       -0.7361084 -1.0737833 0.018475419 -0.012726139
000160 b2 d8 66 3d ad 5a 93 be b4 65 9d bf b2 3b 18 3f
       0.056359 -0.28780118 -1.2296662 0.5946609
000170 98 d0 a6 bf 72 0b 61 bf 56 ed b6 3d 55 3c cc 3f
       -1.3032408 -0.8790809 0.08931987 1.5955912
000180 22 a9 bf 3e 50 84 56 3f 9c da dc 3d f5 95 94 bf
       0.37433726 0.8379564 0.10783884 -1.1608263
000190 b7 49 d0 3f f2 e2 a8 be 1e a5 96 bf b2 e6 cc 3f
       1.6272496 -0.32985646 -1.176914 1.6007903
0001a0 57 92 a4 3f 95 21 0f 3f 4f 9f 88 be 61 49 dd 3e
       1.2857159 0.5591062 -0.26684043 0.43220046
0001b0 0e b4 b7 bd 2d f8 7f be b3 8a 3b bf 27 a5 94 bf
       -0.089698896 -0.24997015 -0.73258513 -1.16129
0001c0 7e 9c 52 3f f3 0b 0e bf 72 39 8b 3e 63 b7 a8 3e
       0.8227004 -0.55486983 0.27192265 0.32952413
0001d0 c6 b0 c0 3e ed 0c 00 3f f2 fb fd 3e 76 5a 6e bd
       0.37634867 0.50019723 0.49606282 -0.05819174
0001e0 68 40 cc 3f c1 f7 be bf 22 fb 25 bf b7 27 ef 3f
       1.5957155 -1.4919358 -0.64836323 1.8683995
0001f0 52 62 04 c0 2d 64 88 3f 35 05 c5 3e e2 6e 13 3e
       -2.068501 1.0655571 0.38480535 0.14397767
000200 90 fc 1c 3f 57 99 b9 bf d6 b3 d1 3e 74 b3 48 3f
       0.6132288 -1.4499921 0.40957516 0.78398824
000210 87 bf 0c be 09 fd 84 bf 53 dc fe 3e 07 f7 14 bf
       -0.13744937 -1.038972 0.4977747 -0.58189434
000220 29 ed cb bf 14 fc c8 bf 2e 2b 2f 3e 89 1c 89 3e
       -1.593175 -1.5701928 0.17106315 0.26779583
000230 d3 94 18 40 97 1f bf 3e 92 3a ce 3f e7 86 8e bf
       2.3840835 0.3732879 1.6111624 -1.1134919
000240 57 35 47 bf c7 d2 47 bf 4f f9 ad 3f aa 4c 0b 3f
       -0.77815765 -0.78055996 1.3591708 0.54413855
000250 c7 cf b6 3e 98 be bf be 9e 48 2e 3f d0 cc 8b bf
       0.35705397 -0.374501 0.68079555 -1.0921879
000260 93 01 df 3e cb 6e dd 3e f3 b0 2c 3e e2 ee 1a 3f
       0.4355589 0.4324859 0.16864376 0.60520756
000270 64 31 04 40 a2 08 9f 3f f1 e8 3e bf 33 72 03 40
       2.0655146 1.242451 -0.7457419 2.0538452
000280 14 54 3a bf 3f 1f 64 bf 6d 30 0d bf 6c ab 98 bf
       -0.72784543 -0.8911018 -0.55152017 -1.1927314
000290 6d 4d 59 3e 94 4f 34 bf 02 7f 3a 3f b1 40 5e 3f
       0.21220942 -0.70433927 0.7285005 0.8681746
0002a0 7d 96 d0 3d 97 16 c0 3f 32 6d 16 3f 35 c3 b3 bf
       0.10184953 1.5006894 0.5876037 -1.4043947
0002b0 36 5a a0 bf 44 15 b5 bf 2d d5 53 be ba 01 86 3e
       -1.252753 -1.4147115 -0.20686789 0.26173192
0002c0 5b f5 dc 3e f9 d3 83 3f 4d 6f aa 3f a1 1c 4e 3f
       0.4315594 1.0299064 1.3315216 0.80512434
0002d0 e3 62 12 bf 1b 96 25 3e c1 1d 0a be a4 17 f8 be
       -0.5718214 0.16170542 -0.13487913 -0.48455536
0002e0 bc 34 c4 3f 90 06 a7 3e f0 c7 65 3f 59 f8 77 3f
       1.5328593 0.32622194 0.89758205 0.96863323
0002f0 3b 4e 97 be cd b1 e7 3e 5e 71 db bd 4e e2 47 3f
       -0.29551873 0.4525284 -0.107149825 0.7807969
000300 b0 89 3d bf 3c 86 81 3f 11 22 a3 3f e1 a6 36 3e
       -0.7403822 1.011909 1.2744771 0.17837097
000310 f6 29 1c 3f 67 ad d0 bf 06 88 f8 bf 3c ce 2e bf
       0.6100153 -1.6302918 -1.9416511 -0.6828344
000320 28 3c ef be c3 f1 2e 3f 62 b5 4a bf 9c dd ff 3e
       -0.46725583 0.6833765 -0.7918302 0.49973762
000330 03 e2 aa bf 27 f8 aa bd 52 70 17 3f 69 fd 6d 3d
       -1.3350223 -0.083481126 0.5915576 0.058103
000340 13 e0 35 3f f8 a8 70 3f df 5b b8 be f6 60 9e 3f
       0.71045035 0.94007826 -0.36007592 1.237334
000350 3b 5e 4e 3e de 1e d1 3f 54 bd cc 3f 65 82 a0 3f
       0.20153134 1.6337545 1.5995278 1.2539793
000360 94 93 5c bf fe e3 8a 3f 98 2b 8b 3f 5f 7f 3e bf
       -0.86162686 1.0850828 1.0872679 -0.744131
000370 e4 f1 9f 3e ae ec de be 81 ee 9e 3f e6 52 d5 3f
       0.31239235 -0.43539947 1.2416536 1.6665924
000380 34 d6 a8 3f f3 fb da be d7 8f 60 be 0a d4 9e bf
       1.319037 -0.42770347 -0.2192987 -1.2408459
000390 90 02 8d 3f be 3b 89 3f 74 91 02 3f 7b 56 2d 3e
       1.1016407 1.0721357 0.51003194 0.16927521
0003a0 79 dd 01 3e a2 94 3c 3f bd 4b b5 3e 04 cf 92 bf
       0.12682141 0.73664296 0.35409346 -1.1469426
0003b0 71 e4 a2 3f e5 39 01 c0 20 5a 91 be 8a ea 88 be
       1.2725965 -2.0191586 -0.28389072 -0.2674144
0003c0 4d 38 de 3d 5f 07 20 3f 33 b6 9b 3f 9a 91 c4 be
       0.10850582 0.6251125 1.2164978 -0.38392335
0003d0 9e 24 1f bf 31 be b6 3d 2b 59 51 3d eb b1 9f 3d
       -0.6216525 0.08922995 0.051110428 0.07797607
0003e0 c2 9b 2d 3f 57 e4 46 bf 07 2c 7f be 00 ab 62 3f
       0.6781579 -0.7769217 -0.24919139 0.88542175
0003f0 6a 0d 35 be 84 56 97 bf 7f b5 ee 3b 15 f7 5d 3f
       -0.17680898 -1.1823277 0.0072848196 0.8670514

lstm.weight_ih_l0 f4 [8, 5]
000000 c2 51 e7 bf 2a 4d 0b c0 3c e6 86 bf 66 48 2a 3e
       -1.8071826 -2.1765847 -1.0539012 0.1662918
000010 55 fe a9 3e f8 8b e2 bf 69 ef 6e 3f 35 60 81 3e
       0.33201852 -1.7698965 0.9333406 0.25268713
000020 1d 86 33 40 49 68 71 40 c1 4f 35 3f a8 ec 26 bf
       2.8050606 3.77199 0.7082482 -0.6520486
000030 58 74 e3 bd 40 77 01 3f 6b 98 31 3f d8 99 40 ba
       -0.11106175 0.50572586 0.69373196 -0.0007347143
000040 7e e1 ca be 65 3d dd 3d 1e cd b7 bd 53 a2 4d be
       -0.39625162 0.10802726 -0.0897467 -0.20081453
000050 94 7b 8a bf 3a 02 b1 3f ce 80 fb be d9 a4 22 3f
       -1.0818963 1.3828804 -0.49121708 0.6353279
000060 16 b9 cc 3f 56 e3 4a 40 4b a2 90 bf 7b d5 02 40
       1.5993984 3.1701255 -1.1299528 2.0442798
000070 8d d3 f3 3e f7 b7 a1 bf 03 50 4e 40 58 86 39 40
       0.47622338 -1.2634267 3.2236335 2.8988247
000080 0d 15 f7 3e 45 d3 79 3f ff 16 89 bf 0e 27 69 c0
       0.48258248 0.97587997 -1.0710143 -3.6430087
000090 ac b9 8b 3e 16 a6 37 40 27 3d 8a bf 7b cb d8 3f
       0.27290094 2.869512 -1.0799912 1.6937097

lstm.weight_hh_l0 f4 [8, 2]
000000 e9 88 b3 bf c3 8e df 3f 81 8a 1a 40 f3 96 d7 bd
       -1.4026157 1.7465442 2.4147036 -0.10526838
000010 47 dc 26 bf 7e 59 a7 3f 98 88 19 3f 13 7d c2 3e
       -0.65179867 1.3074186 0.5997405 0.3798605
000020 b8 b3 6a bf c4 69 86 be 9d 4d cd bf d2 3c c0 3d
       -0.9168048 -0.26252568 -1.6039311 0.093866006
000030 e3 a8 7b c0 d2 07 33 40 94 a5 88 bf b8 ce 19 40
       -3.932183 2.7973523 -1.067553 2.403242

lstm.bias_ih_l0 f4 [8]
000000 4d bf 05 40 bf 32 8a bd 4d 58 5e be a0 2f 12 bf
       2.089801 -0.0674796 -0.21713372 -0.5710392
000010 78 fe 29 40 6f f5 86 3e 3c 45 be 3f 4f 88 9e 3e
       2.6561565 0.26359126 1.4864879 0.3096337

lstm.bias_hh_l0 f4 [8]
000000 4a b3 8b 3f 58 b2 88 bf 64 6a 23 bf 02 b9 ff 3d
       1.091409 -1.0679426 -0.63834214 0.12486459
000010 1a 93 d3 3f e4 af d7 bd 32 3e f2 3f 0f b6 b9 bc
       1.6529267 -0.10531595 1.892523 -0.02266982

lstm.weight_ih_l0_reverse f4 [8, 5]
000000 0b 0f 8e 3f bf 1a e6 bf cc fb 88 3f 60 44 6f c0
       1.1098341 -1.7976912 1.0701842 -3.7385483
000010 99 d4 0a 40 f3 c3 29 3f e2 47 88 3f 54 20 a0 bf
       2.169226 0.6631462 1.0646937 -1.2509866
000020 21 cc 77 c0 65 5e 6d 40 88 07 08 bf 49 64 74 3f
       -3.871834 3.7088864 -0.5313649 0.95465523
000030 48 d1 a5 bf 90 27 b3 bf 85 bd 33 c0 9d ce 0f c0
       -1.2954493 -1.3996449 -2.8084424 -2.2469857
000040 65 dd a4 be bd ed 00 be 11 a8 9a 3f b9 ae a2 bf
       -0.3220016 -0.1259069 1.208254 -1.2709571
000050 71 0d 29 c0 9b 5d b2 3f 90 3d 00 bf 43 a7 9f be
       -2.6414454 1.3934816 -0.50093937 -0.31182298
000060 ae 48 5d be 40 4b ef 3e 9f da 4f 3f be 68 b9 3f
       -0.21609756 0.467371 0.81192964 1.448509
000070 90 b2 40 40 92 f5 ee bf 3e 54 27 bf 62 73 65 c0
       3.0108986 -1.8668692 -0.6536292 -3.5851674
000080 55 30 94 3e b5 ba 1f 40 e8 7c 4f 40 8e 60 08 40
       0.28943124 2.4957707 3.2419987 2.1308932
000090 1d 34 24 40 ae b2 83 3e 6a d4 8f bf 4e 9c 02 40
       2.5656807 0.2572226 -1.1236699 2.04079

lstm.weight_hh_l0_reverse f4 [8, 2]
000000 58 7b 3e c0 72 a8 20 c0 9d 1a 1f c0 19 e8 81 bf
       -2.9762783 -2.510281 -2.4859993 -1.0148956
000010 8a ed 00 40 3c b2 8a 3f c6 b8 3d bf a7 5c 4d 3e
       2.0144982 1.0835643 -0.74110067 0.20054875
000020 b1 20 ca be 29 a0 2a be 2d 91 a1 3e b5 e8 99 bf
       -0.39478067 -0.16662659 0.31556073 -1.2024142
000030 9e e4 5b c0 27 9c a4 be bb a0 5d bf 7d 43 cc bf
       -3.4358287 -0.32150385 -0.8657338 -1.5958096

lstm.bias_ih_l0_reverse f4 [8]
000000 79 e6 81 3e 0a c7 e2 be 0d 52 a5 bf ab b4 96 bf
       0.2537115 -0.4429248 -1.2915665 -1.1773885
000010 de fd 09 40 f3 42 02 40 b9 62 fa 3e 7f db a9 3f
       2.1561198 2.0353363 0.48903444 1.327011

lstm.bias_hh_l0_reverse f4 [8]
000000 5a 08 fa 3e af 14 cf be 7c 9a 8e bf 1d ac 84 be
       0.48834497 -0.40445468 -1.1140895 -0.25912562
000010 5e 02 c1 3f e8 f5 ff 3f df ae 8e 3f 6d e6 95 3f
       1.5078847 1.999692 1.1147116 1.1710945

hidden2tag.weight f4 [30, 4]
000000 83 37 8f 3f 3c e2 cb 3e f9 1a bc 3f 1b fa 91 bf
       1.1188816 0.3982104 1.4695731 -1.1404451
000010 37 b9 e1 bf 30 a0 02 40 61 ff 92 40 0a 37 7a be
       -1.7634648 2.041027 4.593674 -0.24435058
000020 97 d0 5c 3f 7c d1 b0 be af 98 5a 3f e2 c6 15 3f
       0.8625578 -0.34534824 0.85389227 0.58506596
000030 ab 21 e6 be 7f 4e 8b be 22 63 ea 3e 81 ca ab 3f
       -0.44947562 -0.27208325 0.45778757 1.3421174
000040 94 03 4f 40 32 f8 2a bd 59 3c 2b 40 cc af e5 3e
       3.2345934 -0.041740604 2.6755583 0.44860685
000050 fc 32 3f 3f 66 3f 5b be f0 62 8a bf 1b af aa bf
       0.7468717 -0.21410903 -1.0811443 -1.3334688
000060 70 01 e4 3f 62 9e 11 bf 87 f1 92 bf aa a2 9d 3f
       1.7812939 -0.568823 -1.1479958 1.2315266
000070 9b 28 33 40 ef 34 e8 be 91 fd c8 be 19 4e 1f c0
       2.7993534 -0.45352885 -0.39255956 -2.4891417
000080 fc 73 b0 bf 93 9e ba bf be 40 d3 3f 8b 66 01 40
       -1.3785396 -1.4579643 1.6504133 2.0218837
000090 c2 57 ed 3f 09 fb d1 3f e8 52 9c c0 b5 49 b6 3f
       1.8542407 1.6404735 -4.8851204 1.4241244
0000a0 16 89 d9 bd c5 3e e3 be fd 90 fd 3f 57 66 05 c0
       -0.1062185 -0.44383827 1.9809872 -2.0843713
0000b0 4a 39 69 bf 4e a7 a9 3c e9 0c 60 bf ab 7b ea 3d
       -0.9110304 0.02070966 -0.875197 0.11449369
0000c0 e9 b0 e4 c0 86 8d 4d 40 13 c0 35 c0 58 ed 70 40
       -7.1465955 3.211763 -2.8398483 3.7644863
0000d0 5c a9 f0 3f 8e eb da bc 09 e4 c1 bf 50 1e 24 40
       1.8801684 -0.02672365 -1.5147716 2.5643501
0000e0 b5 57 d8 3f b8 3b 0d 3f 30 28 03 40 56 c5 06 40
       1.6901766 0.5516925 2.0493279 2.1057944
0000f0 5b f1 d3 bf a2 7a ec 40 52 81 83 3e bc ef a6 c0
       -1.6558031 7.38997 0.256846 -5.2167645
000100 c1 42 7e bf 7f 3c 1b c0 d4 c1 eb 3f c5 94 c8 bf
       -0.9932061 -2.4255674 1.8418527 -1.5670401
000110 8d 69 da 3e 0a 79 32 3f 59 90 0d 40 79 b2 95 3e
       0.42658654 0.6971594 2.2119353 0.29237726
000120 60 88 4f 3d 4c ca c8 bf 33 68 4a 3e c0 b0 54 3f
       0.050667167 -1.5686736 0.19766311 0.830822
000130 c9 ba 58 3f 56 b8 75 bf f0 52 f4 be f5 8f b8 3e
       0.8466001 -0.959844 -0.47719526 0.3604733
000140 7c 56 35 bd 17 4f 75 bf 46 17 de 3e 40 b4 1e 3f
       -0.04427193 -0.95823807 0.4337713 0.6199379
000150 a4 7a 1e bf 3d 41 07 bf a4 b2 9b be 62 0a 53 bf
       -0.61905885 -0.5283392 -0.3040973 -0.8243772
000160 b6 a7 f3 3e ab 7e 5f 3c 5f bb 93 3e 90 65 52 3e
       0.4758889 0.01364104 0.2885389 0.20546556
000170 c4 3e af 3f 92 ae 98 bf e9 13 c0 bf 0f f6 09 c0
       1.369103 -1.1928275 -1.5006076 -2.1556432
000180 f1 8e ac c0 2f 5f 63 c0 55 68 01 c1 74 00 15 c0
       -5.392449 -3.5526845 -8.087972 -2.3281527
000190 40 e3 1c bf a7 7d 8a 3e dd dd 19 40 50 eb 59 3f
       -0.61284256 0.2704899 2.4041665 0.85124683
0001a0 11 0b 90 bc 3a 96 74 3e e8 8b 7e be 60 c9 52 be
       -0.017583402 0.23885432 -0.24858057 -0.20584631
0001b0 12 68 8d 3d e1 e9 de bc c9 37 d3 3e 51 44 ff 3e
       0.069046155 -0.027211132 0.41253498 0.4985681
0001c0 ad 89 b7 3c 13 d4 28 3e 14 fd 87 be de 26 4d 3e
       0.022404516 0.1648715 -0.2656027 0.20034358
0001d0 d2 8f 5a bd 8b d4 c4 be ef c6 a7 3e f7 73 4c bd
       -0.053359814 -0.38443407 0.32768962 -0.04991528

hidden2tag.bias f4 [30]
000000 82 7b cd 3e 72 82 a2 3e 7d 5d 16 3f 1e 4d 45 3e
       0.4013329 0.31740147 0.587364 0.19267699
000010 32 71 1c c0 d8 bb aa 3f 11 6b 01 3e 9d 49 8b bf
       -2.444409 1.3338575 0.12638499 -1.088184
000020 ea c2 45 bf c1 64 bb bf b6 fb 33 3f 29 91 a6 3f
       -0.7725054 -1.4640123 0.70305955 1.3013049
000030 a9 1f 1c 3f c3 a6 a2 3e 86 0a 7d bf ba 1b 44 c0
       0.6098581 0.31767854 -0.9884418 -3.0641923
000040 b0 57 7b 3f 64 eb 3a 3e cc ab fb 3f 0f 11 66 3f
       0.98180676 0.18253857 1.9661803 0.8986978
000050 18 e8 eb bf 71 cb b1 3f fa 02 12 3f d0 3f bc bf
       -1.8430204 1.389021 0.5703579 -1.4706974
000060 7e fe 63 40 5b b6 d6 be 75 32 1d bf 04 93 c6 be
       3.562408 -0.41936 -0.61405116 -0.3878404
000070 11 66 3d 3e d8 03 08 3e
       0.18495966 0.13282716
