PJ2/model/Chinese/bilstm_crf_parallel_model.pth (torch, 44910 bytes, 12 tensors)

transitions f4 [30, 30]
00000000: 18dc 1fc0 6702 66bf a654 673f d2f1 613f
00000010: 7cb2 68bf 5186 5b3f 3ca3 ea3f 759f 563f
00000020: 5365 66bf 6052 bfbe 3765 acbf eb0e cfbd
00000030: 3949 523f 9dd6 cabf 95ca 27bf 0fe3 353f
00000040: a3c0 45be a03a a13e 6efa 7f3e 090a 9d3e
00000050: 61dc 4abf 0ae9 1fbf ca7e 0fbc 27a4 8e3e
00000060: 3d60 0640 242a a9bf 136d 68bf b899 94bf
00000070: 04e2 9bbf a055 1bc6 ef90 2abf a7f1 2abf
00000080: a435 e83e 5560 113f 3579 81bd 7f92 d83c
00000090: 4af2 afbc eb93 b23e e2db a3bf 7b4f 8bbf
000000a0: dd3e c7bf 3578 293f 69a2 363e 4c3a 5d40
000000b0: 0862 16bf 4dcb 14c0 6ea9 623f 9a07 8ebc
000000c0: 8076 963f 4a0b 78bf b600 9cbf 6eac 06c0
000000d0: 4adb 173e f954 21be eae1 603f 24d9 12c0
000000e0: a3ec 3ebf 9f49 673f 9f33 233e a055 1bc6
000000f0: 910d 393f c225 803d 6661 66be 8304 873f
00000100: ca25 04bf 4716 3d3f 1cdc ecbd d802 e2bf
00000110: 079c d3bd fd7a 14be 3b67 dbbf e202 913f
00000120: 2257 7abf f10f 9fbe 58ed 01bf 474e 9d3d
00000130: 3d12 9ebf f7a4 84bf 92e3 acbf 5088 743d
00000140: 647f 453f ea34 093f 027e 96bf 7602 4d3f
00000150: 7bfb 50bf e19b 893f 8c95 cabe 4e41 31bf
00000160: 656b 803f a055 1bc6 9c23 88bf a1df dfbe
00000170: c7e4 d73e 354d 58bf de96 ef3e 0619 d4bf
00000180: abaf 993d 615d 4a3f ee72 4ebf 052b 133f
00000190: 1c93 bf3e 7cfe 9c3f c286 f2bd 8817 b4bd
000001a0: 037b 42bf 8255 06bf 3c0d 27be df41 ca3d
000001b0: 4e57 0dbf 93eb 6bbf 0896 44bf 0e15 503f
000001c0: aa7c 563f fefc 843f 5714 4dbf e387 383e
000001d0: e7d5 93be b478 853f 51da 8440 a055 1bc6
000001e0: 79d4 1cbd d7c4 23be 83a8 643f b6be 28bd
000001f0: 636e 753e 9462 663e 5ff2 00bf 57a7 c53e
00000200: 9065 b0bc eea3 36bf a2bd 1dbe 32d6 fcbf
00000210: db36 a6bf 2e3f dfbf 8517 123f 49fa 92bf
00000220: a4b1 2ebf b8a9 30bf 9cfb cdbf 684a 4e3c
00000230: e03f 11bf 053a 15c0 19fc 82be ada2 91bf
00000240: dff1 3b40 02cf 74bf 73f7 13bf 048f 4e3f
00000250: ad5c bd3f a055 1bc6 8e02 4e3f ad41 75bf
00000260: 991c 34be 89cd 16bf c736 f83b a09d 903e
00000270: 0907 f8bd a565 dfbd 6236 ae3f b49a 0b40
00000280: 9446 47bf 3979 613f 17c4 1c40 0f8d 93bf
00000290: 53d3 13c0 f228 cd3d 07c2 2abd 6ce6 ef3d
000002a0: 2e09 18bf efe7 3dbf 4b42 33bf a674 68be
000002b0: 4d2c d4bc d143 09bf 3938 323f 50aa 3b3e
000002c0: 989f 7f3e 28f0 5e3e d4cc 06c0 a055 1bc6
000002d0: 9883 493f 5276 02bf e5dc 82bc 3801 04c0
000002e0: 7033 68bf 21c3 163e 2871 ce3f 43a0 c9bf
000002f0: 30d8 c5be 9302 603f 18d3 98bf 7a1a 1ebf
00000300: 420f dcbd 3239 a3be f42e 5fbf edb5 bbbe
00000310: 3d3b 9bbf 7963 913f 4257 51bf 9dc6 b0bf
00000320: e84b 2a3f df28 ae3f a98e 743f a744 26bf
00000330: a637 b83f a23d 553e 571a 263f b1f2 1fbe
00000340: 97e2 2fbf a055 1bc6 887d 3dbe a829 8f3f
00000350: afed eabe fe8e 2bbf f019 043c 6837 9ebf
00000360: faa3 6abe a856 203e 60e4 b2bf 39d6 133f
00000370: db89 d8bf 5d25 18bf e75d a040 d62f 643f
00000380: 900e f13e 4ab4 f1bf d3bf f6be 4def 87be
00000390: 105d afbc 6474 723f 08f1 5fbf f06a afbe
000003a0: ca99 663b 1ee9 7d3e a6d8 3c40 acd7 903d
000003b0: 62b1 4f3f b8de c53f 2550 1ebf a055 1bc6
000003c0: e24f 6abe ea18 973f b304 2e3e 7d82 b4bf
000003d0: 931c b3bf ecf4 f3be 561e d3bf a396 03c0
000003e0: 9793 a7bf 3372 0e3f 402c 1bbf b106 233f
000003f0: 3282 9fbe efcf 01c0 1543 83be ebaf 2840
-2.4978085 -0.89847416 0.9036354 0.88259614 -0.90897346 0.85751826 1.8331065 0.8383706
-0.8999836 -0.37367535 -1.3468388 -0.10110267 0.8214298 -1.5846745 -0.6554349 0.7104959
-0.19311766 0.3149004 0.24997875 0.3067172 -0.7924252 -0.62464964 -0.008758256 0.27859613
2.099624 -1.3215985 -0.90791434 -1.1609411 -1.217835 -9941.406 -0.666274 -0.6677498
0.45353425 0.56787616 -0.063219465 0.026437042 -0.021477837 0.34878477 -1.2801478 -1.088363
-1.5566059 0.66199046 0.17835392 3.4566832 -0.58743334 -2.3249085 0.8853978 -0.01733761
1.1754913 -0.96892226 -1.2187717 -2.1042743 0.14829746 -0.15755071 0.8784472 -2.2945032
-0.7457983 0.9034671 0.1593766 -9941.406 0.72286326 0.06257202 -0.22498092 1.0548252
-0.5162016 0.7386212 -0.1156542 -1.7657118 -0.10332494 -0.14500041 -1.7140878 1.1329005
-0.97789204 -0.3106685 -0.5075278 0.07680946 -1.2349316 -1.0362843 -1.3506949 0.05970031
0.7714751 0.53596365 -1.1757205 0.8008188 -0.8163373 1.0750695 -0.3956722 -0.6924027
1.0032774 -9941.406 -1.0635867 -0.43725303 0.4216673 -0.8449281 0.4679479 -1.6570137
0.07504209 0.79048735 -0.8064412 0.5748752 0.37416923 1.2265162 -0.11842109 -0.08793551
-0.7596895 -0.52474225 -0.16313642 0.09875845 -0.5521134 -0.9215633 -0.7679143 0.81282127
0.8378397 1.0389707 -0.8010916 0.18020587 -0.28874132 1.0427461 4.15165 -9941.406
-0.038288567 -0.15993057 0.8931963 -0.0411975 0.2396789 0.22498542 -0.5036983 0.38604233
-0.021532804 -0.71343887 -0.1540437 -1.9752867 -1.298549 -1.7441156 0.5706714 -1.1482631
-0.6823981 -0.6900897 -1.609241 0.012590982 -0.5673809 -2.3316662 -0.2558296 -1.137777
2.9366376 -0.9562837 -0.5779945 0.80686975 1.4793907 -9941.406 0.8047265 -0.9580334
-0.17589034 -0.5890737 0.0075748893 0.28245258 -0.12110717 -0.10908059 1.3610346 2.1813173
-0.7784207 0.88075596 2.4494684 -1.1527423 -2.3097732 0.10017575 -0.041688945 0.11713871
-0.5938901 -0.7418203 -0.7002303 -0.22700748 -0.02590003 -0.53619105 0.6961704 0.18326688
0.24963224 0.217713 -2.1062517 -9941.406 0.7871642 -0.5096179 -0.015974471 -2.0625744
-0.9070349 0.14722873 1.6128283 -1.5752033 -0.386415 0.8750393 -1.1939421 -0.6175915
-0.10745098 -0.31879574 -0.8718102 -0.36662236 -1.2127453 1.1358482 -0.8177377 -1.3810612
0.66522074 1.3606223 0.9553018 -0.64948505 1.4391983 0.20824292 0.6488394 -0.15619923
-0.68705124 -9941.406 -0.18504918 1.1184587 -0.45884463 -0.67015064 0.008062825 -1.2360659
-0.22914115 0.15658057 -1.3975945 0.5774875 -1.691707 -0.5943201 5.0114627 0.8913549
0.47081423 -1.8883145 -0.48193225 -0.2654976 -0.02140668 0.9470885 -0.8747716 -0.34261274
0.003518688 0.24795958 2.9507232 0.07072386 0.8113004 1.5458593 -0.6184104 -9941.406
-0.22882035 1.1804478 0.1699398 -1.4102322 -1.3993095 -0.47647798 -1.6493633 -2.0560691
-1.3091916 0.55643004 -0.60614395 0.63682085 -0.3115402 -2.0283163 -0.25637117 2.6357372

embedding.weight f4 [1846, 5]
00000000: 2d2f cabf a06e 2ebf 4d62 29bf 6ad7 ccbf
00000010: 4cf8 b8bd a69f 1abf f57d 79bf 2d9c ccbf
00000020: da7e 35bf 0e44 9a3e b75a 47bf e8a0 80be
00000030: bf83 69be ac30 d63f d9fd 683e 98f7 ed3e
00000040: b45d 31bf 8faf 93bf cef4 313f b4b8 4a3e
00000050: dd0f 953f 29bf 423d 4d52 3abf 3219 4a3f
00000060: 2746 8d3f b42a 7e3c c122 16c0 ec60 acbf
00000070: 5f03 773d 0572 11bf 6555 4abf 7802 07be
00000080: 8253 ef3f e0e2 97bd 77e1 1e3e 9595 65bf
00000090: e5e3 363e 708a 2d3c 57ed 1f3e f946 f1be
000000a0: 89fa 62be 9f61 733e 387f 39be e5a5 debd
000000b0: 93d0 1740 4c4a 86bf 252a c83f 1901 21bf
000000c0: 9670 6bbf b594 093f 5412 053f 370e 96bf
000000d0: fcfc e53e 115e 3e3f cbf4 943f 5ca6 0740
000000e0: 6c7b fdbd 07f4 973f 4d2e dabe cbcf 08bf
000000f0: b830 9c3f b3a0 78bf f28f 58c0 10b1 32bf
00000100: c694 1b3e b26a 85bf e0a5 02bf b8bc 9abf
00000110: 446a 53bd 075c 92bc a1e2 dc3f 4e3f f53c
00000120: af69 1cbf f851 a8be 3d2b 76bf a940 66bf
00000130: ee46 f5be 52ea 44bf ef3f 133f 5b0c 7cbf
00000140: c6b3 5cbf 0aa2 48bd 68ef 5fbf 6229 413f
00000150: 292a bdbf a14a 8bbf 4411 683d 62c7 d0be
00000160: 37b0 ac3e e5b7 09bf 1d86 9fbf 717a 373f
00000170: 0274 97bf 81a0 ccbe 8fb0 8d3e 714d 0940
00000180: 6ace fe3e 7099 b13f a324 283f 9af4 56bf
00000190: 7bc7 a73f bf51 4dbf 06bf 8ebf 4788 aa3f
000001a0: d59c a63f b14a 2f3f 5aaf 9abb 62e6 adbd
000001b0: ebd1 07c0 e088 1bbf 412e c1bf e326 8dbf
000001c0: 3674 393f 069b 2abf 4978 973f 8867 483f
000001d0: 3ef0 5d3e 6a8a a03e a96c 053f 1205 dabe
000001e0: 42d5 2340 3f34 33be 627f d3bc c516 eb3f
000001f0: 9d83 fcbf 0a0e e63f aa65 e93d cc3c 8d3e
00000200: 1870 413f 512f e3bf fac8 b43e d6f3 973f
00000210: b376 99be bbf6 dfbf 16d6 213f 66c4 4cbf
00000220: 4cde c8bf e198 edbf 7d9a 063f 9c19 293f
00000230: ceab f43f 33a0 733f 636e d93f 5cfb e3bf
00000240: 49cb aabf c596 79bf 83fd bf3f 0fda 233f
00000250: 67b4 f03e f609 dabe 85fd a43e 90e6 a9bf
00000260: eb3f e63e 5955 d33d 5d2d 8d3e 727f a83f
00000270: 537b df3f 890f eb3f 6e4b 34bf 6f60 2240
00000280: 8896 e13c 21e6 aabe 65e7 35bf 2d51 e7be
00000290: 8a0b ffbe 8cdf 70bf a0e5 5f3f 6e9e 793f
000002a0: 725f a43e fb58 c13f 0a45 af3f da17 d3bf
000002b0: 735e 1fbf 5730 52bf 2264 e3bc dbb7 02bd
000002c0: a48c 563f dd3a 983f 9fd3 003f 0c43 cd3f
000002d0: 29fd 68bf 42af 183e 1c54 34be 2423 afbe
000002e0: 5268 da3f b280 15be 8deb ba3e 869f a33f
000002f0: 2d27 173e 4ed1 8b3f 2c80 a4be c100 6d3f
00000300: 8e7c 07bf 7ae1 543f 053f e33f 026c 44be
00000310: d273 013f 7e85 eabf cba3 39c0 4858 10bf
00000320: 4270 08bf e9af 623f 3235 5fbf 6d87 083f
00000330: cbad c4bf 0953 2ebe fad2 383f 043e 7a3d
00000340: 0100 673f be39 853f 103e 03bf f5b5 ab3f
00000350: 89d9 763e d177 f33f 16bd e93f c6f0 a73f
00000360: 3987 75bf 1fa8 9f3f c7f0 993f 1aef 05bf
00000370: 73e5 623e 693d 13bf db8d b93f 7a7b e13f
00000380: e1f8 d13f 5524 dcbe 5375 8abe 9e83 b7bf
00000390: 0081 9e3f 350a a23f bbdb c83e 5aa0 c43e
000003a0: 3fd4 9fbd 8a55 ad3e 683b 713f e795 b1bf
000003b0: 695b da3f 9403 16c0 b1eb 6cbf 736a 9b3e
000003c0: 4d1b 5a3e 3885 6f3f e544 ba3f 219e 0dbf
000003d0: ab87 3dbf e5fa 27be a305 45be 0001 febb
000003e0: 7004 c63e 3cf5 12bf 7373 11bf ce8e 7e3f
000003f0: a667 ddbd c9bb 94bf ed91 a3bd dbee cb3e
-1.5795647 -0.6813755 -0.6616562 -1.6003239 -0.09031734 -0.60399854 -0.9745782 -1.5985161
-0.70896685 0.30130047 -0.77872795 -0.25122762 -0.22804163 1.6733603 0.22753085 0.46477962
-0.69283605 -1.1537951 0.6951417 0.19797021 1.1645466 0.047545586 -0.7278183 0.78944695
1.1037034 0.015513111 -2.3458712 -1.3467078 0.06030595 -0.56814605 -0.7903655 -0.13184536
1.869736 -0.0741632 0.15515696 -0.8968137 0.17860372 0.010592088 0.15617882 -0.4712446
-0.22165884 0.23767708 -0.18114936 -0.108714856 2.3721054 -1.0491424 1.5637861 -0.628923
-0.9196867 0.53742534 0.5198109 -1.1723088 0.44919574 0.74362284 1.1637205 2.1195288
-0.123770565 1.1871346 -0.4261345 -0.53442067 1.2202368 -0.9712021 -3.3837857 -0.69801426
0.15193471 -1.0423186 -0.51034355 -1.2088842 -0.051615015 -0.017866148 1.7256662 0.029937413
-0.6109876 -0.32875037 -0.96159726 -0.89942414 -0.47905678 -0.76920044 0.5751943 -0.9845635
-0.8621181 -0.048982657 -0.8747468 0.7545377 -1.4778491 -1.088215 0.05665709 -0.40777117
0.3372819 -0.53796226 -1.2462803 0.71671206 -1.1832278 -0.39966205 0.27673766 2.1453516
0.49766856 1.387495 0.65680903 -0.8396698 1.3107752 -0.8020286 -1.1152046 1.3322839
1.3016611 0.68473345 -0.0047206106 -0.08491208 -2.1221874 -0.6075573 -1.509224 -1.1027492
0.7244295 -0.66642797 1.1833583 0.78282976 0.21673676 0.31355602 0.5211893 -0.42581993
2.5598912 -0.17500399 -0.025817577 1.8366324 -1.9727665 1.7973034 0.11396344 0.27585447
0.75561666 -1.7748815 0.35309583 1.1871288 -0.29973373 -1.7497171 0.63217294 -0.7998718
-1.569284 -1.856228 0.5257948 0.660547 1.9114931 0.9516632 1.6986812 -1.7811084
-1.3343288 -0.9749568 1.4999241 0.64004606 0.47012636 -0.42585725 0.3222467 -1.3273487
0.4497064 0.10319013 0.27573672 1.3163893 1.745951 1.8364116 -0.70427597 2.5371358
0.0275376 -0.333787 -0.71056205 -0.4517912 -0.4981349 -0.94091105 0.87459755 0.9750737
0.3210407 1.510528 1.3692944 -1.6491654 -0.62253493 -0.8210501 -0.027757708 -0.03191362
0.8380835 1.1892964 0.5032291 1.6036086 -0.9101129 0.14910606 -0.1761021 -0.34206498
1.7063086 -0.14599875 0.36507836 1.2783058 0.14761038 1.092325 -0.32129037 0.92579275
-0.5292443 0.8315655 1.7753607 -0.19181827 0.5056735 -1.8321989 -2.9006221 -0.56384706
-0.5329629 0.8854967 -0.87190545 0.53331643 -1.5365537 -0.17023863 0.72196925 0.0610943
0.9023438 1.0408247 -0.51266575 1.3414904 0.2410642 1.902094 1.826083 1.3120353
-0.9590946 1.2473181 1.2026604 -0.52317965 0.2215784 -0.5751558 1.4496416 1.7615807
1.6404077 -0.4299647 -0.27042636 -1.4337041 1.2383118 1.2659365 0.3923014 0.3840359
-0.078041546 0.33854324 0.9423127 -1.3873872 1.7059146 -2.3439684 -0.92547137 0.30354652
0.21299477 0.9356265 1.4552275 -0.5531941 -0.7403514 -0.16404302 -0.19240431 -0.007751584
0.3867526 -0.5740545 -0.56816787 0.9943665 -0.10810785 -1.1619807 -0.079868175 0.3983067

lstm.weight_ih_l0 f4 [8, 5]
00000000: d526 fe3c 82d5 20be faa6 ff3d a562 1d3f
00000010: f1cf d93e 5c7d a43f d10f 9cbf 5ae9 4e3e
00000020: 6040 e43d 242c f73d 24e2 633f e5c1 84be
00000030: 5b63 eb3e 9b32 f43c 3d78 d33d 070f 2bbd
00000040: 9d54 993c d285 c7be 56cf 8e3d 0fe6 ce3e
00000050: 9be7 04bc 292e f93d d5ff 69be 2424 553e
00000060: 00f2 9f3b f6ef 16c0 3939 a13f 445a 093d
00000070: fa25 c2be 1bca 063d 0d76 e0bd 3806 9cbf
00000080: a878 b13f 3ef1 d6bd a929 7c3f bd7e bebf
00000090: 8c4f d33e 5ba1 fe3f b99e d8bf 03d1 bc3e
0.031024376 -0.15706447 0.1248302 0.61478645 0.4254146 1.2850757 -1.2192327 0.20206204
0.11145091 0.12068966 0.8901694 -0.2592918 0.4597424 0.029809287 0.10325668 -0.041762378
0.018717105 -0.38969284 0.0697314 0.40409896 -0.00811186 0.121670075 -0.22851498 0.20814568
0.0048811436 -2.358396 1.2595588 0.03353335 -0.379196 0.032907587 -0.109600164 -1.2189398
1.3864946 -0.10495232 0.9850107 -1.4882427 0.41271627 1.9892992 -1.6923438 0.36878213

lstm.weight_hh_l0 f4 [8, 2]
00000000: 1607 aa3e b10a 42be c2b0 8abf 25c0 a8bf
00000010: 8e18 1f3f 57ff 413f f28f 703f ff8d b2be
00000020: 23f1 f9bd 4169 d9be c048 12be a8db 5ebe
00000030: 9679 9d3f 4bd1 833f 9ac2 7dbf 38f8 f4be
0.3320853 -0.18949391 -1.0835192 -1.3183638 0.6214684 0.7578024 0.93969643 -0.3487396
-0.12204196 -0.42463115 -0.14285564 -0.2176348 1.230273 1.0298246 -0.99125063 -0.47845626

lstm.bias_ih_l0 f4 [8]
00000000: 6407 ac3f 1547 a43e cd55 363f 17ac f0bf
00000010: 1202 90bf ac21 8f3f 3214 a7bf a90b ab3e
1.3439755 0.3208548 0.7122467 -1.8802518 -1.1250632 1.1182151 -1.3053038 0.33407333

lstm.bias_hh_l0 f4 [8]
00000000: 4caf 6a3f 4984 4a3f 8fa0 a73e efdb 81bf
00000010: 155d 70bf 23b8 c83f 8743 f2bf 70e5 633f
0.9167373 0.791081 0.32739684 -1.0145243 -0.9389203 1.5681194 -1.8926858 0.8902197

lstm.weight_ih_l0_reverse f4 [8, 5]
00000000: 5854 be3f 6f3f c2be a397 d7be 9735 253d
00000010: 2522 ac3f 761d 13c0 034b 25bf f2bb 59bf
00000020: a2ed 853f 7657 a63f 8814 e6be 0b34 fcbe
00000030: 3d52 34bf 6526 813e 8ab1 febe d3da 3fbe
00000040: bf90 ac3f 5ac4 89be b9fe 4abe fb89 8cbe
00000050: 4ad8 ed3f 712c d73f 5fcc 80bf 81be 953f
00000060: 2c64 d73e c0ca 08c0 84fe 80bf b2e2 2dbf
00000070: 4a9f 9d3f fc02 1b3f 62d8 e73f e316 22bf
00000080: a70a e53f 0680 f53f 5581 b43d d99b 6a3f
00000090: a610 0a3f 3ad4 793f 2334 a5bf 377f e83e
1.486949 -0.3793902 -0.42107877 0.04033431 1.344792 -2.2986732 -0.64567584 -0.85052407
1.0463145 1.2995441 -0.4493754 -0.49258456 -0.70437986 0.25224605 -0.49744827 -0.18735819
1.3481673 -0.26907617 -0.19823731 -0.2744902 1.8581631 1.6810437 -1.0062369 1.1698762
0.42068613 -2.1373749 -1.0077672 -0.67924035 1.2314236 0.6055143 1.811291 -0.6331617
1.7893876 1.9179695 0.088137306 0.91644055 0.53931653 0.9758946 -1.2906536 0.45409557

lstm.weight_hh_l0_reverse f4 [8, 2]
00000000: 1bcb cf3c 572c 59bd 4355 6fbf 1134 ccbc
00000010: 9d1c 8b3e c165 07be 224b 993f 168b 7a3e
00000020: e361 7ebe 2e86 b5be b2e5 073f 6c83 0bbd
00000030: a525 56bf 91a6 c2be 6701 893f 42bf 963f
0.025365403 -0.0530208 -0.93489474 -0.024927171 0.27170268 -0.1322241 1.1976054 0.2446712
-0.24842028 -0.35453933 0.5308486 -0.03406088 -0.8365119 -0.38017705 1.0703553 1.1777117

lstm.bias_ih_l0_reverse f4 [8]
00000000: c3a6 8b3f 47ea 113f d5b2 9cbf 012b d93e
00000010: dd52 a53e 0367 603f 70c3 203f 82d4 b03f
1.0910267 0.56998104 -1.2242075 0.42415622 0.32289782 0.87657183 0.62798214 1.3814852

lstm.bias_hh_l0_reverse f4 [8]
00000000: 975f 863f 57b5 a53f 09d0 b3bf af67 073f
00000010: a8cb 8a3f 9bc0 6a3e 9eb1 bcbe 5d9e 723f
1.0497922 1.2945966 -1.4047862 0.52892584 1.0843401 0.22925036 -0.3685426 0.94772893

hidden2label.weight f4 [30, 4]
00000000: d0a3 0f3e 27e6 483e 7ab8 a03f 8a5a 86bf
00000010: bd1b 393e dff7 3e3f 26ad ebbf 2667 b53f
00000020: 8830 4c3e bb45 973e 4a67 813e 95d8 1b3e
00000030: 4090 86be 5498 c6bd d941 9ebe 3c03 da3e
00000040: 768c 5f3f ec78 9fbd fa3c 0c3f 9211 083e
00000050: d1b9 93be de87 2a3f 133b 57be 7393 243f
00000060: 35ac 063f f172 babd d3c5 003e 6834 a8bd
00000070: 228c 803f d506 fcbe e5db 7c3f 143f b9bf
00000080: 8b4e 82bf a290 033f db9d 9c3f 6261 87bf
00000090: 00ae 03bf e11a bbbf 7dc5 b33f 8f05 e63d
000000a0: 680c 803e ce89 18bd a204 74be 1b74 24bf
000000b0: 368f 083e 2d62 87bd 8129 aebe cac7 263e
000000c0: 23db 1ec0 7095 f83f 6304 bdbf 65eb e53e
000000d0: aa97 cabe 5b7c 2f3d 5fac 96bc fc20 343f
000000e0: 9a54 043f af4d dc3e 4af0 3d3f 5409 7cbe
000000f0: ac81 18c0 ad5f efbf 1286 9fc0 737f 20c0
00000100: 7070 95bf ca5c fe3f 7e1a e1bf 8135 25c0
00000110: c585 7bbf d1c5 623f 5e2b a63f ebeb 623f
00000120: 6d55 06bf 97cb 433f 7d3e 453f ac36 373f
00000130: ee38 e6bd 1c4a b13b 22eb 203e d3ac 6f3e
00000140: 5bc5 9a3f 7424 4bbe 8352 523d 5a48 a53e
00000150: b348 203e 1730 3c3f dc85 20bf b8c5 723f
00000160: 7c81 1b3f 20b3 c0be e009 583e de85 09bf
00000170: 677d fe3e a05d 0abf 59be 2a3e 3877 9abe
00000180: ce7f 53c0 f273 07c1 46ac 6dc0 e2f5 1740
00000190: cd9c 973e f573 e0bc f3e5 f43b 01d5 28be
000001a0: 516b d73e 6fa9 ccbd c00e 2e3e 4dc8 26be
000001b0: 5b50 ba3e e8ad e3be a0c6 523e 32c7 65be
000001c0: 32ee e3be c039 c23e 80bd 6cbd 3c72 f5be
000001d0: a97f 0641 fcd5 9e40 1268 ca40 2240 f8bf
0.14027333 0.19619046 1.2556298 -1.049638 0.18076988 0.7459697 -1.8412216 1.4172103
0.19940388 0.29545388 0.25274116 0.15219338 -0.2628193 -0.09697023 -0.30909613 0.42580593
0.873237 -0.07786736 0.5478054 0.13287953 -0.28852704 0.66613567 -0.21018629 0.6428749
0.5260652 -0.091039546 0.12575464 -0.08213121 1.0042765 -0.49223962 0.9877303 -1.4472375
-1.018022 0.5139257 1.2235674 -1.0576594 -0.5143738 -1.4617578 1.4044644 0.11231529
0.25009465 -0.037240796 -0.23829892 -0.6423966 0.1333588 -0.066105224 -0.3401604 0.16287151
-2.482125 1.9420605 -1.4766964 0.44906154 -0.39568835 0.042843204 -0.01839274 0.7036283
0.5169159 0.43028018 0.74194777 -0.24612933 -2.3829145 -1.8701073 -4.985116 -2.507779
-1.1674938 1.9872067 -1.758621 -2.5813906 -0.9825099 0.88583094 1.2981985 0.8864123
-0.524741 0.7648253 0.77048475 0.715678 -0.11241327 0.005410446 0.15714696 0.23405771
1.2091478 -0.19838125 0.05134822 0.32281762 0.15652733 0.7351088 -0.62704253 0.94832945
0.6074445 -0.37636662 0.21097517 -0.5371989 0.4970505 -0.5404911 0.16674174 -0.30169082
-3.3046756 -8.465807 -3.7136397 2.3743825 0.29611817 -0.027399043 0.007473701 -0.16487505
0.42074063 -0.099932544 0.16997814 -0.16287346 0.3638943 -0.44468617 0.20583582 -0.22439268
-0.44517666 0.37934685 -0.05779791 -0.47938716 8.406167 4.963621 6.325204 -1.9394572

hidden2label.bias f4 [30]
00000000: d477 593f 02aa 9c3f 4183 33be 2053 af3f
00000010: 3914 213f b043 a13f 1912 2f3f 80f0 043f
00000020: 935c 963e ccab 043e 5336 3dbf 1d38 0c3f
00000030: 1725 12bf ab2e 343f 5c21 bf3d ad5c 8cbf
00000040: ff02 cf3f e2be d93e b046 323f 213d 763f
00000050: 2959 c2bc 3c38 bd3f 1ea6 92bf cc04 a03e
00000060: a90c fa3f 82c6 153e 120b c5be 38e2 20bf
00000070: 6438 7ebe 9313 2fc1
0.8494847 1.2239382 -0.17530538 1.3697243 0.6292148 1.2598782 0.6838699 0.51929474
0.29367504 0.1295616 -0.7391102 0.5477312 -0.57087845 0.7038371 0.09332535 -1.0965782
1.6172789 0.42528445 0.6963911 0.96187025 -0.023724156 1.4782786 -1.1456945 0.3125366
1.9535114 0.14626506 -0.38485008 -0.6284518 -0.24826199 -10.942279
