PJ2/debug/bilstm_crf_model.pth (torch, 66650 bytes, 12 tensors)

transitions f4 [30, 30]
00000000: 10b9 12be 19be 2fbe d13d a4bf cfa8 77bd
00000010: 4765 ca3e eec2 563f 7f61 813f 3120 cc3d
00000020: c125 123e 6c1c 713f 6a1c 38bf 77c2 6f3e
00000030: a722 cbbf 8db6 23bf a71d 04bf 7e12 a33e
00000040: 8f32 c8be 5b07 97bf 107a e63f afb1 683f
00000050: 0519 cebe daff 98bf 4137 79be 4440 8bbf
00000060: 46f9 ee3f 644f a2bf 88c9 67be 244c 11bf
00000070: db0e 67be 10f6 19c6 0b92 083f dc41 39c0
00000080: 41d2 8b3f 4e24 963e 96ec 11bf a054 9f3f
00000090: 6573 6dbf 0a71 fabf 32ad e2be 6859 293f
000000a0: 27c4 793f 0c99 d03e 6a6a 973f f960 7740
000000b0: 98e5 da3f a148 47bf 8454 c5bf 33b0 9abe
000000c0: 1fe6 9e3f 9a68 ac3e 754b 24bf 60d8 b0be
000000d0: 487b 81bf 4f03 de3e 5fdc 1640 b86a 00bf
000000e0: ad55 f1be 5480 8abf ccf3 5a3c 10f6 19c6
000000f0: bdd2 60bf 5935 57bf 29f2 6b3f fed7 72bd
00000100: 39f5 4ebd 827d 5b3f 5650 48bf 87c7 78bd
00000110: 0975 53bf 911d 39bc bd6c 673f e3f4 793e
00000120: c4ed ba3f 8909 35bf 45d9 8f3d 748a 093e
00000130: cbcc c3be 1c97 703d 6d59 acbf c94a a83f
00000140: 2a70 153f 1925 52be 96b5 c93d 03ff 783f
00000150: 7ef3 e73f cdc2 b73d a850 373f 8c51 f33f
00000160: a9de 29bf 10f6 19c6 dea2 a2bf 8223 2fbc
00000170: 8ba2 96bf 3947 a7be 33e9 973f 17c1 193f
00000180: 5a0e 9cbf 1b68 733f d89a 0e3f 236e 1e3e
00000190: 234b 9fbe 38c4 a4bf 832e 6a3f f547 9f3f
000001a0: 8855 713f c7aa 37be dab1 753f 549c 653f
000001b0: eb85 173f 432c b93c a2b0 d43e 38a1 94be
000001c0: 15e6 803f 3cee 813f 0d15 08be 4452 913e
000001d0: 81c5 143e c62f 563e 7103 b740 10f6 19c6
000001e0: 1791 86bf 22f3 11bc 1f6b e7be 0026 5abf
000001f0: f99b 09bf 9cef 1a3f 1cc4 6e3f 3b9f dabe
00000200: 892c 50bf 93a2 0abe 77e1 383f f595 b0bf
00000210: e4d5 debe bbd4 633e cc65 623f beef 11bf
00000220: 0553 683e 9942 e7bf 024e 52be 4287 7dbf
00000230: e793 79bf d9b3 42bf 71cd 163f 95a5 66bf
00000240: b631 8f40 89f0 523e 7d52 b63f d724 913f
00000250: bd58 e83f 10f6 19c6 eccd fa3f 9d0b 2ebe
00000260: 4bef b93f b6d6 a73d 01d2 d6bf 3e2a 043f
00000270: 5f4b 12bf cb34 a1bf 3082 313f 32e0 91bf
00000280: a563 c2be 9416 163f 9890 3d40 bdb7 bbbf
00000290: 4495 3c3f e09f d73e 69eb f23e 2ef1 783f
000002a0: d27b 72bf f02d b8bf 006f 043f 883d bfbf
000002b0: 7fbc c03f cad0 27bf fa2b e53f 363f 033e
000002c0: 9fb6 98be da0d 6fbf 8b59 3b3f 10f6 19c6
000002d0: 03d3 49bf 1af8 cfbe bcfa 60bf 55e4 b63f
000002e0: d52e 28bf 0c96 913f b4d2 96be e6c1 b5bf
000002f0: 4cf8 03bf 822c 6cbf 3aa7 52bf 9e93 aebe
00000300: 5ad5 2b3d 0fe0 5c3f d55f 913e 2890 1a3e
00000310: 1c74 473f 8523 97be 43bf 91bf 1432 44be
00000320: da44 123e d7da 4e3d 04b7 3bbc 7f1c fcbe
00000330: 431c cd3f 9f93 3abe d4bc 163c a7e7 f4bf
00000340: 52cc 8c3e 10f6 19c6 b513 813f 8679 00bf
00000350: 2fdb f8be 709e 69bf 3ffa c8bf 5bc9 10bf
00000360: de15 2a3e b50d 98bf 1a9f c2bf 9b0c 083e
00000370: 3d18 64be 0e13 e2be c7ec a140 d575 ddbe
00000380: 45db 483e 16d2 cdbe 3d19 1ebe 0ba7 7ebf
00000390: dc87 03bf 0fd1 e63e 59c0 b0bf 489d c5be
000003a0: bc3c 8cbe 7cc6 8fbf 2d84 4640 fbc0 09bc
000003b0: 5b4f f8bf f88f 84bf 3a43 87bf 10f6 19c6
000003c0: 26fe 12bf 8397 f3be c352 20bf de81 d7bf
000003d0: 494f 503f 2282 29bf c9f5 bdbe ea66 fabf
000003e0: ac14 a73f ad78 80bf 1193 4dbf c234 88bd
000003f0: cd95 4dbf 3d9e 363f de18 b83f d528 a8be
-0.14328408 -0.1716236 -1.2831365 -0.060463723 0.39530393 0.8389119 1.0107878 0.099670775
0.14272214 0.94183993 -0.71918356 0.23414026 -1.586995 -0.63950425 -0.51607746 0.31850046
-0.39101073 -1.179912 1.8006 0.90896124 -0.40253463 -1.195308 -0.24337484 -1.0878987
1.8669822 -1.2680478 -0.22635472 -0.56756806 -0.2256426 -9853.516 0.53347844 -2.8946447
1.0923539 0.29324573 -0.57001626 1.24477 -0.92754203 -1.9565747 -0.44272763 0.6615205
0.9756493 0.40741765 1.182935 3.8652937 1.7101316 -0.778452 -1.5416417 -0.30212554
1.2413977 0.33673555 -0.6417764 -0.3454008 -1.0115747 0.433619 2.3572004 -0.5016284
-0.47135678 -1.0820413 0.01336379 -9853.516 -0.8782156 -0.8406578 0.9216638 -0.059288017
-0.05052683 0.85738385 -0.7824758 -0.06073716 -0.82600456 -0.011298553 0.90400296 0.24409823
1.460381 -0.70717674 0.07023863 0.13431722 -0.38242182 0.05873786 -1.346479 1.3147823
0.58374274 -0.20521964 0.09849088 0.97264117 1.8121183 0.08972702 0.71607447 1.9009261
-0.6635538 -9853.516 -1.2705953 -0.010689618 -1.1768354 -0.32671526 1.1868042 0.60060257
-1.219188 0.9508073 0.5570502 0.15471701 -0.31112012 -1.2872381 0.9147722 1.2443835
0.94271135 -0.1793624 0.95974505 0.8969166 0.5918872 0.022604113 0.4154101 -0.2902925
1.0070215 1.0150828 -0.1328928 0.28383076 0.14528467 0.20916662 5.71917 -9853.516
-1.0513028 -0.008908065 -0.45198914 -0.85214233 -0.5375362 0.60521865 0.9326799 -0.42699608
-0.81317955 -0.1353858 0.7221903 -1.3795763 -0.4352256 0.22249119 0.8843658 -0.5700644
0.2268792 -1.8067199 -0.2053757 -0.9903451 -0.97491306 -0.76055676 0.5890723 -0.9009641
4.474818 0.2059957 1.4243923 1.1339368 1.8152081 -9853.516 1.9594092 -0.16996618
1.4526151 0.0819525 -1.6782838 0.51626956 -0.5714626 -1.2594236 0.69339275 -1.1396544
-0.37966648 0.586282 2.9619503 -1.4665447 0.7366526 0.42114162 0.4744523 0.9724301
-0.94720185 -1.4389019 0.5173187 -1.4940653 1.5057524 -0.6555296 1.7904046 0.12817082
-0.2982683 -0.9338051 0.73183507 -9853.516 -0.78837603 -0.40618974 -0.8788259 1.4288431
-0.6569646 1.1373916 -0.2945763 -1.4199798 -0.51550746 -0.92255414 -0.8228642 -0.34096998
0.041951515 0.86279386 0.28393427 0.15094054 0.77911544 -0.29519287 -1.1386493 -0.19159728
0.14284077 0.05050167 -0.011457209 -0.4924049 1.602425 -0.18220375 0.009200294 -1.9133195
0.27499634 -9853.516 1.0084139 -0.5018543 -0.48604724 -0.9125738 -1.5701369 -0.56557244
0.16609904 -1.1879183 -1.5204804 0.13286059 -0.22274871 -0.44155163 5.0601535 -0.4325396
0.19614895 -0.40199345 -0.15439315 -0.9947364 -0.5137918 0.45081374 -1.38087 -0.3859656
-0.27390087 -1.1232448 3.1018174 -0.008407827 -1.9399217 -1.0356436 -1.0567391 -9853.516
-0.5741905 -0.47576532 -0.62626284 -1.6836507 0.8137098 -0.6621419 -0.37101582 -1.9562657
1.3053184 -1.0036827 -0.8030253 -0.06650688 -0.803067 0.713352 1.4382589 -0.32843652

embedding.weight f4 [1846, 8]
00000000: 418d 923e 39e9 923f 14c4 9d3f 291c dbbf
00000010: c752 f2be 3e26 b43f b1fe 0ebf 9079 773e
00000020: 76dc 75be 550f f83d d749 773e ab90 8abd
00000030: 59db b0be 2457 1bbe 9e21 9bbf c492 503f
00000040: e7be 1f3c a33d 17bf e877 aa3f c1d3 2e3f
00000050: ecce 5dbf 4013 253d 982a e73f 0e39 b7bf
00000060: a990 b0bd 18cd 4dbf 45e5 8e3e db8e 5ebf
00000070: b6eb 803e df86 513f c7d6 52bf 7409 49bd
00000080: 6acd 1640 4f15 df3f 8a8e e83f fce1 833f
00000090: 7507 d5bf 7783 25bf 0828 4a3f 36a7 8c3f
000000a0: 1356 8e3f 2ca8 34be c002 d33e 7d82 c43e
000000b0: 11a3 18bf 25a1 cdbf 0894 abbf 3e76 f7bf
000000c0: a63f 93bd fb80 a03d 40a4 b5be a8c6 c23e
000000d0: 4600 dcbe 919b 94be 78d5 d53f f64f 23bf
000000e0: 39ef c639 14c7 5ebf 1925 e6be 9291 c73f
000000f0: 903d c53e b6bb af3f e87a a23f 7ebd e83e
00000100: 3cf2 f7bf bea8 6ebe 87fc 6bbf 0099 6c3d
00000110: 0082 85bf 6b2d 16bf 4be3 19bf c2ad d7be
00000120: 911d c83f c987 d8bf 36b7 ef3e adfa 4e3e
00000130: 3919 933e d440 703f b4b8 99bf e463 09c0
00000140: 4045 36bf 7f25 743f 5d65 95be 4dc0 853f
00000150: e109 a4bf 615c d03f 376f e23f e811 113e
00000160: c12d 04bf 006a 5b3f cc2f 25c0 d561 a33e
00000170: e776 393f 5d52 8d3f 8ee9 813f dba7 10bf
00000180: 5eb3 c03f 53a4 3dc0 e0fe 5cbf ccc1 73bf
00000190: 47d2 fc3e e99f 33bf f94e 95bf 74dd 83be
000001a0: 2ee7 07c0 c915 45bf 8c7b ef3f 7e5b b23f
000001b0: fb03 8bbf 835c 2abf 4dbc 6d3f ee33 8e3f
000001c0: 35e8 69bf 3bff 4c3f 1053 653f 0ec3 bf3f
000001d0: 2210 d2bf cc23 3d3f 7452 e33f ca67 bc3f
000001e0: 5444 413f 913e a63f 230e 32bf 500b c7be
000001f0: ed0a 9dbf 09b0 bcbf 163c 633e 5c38 f03e
00000200: 1064 42c0 52eb d73e 5f79 233e c909 e63e
00000210: 4b28 0a3f ebda 963f 1392 373f 7298 bcbd
00000220: 8569 82bf b17b 86bf bdcf adbf be1b 23bf
00000230: e423 be3f 30fc 4f3e 97d2 b63d da52 98bf
00000240: 551e 89be 598c 853d ec48 b53e 2275 febf
00000250: 9938 7bbf f182 37bf 799a c23f fe84 ad3b
00000260: 2fd2 883d e603 81bc fa53 66bd 9d41 c1bf
00000270: c92d 0f40 e5e8 1c3e c623 cb3d 3b43 d33f
00000280: d3b7 21be 4e4e 3b3e 549c 96bd 1bf5 3dbf
00000290: 2d2c 38bf 8674 c3bd 07dd e83e 41b5 ca3d
000002a0: 07e0 7abe 7ad0 95bf 881c 73be 99e2 ad3f
000002b0: b0d0 fa3e 9c1f ef3e 0fde d63e f030 bf3e
000002c0: 19eb 87be 5be6 a13d c618 ebbe f399 7fbf
000002d0: f6d6 9cbf ae55 64be f8fc d9be bc6b 163f
000002e0: 8a87 a7bf 2d51 983f 8335 fcbe 2375 1cbe
000002f0: f546 743e 6e8d 843f 4459 213f 7838 463f
00000300: 8814 7f3e 1eb6 103d 5ab9 93be 6b7c 81be
00000310: a03f 15bf 4df5 17bf ec3e 44bf d596 fb3e
00000320: 7194 443f 23de 023e 5c00 843f 3128 453f
00000330: 59b4 aebf 6991 643e 4e84 873f 95fb 333f
00000340: 81b0 eb3f 2b23 3fbf 7642 b0bf 3b6e 9e3f
00000350: b2f2 e9be 8a4f b13f 1b9d c9bf 4c1f 56bd
00000360: 794d 573f a906 7e3f 24fe a53d 0317 473f
00000370: dd76 993f f23f ef3e 5a7d da3f 1931 a23d
00000380: fb56 a13f 4e65 ad3f ef7b d3bf 1eb9 0fbf
00000390: 6426 9cbf feb7 69bf 22cd 3a3f b91a 973e
000003a0: b261 cabd 566b 2dbf 6d1c 023c 7be2 943f
000003b0: bcfe 293f 8300 f13e 3888 56bf eaab a5bf
000003c0: 6a18 073f 41fc ed3e deb5 3e3f d0c4 95bf
000003d0: 7112 7c3f 774d 82bf 74b9 efbf 018c 473f
000003e0: f358 84bf 303f eebe ddab d2bf 5b7d b5bf
000003f0: 9903 033f 3559 023f 3878 c4bf 1dc2 15c0
0.28623393 1.1477424 1.2325463 -1.7117969 -0.4732878 1.407417 -0.5585738 0.24167466
-0.2400988 0.12112299 0.24149261 -0.067658745 -0.3454235 -0.1516996 -1.2119634 0.81473947
0.0097501045 -0.59078425 1.3317842 0.6829186 -0.8664386 0.04030156 1.8059874 -1.4314287
-0.08621342 -0.80391073 0.27909294 -0.8693673 0.25179833 0.8184642 -0.82358974 -0.04908128
2.3562875 1.7428378 1.81685 1.030334 -1.6642901 -0.64653724 0.7896733 1.0988529
1.1120018 -0.17642277 0.41213036 0.38380805 -0.5962382 -1.6064802 -1.340455 -1.933296
-0.07189874 0.07837101 -0.35476875 0.38042188 -0.4296896 -0.29024938 1.670577 -0.63793886
0.00037943738 -0.8702252 -0.44950178 1.55913 0.3852353 1.372916 1.2693758 0.4545707
-1.9370799 -0.23306558 -0.921822 0.0577631 -1.0430298 -0.5866305 -0.60112447 -0.42124754
1.5634023 -1.6916438 0.46819466 0.20212813 0.2873018 0.9384892 -1.2009492 -2.1467218
-0.7119942 0.95369714 -0.29178897 1.044931 -1.2815515 1.6278192 1.769019 0.14166987
-0.51632315 0.8570862 -2.5810423 0.31910577 0.72447056 1.104076 1.01494 -0.5650613
1.5054739 -2.9631546 -0.8632641 -0.95217586 0.4937918 -0.7016588 -1.1664726 -0.25754893
-2.123485 -0.76986367 1.8709579 1.3934171 -1.086059 -0.6654741 0.9286545 1.1109598
-0.91369945 0.8007695 0.8957987 1.4981401 -1.6411173 0.73882747 1.7759538 1.4719174
0.75494885 1.2987844 -0.6955282 -0.38875818 -1.2268959 -1.4741222 0.2219089 0.46918
-3.0373573 0.42171723 0.15964268 0.4492934 0.5396773 1.1785558 0.71707267 -0.09208764
-1.0188452 -1.0506498 -1.3579022 -0.63714206 1.4854703 0.20311046 0.089268856 -1.1900284
-0.26780954 0.0652091 0.35407197 -1.9879496 -0.98133236 -0.71684176 1.5203391 0.005295395
0.06680714 -0.01574893 -0.05623243 -1.5098149 2.2371695 0.15323217 0.099189326 1.6504892
-0.1579278 0.1829159 -0.07354036 -0.74202126 -0.71942407 -0.095437095 0.4548113 0.09897853
-0.24499522 -1.1704247 -0.23741353 1.3584777 0.4898734 0.46703804 0.41966292 0.37342024
-0.26546553 0.07905265 -0.45917338 -0.9984428 -1.2253101 -0.22298309 -0.42575812 0.5875814
-1.3088238 1.1899773 -0.49259576 -0.15279059 0.23855193 1.0355661 0.63026834 0.77429914
0.24910176 0.03532993 -0.2885235 -0.25290236 -0.5830021 -0.59358674 -0.7665851 0.49138513
0.76789004 0.12780051 1.031261 0.7701445 -1.3648788 0.22321095 1.0587251 0.7030576
1.841324 -0.7466304 -1.3770282 1.237739 -0.45692974 1.3852398 -1.575107 -0.05227594
0.8410259 0.9922891 0.08105114 0.7776949 1.1989399 0.46728474 1.7069504 0.07919521
1.2604669 1.3546541 -1.6522197 -0.5614184 -1.2199216 -0.91296375 0.7296926 0.29512575
-0.09881915 -0.67741907 0.007941348 1.1631616 0.6640432 0.47070703 -0.83801603 -1.2943089
0.5277163 0.46481517 0.7449626 -1.1700687 0.9846564 -1.017989 -1.8728471 0.77948004
-1.0339645 -0.46532583 -1.6458699 -1.417888 0.51177365 0.5091737 -1.5349188 -2.3399727

lstm.weight_ih_l0 f4 [8, 8]
00000000: bec9 bb3e 37c8 b4bf 7c31 993e 468b 363f
00000010: 634f 26c0 4124 cebf d8a3 95bf d225 30bf
00000020: 45f5 69be b12e ad3f 5a6c 0b40 d076 f9be
00000030: 9747 823f 9edc 693e 5672 5e3f 5eef 47bf
00000040: f36d 6ebe c767 0dbf 724f 0b3e 0347 9a3e
00000050: 163e dd3e eb3a 6d3e efcb a9bc 2dcc 913e
00000060: 7100 553e 1f07 fcbd 67dd a83d d12a e73e
00000070: 75df 69bd 3d4e c03e 3372 3fbf bc2f 46bd
00000080: 0fc4 23bf dcd3 c03f 9013 ffbe c282 9fbf
00000090: c64a 0b40 ded2 e03f c5e1 8a3f fbfe d03e
000000a0: 2a0b 003f 3f00 723f 62d5 8f3f d3c3 ecbe
000000b0: 8ce1 f43f db2a e0bd cc84 72bf bb2a a33f
000000c0: 6124 58bf c2ec 0b3f 3a59 abbf 1d01 b1be
000000d0: 1308 833f c989 0440 1b5c 3c3f a0c6 13bf
000000e0: c2f4 18c0 8c69 033f 147c 8d3f eb78 e23e
000000f0: 4b89 ef3e 8f0e 3dbe 6d74 0540 ee91 9cbf
0.36677355 -1.4123601 0.29920566 0.71306264 -2.5985954 -1.6104814 -1.1690626 -0.6880771
-0.22847469 1.3529874 2.1784883 -0.4872346 1.0178097 0.22838065 0.8689321 -0.7809962
-0.2328413 -0.55236477 0.13604525 0.30132303 0.4321143 0.23167007 -0.020727126 0.28476086
0.2080095 -0.12306046 0.08245354 0.45149854 -0.05709787 0.3755969 -0.7478363 -0.048385367
-0.63971037 1.5064654 -0.49819613 -1.2461779 2.1764388 1.7564352 1.0850149 0.40819535
0.50017035 0.94531626 1.1236994 -0.46243152 1.9131331 -0.10945674 -0.9473388 1.2747415
-0.8443051 0.5465814 -1.3386605 -0.34571162 1.0236839 2.0709097 0.7357804 -0.5772495
-2.3899388 0.51332927 1.1053491 0.44232878 0.46784434 -0.18462585 2.085231 -1.2232034

lstm.weight_hh_l0 f4 [8, 2]
00000000: 2980 2dbf bb19 0a3f c555 1dbe 7ffa 993f
00000010: d306 33bf d912 77be bbc9 57be 0fcd be3f
00000020: 0692 7ebf b61b ae3d a575 2d3e d24e febe
00000030: d06d 8e3f 9442 60bf 571b 2840 3006 bebf
-0.6777368 0.5394551 -0.1536475 1.202957 -0.6993229 -0.24128284 -0.21073048 1.4906329
-0.99441564 0.08501379 0.16939409 -0.4966951 1.1127262 -0.8760159 2.6266687 -1.4845638

lstm.bias_ih_l0 f4 [8]
00000000: 6459 1f40 edae 8dbe e68c 66bb 7cb5 8b3e
00000010: 8c67 efbf e602 873f be1b 0940 08f4 953f
2.489831 -0.2767252 -0.0035179197 0.272869 -1.8703475 1.054776 2.1423182 1.1715097

lstm.bias_hh_l0 f4 [8]
00000000: 1cdf f73f 7fff 1ebf 8cd9 abbf a820 0ebf
00000010: 5206 17c0 e7a4 333f f860 5440 ad0e 263f
1.9364963 -0.62108606 -1.3425765 -0.5551858 -2.3597608 0.70173496 3.3184185 0.64866143

lstm.weight_ih_l0_reverse f4 [8, 8]
00000000: e4fc 943f 08a2 31bf 7124 f2be d50a a0be
00000010: 2aae a8be e18b 9b3e b0f7 9c3f f4d4 293f
00000020: d83f 053f 5e74 fd3f e3df d93f a78d 543f
00000030: 1417 ed3c 4897 103e 5be4 0240 782d c63e
00000040: 551f d5be fb60 c03e b6be 023f 090b 6d3f
00000050: 7a85 7a3e 3100 913e 14dc 10bf d943 30bf
00000060: bb25 6fbd f70a af3d f612 7d3d b693 363f
00000070: 4220 423e f6af 293f 1b0f 3fbe 2481 b6bb
00000080: 4577 293f 0a30 66bf 18b0 353f 5200 3c3f
00000090: fbe5 f93e 2a6d 133d daea e9bd dfc6 70be
000000a0: f00c 98bf ee5a 2fbf 2dc2 abbf d9da d0be
000000b0: ec79 17bf e791 e23b c891 91bf 7cf1 40bf
000000c0: 4031 b63d a44a 57bf 824d 55bf 5c78 5e3f
000000d0: fce3 0340 9a0d b13d 3a5e a7be dda5 70bf
000000e0: 7dd3 64bf 4609 b83f 0cbe 393f a8bd 9e3d
000000f0: 78b9 503f c7a3 6c3e 8a01 81bf a0e9 a2bf
1.1639676 -0.69387865 -0.47293428 -0.31258264 -0.32945377 0.30380157 1.2263088 0.66340566
0.5205054 1.9801137 1.702145 0.83028644 0.028941669 0.14120209 2.0451877 0.38706565
-0.41625467 0.3757399 0.5107225 0.92594963 0.2446498 0.2832046 -0.5658581 -0.6885353
-0.058385592 0.08547013 0.06178566 0.7131914 0.18957618 0.6628412 -0.18658106 -0.005569594
0.66197616 -0.8991705 0.7097182 0.7343799 0.48808274 0.03599278 -0.114217475 -0.23513363
-1.1878948 -0.6849812 -1.3418633 -0.40791968 -0.59170413 0.0069143656 -1.1372614 -0.75368476
0.088961124 -0.8409827 -0.8332139 0.86902404 2.06079 0.086451724 -0.32689077 -0.9400309
-0.89385206 1.437783 0.72555614 0.07751018 0.81533 0.23109351 -1.0078595 -1.2727547

lstm.weight_hh_l0_reverse f4 [8, 2]
00000000: 8bfb 6140 e235 843f 7075 273f f520 063e
00000010: f748 c9be ef89 dd3d 5b6a cdbe f3b4 703e
00000020: d1aa 64bf 0caa ecbd 2e2a 00c0 95ff 55bf
00000030: 2e92 99be 204f 25be 32d7 c23f 3b83 3c3e
3.530978 1.0328944 0.6541357 0.1309851 -0.3931348 0.10817324 -0.40120205 0.23506527
-0.89323145 -0.11555871 -2.0025744 -0.8359311 -0.2999434 -0.16143465 1.5221922 0.18409435

lstm.bias_ih_l0_reverse f4 [8]
00000000: 1eee 2d40 e265 183f ff4b abbf fbe7 fd3e
00000010: 00b6 04c0 699d 12be c610 7c40 d6c8 113f
2.7176585 0.5953046 -1.3382567 0.4959105 -2.0736084 -0.1431786 3.9385238 0.56947076

lstm.bias_hh_l0_reverse f4 [8]
00000000: 11d2 2a40 afc9 993e c1e2 2fbf a21f fb3d
00000010: 0bfb fabf 40a5 6e3e 7881 4a40 7ac1 983e
2.6690714 0.30036685 -0.68705374 0.12261893 -1.9607862 0.23305225 3.1641521 0.2983511

hidden2label.weight f4 [30, 4]
00000000: 1954 65bf fe56 df3f c35f a43f b4bf c4bf
00000010: 4e5f cabd 52ab 663f ca98 d8bf 42bb ad3f
00000020: 69b1 61bf 785c b83e 8a8f f4be bb78 0bbf
00000030: 6075 233f 083f 90bf 45fc 38bf 3e29 ef3d
00000040: 30ca 883f e428 143e 9d8c 97bf 788a 5cbf
00000050: f24a 7e3e e7e5 06bd feda e9bf 8bc4 bf3f
00000060: dd91 9fbf 4687 c03f 1566 8fbf d947 d3bf
00000070: c468 a9bf 9d28 823f 48cf c2bf fff8 03bf
00000080: 667b fdbf 599a b4bf 517e 883f fe18 25bf
00000090: 52f4 f6bf e0f7 d5bf 7001 943f 78ec b53e
000000a0: 9ebe 7dbe 774e 033f db81 f3be e942 67bf
000000b0: f4d6 c63f 7455 c23c 8c14 05bf 7c31 65bf
000000c0: 58cb 00c0 25c9 d93f b29c 9440 246f a13f
000000d0: 357c 27bf 9f14 073f b983 7fbf f907 863f
000000e0: ebc8 d4bf 0202 ffbe b049 86be b385 733d
000000f0: 9ada 7740 b41d d040 37c8 103f 6d70 2fc0
00000100: 520b 43c0 5cff d73f 1aee 4940 bfbf aa3e
00000110: eaed 0ec0 7080 a6bf bca1 d23e 002f 0f3e
00000120: f32c d5be 73bc ba3e 117c d5bf 11e1 6ebf
00000130: 0d07 e43e 8975 42bf 2cb6 8cbf a58b e9be
00000140: 8c13 7b3f 7391 53bd 708e 0bc0 ce9a 3cbf
00000150: 9dac ca3d dff5 1f3e 6e94 96bf 2fd9 ab3f
00000160: 7b51 513e 5e8d 973d 87fd 713e 2fd6 66bd
00000170: 4a79 e43e 2032 7b3e 9b8e 0ec0 5f01 0e3e
00000180: 49dd 6d41 1df2 46c1 90de b841 6dcc d340
00000190: 8602 5ebe 7af3 9abd 714c 47bf 0330 3f3e
000001a0: d852 b93d fe60 a1be 56c8 febc a747 503e
000001b0: 1bbf 51bd 88ae 483e b9bc b5bd 0117 e6bd
000001c0: e885 bfbe 1052 08be b243 e23e 30b5 ce3b
000001d0: cd19 7cc0 05ab cb3f fa29 49c1 a50c fcbf
-0.8958145 1.7448423 1.2841724 -1.5371003 -0.09881459 0.90105164 -1.6921628 1.3572772
-0.8816133 0.36008048 -0.47765762 -0.54481095 0.63850975 -1.1269236 -0.7225993 0.11677788
1.0686703 0.14468724 -1.1839787 -0.86148787 0.24833277 -0.032934096 -1.8269956 1.4981855
-1.2466389 1.5041282 -1.1203028 -1.6506301 -1.3235097 1.0168644 -1.5219507 -0.5155181
-1.9803283 -1.4109603 1.0663549 -0.6449126 -1.9293311 -1.671627 1.1562939 0.35531974
-0.24779746 0.512916 -0.4756001 -0.9033647 1.5534348 0.023722388 -0.5198448 -0.8952863
-2.012411 1.701451 4.644128 1.2612042 -0.654239 0.5276584 -0.9981037 1.0471183
-1.6623815 -0.4980622 -0.26228094 0.059453677 3.8727174 6.503626 0.56555504 -2.741237
-3.047566 1.6874804 3.1551576 0.33349416 -2.2332711 -1.3007946 0.4113902 0.13982773
-0.41635856 0.364719 -1.6678487 -0.93312174 0.4453663 -0.75960594 -1.0993094 -0.45614353
0.980767 -0.051652383 -2.1805687 -0.73673713 0.098962046 0.15621136 -1.1764047 1.3425654
0.20441239 0.074000105 0.2363187 -0.056356605 0.44623786 0.2453084 -2.227454 0.1386771
14.866525 -12.43411 23.108673 6.6187043 -0.2168065 -0.07565971 -0.77851015 0.18670659
0.09049004 -0.31519312 -0.031101387 0.20339833 -0.051207643 0.19597828 -0.088738866 -0.112348564
-0.3740685 -0.13312554 0.44192272 0.0063082203 -3.9390748 1.5911566 -12.572748 -1.9691359

hidden2label.bias f4 [30]
00000000: 2fff 313e 08e5 a03f b238 23be a4ec a33f
00000010: 8dab a43f fa3e 943f 4e50 a93e 2085 a5be
00000020: b085 6e3f 871b 263f 386d e0be 5f03 1740
00000030: cb5e 0d40 a1c5 0840 114b 2e3f 0449 e9be
00000040: efe3 0940 c4f8 c53f 899e e03f 8f9b d03f
00000050: 7b30 01bf 99f4 c33f 2b1d 30bf 8e5c 7cbf
00000060: 8a9b 9c41 4cb9 563f 1241 9bbf cc64 6bbf
00000070: 8ea9 8fbe 2e04 2ac2
0.17382501 1.2569895 -0.15939596 1.2806592 1.2864853 1.1581719 0.3306908 -0.3232813
0.9317274 0.64885753 -0.43833327 2.3595808 2.2089107 2.1370623 0.6808329 -0.4556352
2.154537 1.5466542 1.7548381 1.6297473 -0.504646 1.530902 -0.68794507 -0.9857873
19.575947 0.8387649 -1.2129233 -0.9195068 -0.28059047 -42.50408
