PJ2/debug/bilstm_crf_model_2.pth (torch, 66650 bytes, 12 tensors)

transitions f4 [30, 30]
0.15693653 1.1022593 0.18556775 -0.07894558 0.13599491 0.04190526 -0.2699114 1.4546086
0.9037218 0.9434159 0.7883819 -1.313584 0.40320238 0.40502366 -0.13719283 0.1663302
-0.29394263 -0.100309074 -0.2952409 0.4443975 -1.2937442 -0.20561674 -1.8351755 1.1172335
-1.0460155 1.0138066 -1.1864359 1.0249574 -1.6800387 -9994.141 0.966783 0.66554224
-0.47956738 1.1019524 -0.06693967 0.36754513 0.56352925 0.017157463 -1.7721845 -0.6530524
1.0671881 -0.038623624 0.19119976 0.2371803 -0.525984 -0.17450759 0.72353506 0.6916668
-0.33374187 1.6461633 0.99619573 -0.61886656 0.8106485 -0.0934767 0.22121264 -0.3836434
1.7015567 -0.94890934 -0.47555396 -9994.141 0.8487127 0.97103477 -0.86177367 -1.1908844
-2.1149716 -0.8929128 -2.0856462 -0.5270622 0.28493398 0.25266907 -1.3710357 1.2216306
0.53607 1.1418769 -0.0015641939 1.174048 -1.1823034 0.708679 -0.18441525 -0.13855487
0.7315106 -0.386316 0.58040357 -1.0196053 -0.23385644 0.26074892 -0.8644244 -0.8073859
-1.2453452 -9994.141 0.4857548 0.3835294 0.31787944 -0.666135 1.3124313 0.9355751
1.2059839 1.2846493 0.23723115 -0.058947213 -0.5483531 -1.1232024 -0.034196354 2.087173
-0.5936897 -0.24813725 1.7771697 -0.49784398 0.03207523 0.67535025 0.22743396 -0.6478285
0.10567115 -0.5737908 -0.6042117 -1.6898117 0.27205354 0.72871536 1.0534482 -9994.141
-0.97891587 0.44816995 0.22543488 0.031795338 -0.7928271 1.2081268 0.22278619 0.2991832
-1.369873 -0.69745916 0.22714199 0.571751 0.9931392 -1.9615769 -0.8899059 -1.234265
0.8970655 0.8155053 -2.3716388 -1.4671977 0.18645406 1.5954505 0.28292984 -0.9207451
1.4061269 1.1994267 0.023750218 -0.6382859 0.5177548 -9994.141 -1.6370809 0.990603
0.48340753 1.33479 -2.2977674 -0.24110572 1.4604409 -0.79038715 0.4345893 0.5478288
-0.54007065 -1.4977677 -0.067268796 0.50361377 -0.32883167 -0.21677254 -0.76748604 0.69954264
-0.89123476 0.60016495 -1.4833018 -0.445352 0.8230412 1.2403706 0.16841766 1.534935
0.5603705 0.45672983 -0.032565672 -9994.141 1.6653672 0.67581314 -1.2272315 -0.54421556
1.0644228 -1.1598372 0.04700385 -1.1676189 1.5067108 -0.39550143 -1.2942393 -0.9453864
0.74253225 -0.8765642 0.35307845 -0.034333855 -0.5172237 2.3078732 -0.99530756 -1.6553444
0.45571622 0.19002801 -1.9885386 -0.42565125 0.17888781 0.2733955 1.2219118 0.233352
1.7044861 -9994.141 0.06181863 0.029162176 1.182187 -0.93926936 0.31209517 -0.25927594
0.7558903 0.5785871 -0.2185527 0.35135502 -1.132699 0.04570247 2.9174213 1.3497185
0.7634734 -0.6254376 -0.7434983 0.2911264 -1.7310886 -0.09672889 -0.87008125 0.7024462
-1.0669743 -2.1540213 0.2315975 1.0642074 -0.1243932 0.09039069 0.00708047 -9994.141
1.8956265 0.0112879975 -0.5638775 -0.802494 -0.9694149 0.9464802 0.10591446 0.6179407
0.58526695 -0.38706428 0.18937741 0.32618627 -1.5159212 0.6694359 -0.10195095 0.14876866
00000000: f8b3 203e d516 8d3f 7905 3e3e 38ae a1bd
00000010: 4042 0b3e daa4 2b3d d431 8abe 9d30 ba3f
00000020: 505a 673f b483 713f 65d3 493f 8523 a8bf
00000030: 8b70 ce3e 435f cf3e 477c 0cbe 7752 2a3e
00000040: a67f 96be d86e cdbd d129 97be 1288 e33e
00000050: 6999 a5bf 328d 52be 08e7 eabf 8201 8f3f
00000060: d6e3 85bf 6ac4 813f 22dd 97bf ce31 833f
00000070: 820b d7bf 9028 1cc6 177f 773f fa60 2a3f
00000080: db89 f5be c70c 8d3f aa17 89bd e02e bc3e
00000090: 7443 103f cf8d 8c3c f1d6 e2bf 712e 27bf
000000a0: 9f99 883f ce33 1ebd dfc9 433e 64df 723e
000000b0: e3a6 06bf 1eb2 32be 9839 393f 1311 313f
000000c0: 37e0 aabe 7bb5 d23f af06 7f3f 0a6e 1ebf
000000d0: a986 4f3f b670 bfbd 9185 623e e86c c4be
000000e0: 9ccc d93f b9eb 72bf cf7b f3be 9028 1cc6
000000f0: 3c45 593f bc95 783f 339d 5cbf e66e 98bf
00000100: b25b 07c0 ef95 64bf 3a7b 05c0 8ced 06bf
00000110: dee2 913e d75d 813e 197e afbf 645e 9c3f
00000120: e23b 093f 0629 923f a305 cdba 3447 963f
00000130: b855 97bf fd6b 353f 5ad7 3cbe 54e1 0dbe
00000140: 4744 3b3f 36cb c5be 5495 143f 6d82 82bf
00000150: 1078 6fbe e280 853e eb4a 5dbf d8b0 4ebf
00000160: 7967 9fbf 9028 1cc6 dab4 f83e f75d c43e
00000170: 18c1 a23e d387 2abf c0fd a73f da81 6f3f
00000180: ae5d 9a3f 636f a43f b9ec 723e a272 71bd
00000190: de60 0cbf 19c5 8fbf 7a11 0cbd 3e94 0540
000001a0: 0cfc 17bf b117 7ebe 4c7a e33f 68e5 febe
000001b0: 5161 033d c1e3 2c3f 73e4 683e 17d8 25bf
000001c0: 1e6a d83d f4e3 12bf 9ead 1abf c04b d8bf
000001d0: 9a4a 8b3e 178d 3a3f 64d7 863f 9028 1cc6
000001e0: 3b9a 7abf 8876 e53e 67d8 663e d43b 023d
000001f0: b8f6 4abf e6a3 9a3f 1022 643e 8a2e 993e
00000200: 0058 afbf af8c 32bf e997 683e 465e 123f
00000210: 5f3e 7e3f f414 fbbf e0d0 63bf 65fc 9dbf
00000220: 16a6 653f f5c4 503f eec8 17c0 22cd bbbf
00000230: d0ed 3e3e b937 cc3f 2edc 903e f3b5 6bbf
00000240: f7fb b33f d086 993f d18f c23c b466 23bf
00000250: 948b 043f 9028 1cc6 de8b d1bf 2998 7d3f
00000260: 3181 f73e 66da aa3f 9f0e 13c0 6be4 76be
00000270: baef ba3f d056 4abf 7d82 de3e 823e 0c3f
00000280: 1242 0abf dab6 bfbf 39c4 89bd d5ec 003f
00000290: a05c a8be 9ff9 5dbe f779 44bf 3a15 333f
000002a0: f627 64bf 69a4 193f d5dc bdbf 2d05 e4be
000002b0: d4b2 523f 77c4 9e3f ae75 2c3e c078 c43f
000002c0: 7174 0f3f 7ed8 e93e 9563 05bd 9028 1cc6
000002d0: c12a d53f 1702 2d3f ec15 9dbf b651 0bbf
000002e0: 023f 883f 8c75 94bf 1c87 403d 8974 95bf
000002f0: e6db c03f 2a7f cabe a2a9 a5bf d804 72bf
00000300: 9816 3e3f 8366 60bf b3c6 b43e a8a1 0cbd
00000310: c668 04bf 32b4 1340 7acc 7ebf 53e2 d3bf
00000320: a353 e93e b496 423e 6f88 febf f6ee d9be
00000330: 5e2e 373e 7ffa 8b3e 9b67 9c3f d4f3 6e3e
00000340: 9a2c da3f 9028 1cc6 8835 7d3d 84e5 ee3c
00000350: e751 973f f573 70bf f0ca 9f3e d1bf 84be
00000360: 0782 413f 491e 143f 47cc 5fbe cee4 b33e
00000370: 48fc 90bf 8332 3b3d 08b7 3a40 93c3 ac3f
00000380: fe72 433f ae1c 20bf e855 3ebf 850e 953e
00000390: 5094 ddbf cc19 c6bd a5bd 5ebf 84d3 333f
000003a0: 9d92 88bf 7cdb 09c0 e527 6d3e f337 883f
000003b0: ddc1 febd c11e b93d 4a03 e83b 9028 1cc6
000003c0: e4a3 f23f 4bf1 383c 475a 10bf 3f70 4dbf
000003d0: 932b 78bf 874c 723f aee9 d83d 5d31 1e3f
000003e0: 0ed4 153f 4a2d c6be 27ec 413e e301 a73e
000003f0: b509 c2bf 2760 2b3f a9cb d0bd d056 183e

embedding.weight f4 [1846, 8]
-0.020642411 -0.14043349 -2.8152974 1.1447765 0.10829212 0.21981533 -0.025352381 0.38818693
0.64843875 1.1441164 -1.6754586 -1.2018718 -0.866839 -0.77388275 -1.1758789 0.48449975
-0.07700695 -0.1813673 0.7052183 1.0410514 0.101977125 0.65115726 0.02276555 0.36206847
1.2825489 1.023732 -1.3900801 0.008789815 -0.22895688 0.49441493 0.24345946 -0.8768751
0.45925167 0.19916576 2.0284073 0.5332165 2.184626 -0.91706955 -0.057333767 -0.55488884
-0.27242967 0.4433067 -1.6538159 -0.077974476 -1.17469 0.8938525 -1.0987934 1.1065892
0.4639948 0.4144197 -0.47466645 -0.88477796 -0.93609023 1.1597664 1.0389657 0.18186095
1.4530649 -0.45386404 0.61007214 -0.8060237 0.7396327 -0.7975213 -1.3841182 0.3934789
1.6721474 3.0461836 -1.0372593 -0.86215615 0.4531082 0.57940716 -0.36453715 2.4781225
1.6602807 -0.23772532 -0.56908315 0.8501378 -1.0407294 -0.27278024 0.28048405 -0.1286849
0.31806436 0.032493208 0.34651557 0.2737479 2.7090378 0.05609207 0.19374059 -0.06641019
0.3832414 -0.10627734 -0.32641238 0.24573535 0.43902767 -0.15223657 2.182231 -0.38514978
1.3884138 -0.8089738 0.27394605 1.4125366 1.0177021 0.017474731 0.06670712 -2.588245
0.6179749 -0.47086048 0.8353138 -0.4995833 1.0102711 0.6932253 -0.8227045 -0.48182607
0.0735703 -0.62136865 -0.39377198 -1.8819908 -0.073716946 -0.403896 0.42110544 -0.8627518
1.9026175 2.3795505 -1.2109388 -1.4166542 -0.026812144 -0.3869187 0.21663818 -0.13834558
-0.53589267 0.663915 -0.11474816 -0.20033146 0.21519437 0.97221774 -0.4873149 -0.06687757
0.4291497 0.05977172 1.0664299 -1.2823563 -0.31344056 -0.9203797 0.45737055 1.8286651
0.6381985 2.8106377 0.102063246 0.05617 -0.5888941 -0.62628996 0.17169134 -0.6876574
0.17312932 0.38698113 1.3299152 -1.7627002 1.2086555 -1.7729901 0.28312638 0.24210532
-0.49637526 0.5583527 0.6026488 -0.65356714 0.22903533 0.930575 -0.7989149 0.6353473
-0.28653413 -2.0838401 -0.86221516 0.3482791 -0.059542716 -0.25771487 0.60281616 -1.4182876
-0.23705089 -0.78200406 -1.1118572 -3.150508 0.46724442 -1.0788498 0.09027155 -0.30962545
-1.7129836 -0.4389912 -0.4981093 1.1835556 0.2309022 -0.6506357 1.3124454 -0.084182486
0.6343014 -0.6609381 -0.41948926 -0.36341313 0.48161653 0.74937445 0.7892915 -0.6079195
-0.98660713 2.0755384 1.024212 1.27361 -0.6703895 -1.4991064 -1.2238015 0.9193287
-0.08370974 0.76249427 0.9389791 -0.8260009 1.3839408 -0.7928211 -1.1044898 0.8518246
0.19683553 0.73776597 1.243242 -1.2749621 1.042838 0.008164189 1.4340698 0.77946556
-0.49955955 0.7305715 0.80394244 2.2278905 -0.42252633 1.1412414 -0.52244157 -1.1120406
0.24703138 0.094746836 2.1889453 -0.17856763 0.5388612 -1.5426913 0.5326241 0.71455765
1.0125282 1.2035922 -1.5825627 -0.108183816 -0.27054587 0.36421382 1.6225826 -0.029214717
0.40753505 -0.60826 1.2523305 -1.122589 0.31607178 -0.26649028 -0.53096175 0.52754366
00000000: 461a a9bc cccd 0fbe d52d 34c0 0988 923f
00000010: 42c8 dd3d 4517 613e ccaf cfbc 70c0 c63e
00000020: 1500 263f 6872 923f 6d75 d6bf efd6 99bf
00000030: 29e9 5dbf 2e1d 46bf 3383 96bf 5a10 f83e
00000040: d2b5 9dbd 59b8 39be 3089 343f 2c41 853f
00000050: 62d9 d03d 3eb2 263f d27e ba3c 0a61 b93e
00000060: 902a a43f a609 833f 25ee b1bf 2803 103c
00000070: ac73 6abe f423 fd3e 704d 793e e37a 60bf
00000080: 0923 eb3e 1cf2 4b3e 6dd1 0140 e080 083f
00000090: ead0 0b40 12c5 6abf d0d6 6abd 320d 0ebf
000000a0: e77b 8bbe 19f9 e23e 3db0 d3bf 15b1 9fbd
000000b0: 3e5c 96bf 84d3 643f 43a5 8cbf b7a4 8d3f
000000c0: ba90 ed3e d22e d43e 7b07 f3be cf80 62bf
000000d0: 9ca3 6fbf 3a73 943f d4fc 843f c239 3a3e
000000e0: 08fe b93f de60 e8be b02d 1c3f 9257 4ebf
000000f0: 9258 3d3f 5b2a 4cbf c92a b1bf 1176 c93e
00000100: ed08 d63f acf4 4240 eac4 84bf 44b6 5cbf
00000110: ccfd e73e 0754 143f 9da4 babe 8f99 1e40
00000120: 1484 d43f 446e 73be 6faf 11bf a2a2 593f
00000130: 9f36 85bf daa9 8bbe 9b9b 8f3e f9c5 03be
00000140: 55d9 a23e 9917 053d 7d6a b13e af28 8c3e
00000150: e060 2d40 ccc0 653d ef63 463e 1102 88bd
00000160: 3738 c43e efa7 d9bd 861f a7be 0ca2 7b3e
00000170: 3cc8 e03e e7e3 1bbe aca9 0b40 5a32 c5be
00000180: 8bb7 b13f e818 4fbf a842 8c3e 00ce b43f
00000190: 1044 823f 2b27 8f3c be9d 883d cea5 25c0
000001a0: 9a33 1e3f a014 f1be 20d7 553f 62c9 ffbe
000001b0: 9050 813f 3777 313f c39c 52bf e8b1 f6be
000001c0: 07ac 963d 0412 1fbf 7b9c c9be 13e5 f0bf
000001d0: e9f8 96bd 75cb cebe 229b d73e 4ddd 5cbf
000001e0: f888 f33f 8e4a 1840 0b00 9bbf ed54 b5bf
000001f0: 24a5 dbbc 351a c6be 66d6 5d3e 77aa 0dbe
00000200: 4330 09bf 55f6 293f 1501 ebbd b123 4dbe
00000210: ea5b 5c3e 43e3 783f 5781 f9be 1bf7 88bd
00000220: 82b9 db3e 31d3 743d c680 883f 4024 a4bf
00000230: 487b a0be 019e 6bbf 792c ea3e b311 ea3f
00000240: fa60 233f 7de1 3340 8906 d13d 8412 663d
00000250: c4c1 16bf 8a54 20bf dbcf 2f3e 510a 30bf
00000260: d048 313e 6422 c63e a93a aa3f 29a0 e1bf
00000270: 39b5 9a3f 57f1 e2bf f1f5 903e 75ea 773e
00000280: e624 febe 34f0 0e3f 3147 1a3f 2d50 27bf
00000290: 3d88 6a3e 2a3a 6e3f b085 4cbf 1fa6 223f
000002a0: 9ab4 92be a35d 05c0 22ba 5cbf a351 b23e
000002b0: 10e3 73bd 34f3 83be 2952 1a3f 738a b5bf
000002c0: 78bd 72be 6b31 48bf 5651 8ebf eca1 49c0
000002d0: a93a ef3e c017 8abf 4ae0 b83d 3a87 9ebe
000002e0: 0c43 dbbf 74c3 e0be 2f08 ffbe c07e 973f
000002f0: a071 6c3e 1090 26bf 36fe a73f de67 acbd
00000300: 9461 223f 3d33 29bf 4cc7 d6be 4911 babe
00000310: 7196 f63e 01d7 3f3f 020f 4a3f 9da0 1bbf
00000320: 4992 7cbf 9fd5 0440 6119 833f a705 a33f
00000330: a59e 2bbf b8e2 bfbf 87a5 9cbf 2059 6b3f
00000340: 0370 abbd d332 433f ef60 703f cc74 53bf
00000350: f924 b13f 53f6 4abf ec5f 8dbf 2d11 5a3f
00000360: 418f 493e 3bde 3c3f 8e22 9f3f f531 a3bf
00000370: b77b 853f 17c3 053c 998f b73f 0e8b 473f
00000380: 45c6 ffbe bc06 3b3f 2ccf 4d3f c295 0e40
00000390: 5f55 d8be 3314 923f bbbe 05bf 5957 8ebf
000003a0: cbf5 7c3e a10a c23d ae17 0c40 6fda 36be
000003b0: cff2 093f e976 c5bf 0e5a 083f 40ed 363f
000003c0: 869a 813f 4f0f 9a3f 6a91 cabf 7a8f ddbd
000003d0: fd84 8abe 3c7a ba3e c9b0 cf3f b453 efbc
000003e0: 6fa8 d03e edb6 1bbf 5e4c a03f ffb0 8fbf
000003f0: 29d4 a13e 6a71 88be 1ced 07bf 1a0d 073f

lstm.weight_ih_l0 f4 [8, 8]
0.11969678 0.12713562 0.25156906 0.08539642 -0.30164367 -0.22858523 -0.9239787 -0.031598784
0.21131584 -0.8557976 0.18269746 -0.25732657 0.29097918 -0.52416146 -0.14950186 -0.3177911
0.7824976 -0.17990716 -0.42016476 -0.26720405 0.4636164 0.08945649 0.34777984 -0.027346224
-0.076803245 0.4826977 0.4229167 -0.35350904 0.35569525 0.43652734 0.014042954 0.19688882
-0.32253534 -0.32140142 -0.56440175 -0.099148385 0.89929366 0.61322194 -0.09795105 -0.4390027
0.49222875 0.18509863 0.48732772 -0.5081183 -0.1671383 -0.83471507 -0.2814514 0.36169913
-0.9236126 -0.87232435 -0.72182035 -1.1295991 -0.68911356 -0.012730306 0.106916316 -0.1562479
-0.51509047 -0.8897738 0.5626394 -0.29938006 -0.66132945 -0.1857932 0.49226925 -0.071938775
00000000: 9623 f53d d72f 023e a9cd 803e 51e4 ae3d
00000010: 0a71 9abe 3f12 6abe de89 6cbf ba6d 01bd
00000020: 2e63 583e 8d15 5bbf 0b15 3b3e 4fc0 83be
00000030: 39fb 943e 722f 06bf 0417 19be 84b5 a2be
00000040: c351 483f 9539 38be d61f d7be f8ce 88be
00000050: 215f ed3e f734 b73d 3310 b23e 3005 e0bc
00000060: 054b 9dbd 2724 f73e 8a88 d83e 23ff b4be
00000070: b01d b63e 8380 df3e 6b14 663c 399d 493e
00000080: 5a23 a5be ba8e a4be a27c 10bf 4f0e cbbd
00000090: 1c38 663f 1dfc 1c3f 8f9a c8bd f6c4 e0be
000000a0: 6805 fc3e 7f8a 3d3e 0583 f93e 0a14 02bf
000000b0: 4d26 2bbe e3af 55bf 661a 90be a130 b93e
000000c0: e071 6cbf a650 5fbf 38c9 38bf b496 90bf
000000d0: bf69 30bf c692 50bc f1f6 da3d 73ff 1fbe
000000e0: f8dc 03bf 37c8 63bf 2309 103f 5848 99be
000000f0: e34c 29bf 9340 3ebe b70a fc3e a354 93bd

lstm.weight_hh_l0 f4 [8, 2]
-0.67345196 0.7728845 0.10501735 -0.1059242 -0.34396285 -0.55786896 0.23357162 -0.6913534
-0.042795558 -0.057318654 0.2640656 -0.32198384 -0.28569442 -0.05890379 -0.23355928 0.01933591
00000000: 5967 2cbf c2db 453f 5613 d73d c9ee d8bd
00000010: e61b b0be 80d0 0ebf 662d 6f3e 89fc 30bf
00000020: 654a 2fbd f7c6 6abd 9b33 873e 11db a4be
00000030: 8a46 92be 1a45 71bd 2a2a 6fbe 5866 9e3c

lstm.bias_ih_l0 f4 [8]
0.5050092 0.33448556 0.52437204 -0.70267177 -0.17570585 -0.76718324 0.50035036 0.9424707
00000000: 4848 013f b141 ab3e 3f3d 063f 4ce2 33bf
00000010: 3cec 33be 1f66 44bf f616 003f c345 713f

lstm.bias_hh_l0 f4 [8]
0.17681147 0.08902566 0.17516628 -0.659471 -0.8828706 -0.78366673 0.7634887 0.047625832
00000000: 110e 353e 1653 b63d ca5e 333e 17d3 28bf
00000010: cf03 62bf 629e 48bf ff73 433f 4e13 433d

lstm.weight_ih_l0_reverse f4 [8, 8]
0.19305739 -0.868765 -0.14813319 -0.1285417 -0.19427 -0.6404714 0.41274953 -0.37999982
-0.3105237 -0.45657688 0.3500705 0.29881793 0.46358478 -1.2849379 -0.6764448 0.28196117
0.15328756 -0.040423732 0.29204553 0.023962848 -0.052610423 0.35037127 0.033312444 -0.08659679
-0.21420643 -0.46274456 -0.52926975 -0.05119435 0.58151466 0.12352927 0.6958934 -0.30310136
-0.6541076 -0.24686734 0.37192598 -0.50882214 0.12760577 -0.10444483 0.86959344 0.47440454
-0.18013997 0.09262905 -0.9729403 0.5067591 0.19546624 -0.51450115 0.13090733 0.7364384
-0.17256936 0.38603348 -0.32261875 0.7082589 -0.745945 0.5658165 0.95013374 0.00016400895
-0.15338613 -0.9419036 0.27876154 0.5568666 0.36834854 -0.6198652 -0.37813076 -0.38948944
00000000: d6b0 453e 6267 5ebf 3ab0 17be 6fa0 03be
00000010: b7ee 46be eff5 23bf e853 d33e 568f c2be
00000020: f6fc 9ebe 72c4 e9be 713c b33e aafe 983e
00000030: fc5a ed3e d878 a4bf 7d2b 2dbf 375d 903e
00000040: 6af7 1c3e 5b93 25bd fe86 953e bc4d c43c
00000050: 077e 57bd dd63 b33e a172 083d a859 b1bd
00000060: ee58 5bbe dbec ecbe 397e 07bf 2bb1 51bd
00000070: 25de 143f eafc fc3d 1226 323f 1a30 9bbe
00000080: 9873 27bf cbca 7cbe 156d be3e 2b42 02bf
00000090: 16ab 023e 2ce7 d5bd ad9d 5e3f 27e5 f23e
000000a0: 9d76 38be 4db4 bd3d 9e12 79bf f7ba 013f
000000b0: 4d28 483e 59b6 03bf 920c 063e 3a87 3c3f
000000c0: 06b6 30be 2ea6 c53e 492e a5be 7550 353f
000000d0: 40f6 3ebf 5ad9 103f f73b 733f d1f9 2b39
000000e0: 4111 1dbe 9820 71bf d5b9 8e3e cf8e 0e3f
000000f0: 2e98 bc3e 7caf 1ebf 5b9a c1be 296b c7be

lstm.weight_hh_l0_reverse f4 [8, 2]
0.20474601 0.4109504 -0.7489801 0.1465766 -0.73167676 0.2998618 -0.50693184 0.24760574
0.014277303 -0.16375156 0.37004375 -0.18096116 -0.67769355 -0.10896178 -0.5020977 -0.34195
00000000: f0a8 513e 1768 d23e 29bd 3fbf 2d18 163e
00000010: 2b4f 3bbf 7c87 993e 49c6 01bf 5c8c 7d3e
00000020: 59eb 693c 7dae 27be 6076 bd3e e24d 39be
00000030: 537d 2dbf 5b27 dfbd 7a89 00bf 1214 afbe

lstm.bias_ih_l0_reverse f4 [8]
-0.3162261 -0.47240612 0.14951405 0.13319133 0.03391655 0.017792683 0.34093678 0.31583512
00000000: 63e8 a1be 37df f1be 361a 193e 4f63 083e
00000010: 15ec 0a3d f6c1 913c 448f ae3e 24b5 a13e

lstm.bias_hh_l0_reverse f4 [8]
0.886386 0.69890034 0.30264947 -0.115624435 -0.9636606 -0.2955361 -0.03542752 0.8122221
00000000: 31ea 623f 22eb 323f dff4 9a3e 81cc ecbd
00000010: 76b2 76bf 8250 97be 721c 11bd caed 4f3f

hidden2label.weight f4 [30, 4]
-0.22214174 0.15337999 -0.15527697 0.454168 -0.22289695 -0.08729296 0.38461474 -0.4090395
0.51420796 0.051078953 0.36520782 0.010107383 0.14106569 -0.44614527 0.05260693 -0.35595557
-0.3577914 0.24143673 -0.7018937 0.15915869 0.07891339 0.24336848 0.30733925 0.25357115
0.59665996 -0.045530666 -0.18738161 -0.09127862 -0.55929554 -0.37472153 -1.4765162 -0.4221028
0.5559175 -0.09352608 0.35622668 -0.29397997 -0.1817344 -0.5178074 -0.40146747 0.037703827
0.049722187 0.36389753 -0.20576638 -0.19541317 -0.06906802 -0.17628129 -0.10755785 -0.3250996
-1.1909103 0.97383827 0.750389 -1.4241798 0.4440531 0.38738623 -0.015269134 -0.030133883
0.091851085 0.28406104 -0.051933486 0.4186949 -0.8421073 0.46879384 0.5739898 -0.15450972
-0.0045565222 -0.5047773 0.05579078 -0.09870131 -0.23775576 -0.8287555 0.483946 0.1647831
0.5021443 -0.2565853 -0.18531406 -0.04537267 0.42100692 -0.28851616 -0.29646975 -0.2883045
-0.21151799 -0.64714134 -0.035339683 0.4561054 0.25631374 -0.5942035 0.39291677 -0.43764567
0.3451907 0.13735598 0.36003947 0.1785721 -0.77167696 -1.1143689 -1.0145303 -0.46555567
1.7176641 0.5711727 0.66397107 -1.6241568 0.5165569 0.052698463 0.12921944 0.4210026
0.18519183 0.14302519 0.38923326 0.3351883 0.48508647 0.21037579 0.4940008 0.63510716
0.23905271 0.16113198 0.16825682 -0.21169269 -0.063085414 -0.371477 -0.07347697 -0.26029363
00000000: 2079 63be a50f 1d3e ed00 1fbe b588 e83e
00000010: 193f 64be a7c6 b2bd 39ec c43e a06d d1be
00000020: 22a3 033f 2a38 513d 85fc ba3e 7099 253c
00000030: 8673 103e 276d e4be 5d7a 573d cf3f b6be
00000040: 6f30 b7be 313b 773e 4eaf 33bf 7ffa 223e
00000050: 589d a13d 9635 793e 925b 9d3e 14d4 813e
00000060: b5be 183f 5d7e 3abd f7e0 3fbe 49f0 babd
00000070: fe2d 0fbf 80db bfbe 7cfe bcbf dc1d d8be
00000080: 9c50 0e3f 9a8a bfbd 5863 b63e 8b84 96be
00000090: 9518 3abe 078f 04bf 258d cdbe 546f 1a3d
000000a0: 7ea9 4b3d c750 ba3e 6cb4 52be 641a 48be
000000b0: 8973 8dbd 1583 34be 4a47 dcbd 7473 a6be
000000c0: c06f 98bf 774d 793f 7e19 403f 864b b6bf
000000d0: ee5a e33e 7d57 c63e 642b 7abc 55db f6bc
000000e0: 6c1c bc3d 7370 913e 35b8 54bd 2e5f d63e
000000f0: 5894 57bf bf05 f03e fff0 123f cc37 1ebe
00000100: e14e 95bb 1639 01bf df84 643d ea23 cabd
00000110: 3f76 73be 5229 54bf c5c7 f73e e7bc 283e
00000120: 878c 003f 265f 83be f8c2 3dbe b1d8 39bd
00000130: 388e d73e 64b8 93be e2ca 97be a69c 93be
00000140: 2c98 58be 0eab 25bf 58c0 10bd a686 e93e
00000150: 8e3b 833e b81d 18bf 632c c93e 1813 e0be
00000160: d6bc b03e 0ca7 0c3e 1857 b83e 9bdb 363e
00000170: 9f8c 45bf a4a3 8ebf 21dc 81bf 505d eebe
00000180: 6bdc db3f 6038 123f 02fa 293f 5fe4 cfbf
00000190: 133d 043f 58da 573d 1a52 043e a78d d73e
000001a0: eda2 3d3e 3275 123e 9549 c73e cd9d ab3e
000001b0: 415d f83e c06c 573e aced fc3e 6296 223f
000001c0: 3cca 743e c8ff 243e 844b 2c3e f8c5 58be
000001d0: ed32 81bd 3c32 bebe 187b 96bd 3545 85be

hidden2label.bias f4 [30]
-0.6439508 -0.11448406 -1.1274198 -0.25800171 0.8163686 -0.9962085 -0.8902889 0.7604716
-0.43869153 0.5809097 -0.87781304 -0.13806191 0.5497878 -0.36396188 -0.35796395 0.35706487
0.27748808 1.1164858 -0.27458212 -0.07697563 0.4295558 -0.25332642 -0.55809355 0.88583356
3.7231176 -0.16162367 -0.63684905 -1.054006 0.28894895 -0.7142518
00000000: f6d9 24bf 9e76 eabd 4b4f 90bf cd18 84be
00000010: 88fd 503f 8507 7fbf f9e9 63bf 44ae 423f
00000020: 2d9c e0be 80b6 143f 5bb8 60bf 1a60 0dbe
00000030: e5be 0c3f 3659 babe 0d47 b7be 35d1 b63e
00000040: eb12 8e3e 02e9 8e3f 0796 8cbe 66a5 9dbd
00000050: bdee db3e 00b4 81be 38df 0ebf fdc5 623f
00000060: 8f47 6e40 ad80 25be 8a08 23bf abe9 86bf
00000070: 1ef1 933e 35d9 36bf
