PJ2/NER/English/Bilstm_crf_model_sota.pth (torch, 542661 bytes, 12 tensors)

transitions f4 [11, 11]
000000 b4 94 88 be e5 01 2a bf 09 29 e0 bf f7 94 bf be
       -0.2667595 -0.6640914 -1.7512523 -0.3741834
000010 cb 24 59 3c ad 63 1d bf 88 ca 9a bf c0 04 60 bf
       0.013253401 -0.6148022 -1.2093058 -0.8750725
000020 19 4a 65 40 0b a1 20 40 de 88 19 c5 6b b0 7f 3f
       3.5826476 2.5098293 -2456.5542 0.9987857
000030 11 45 9e 3f 97 9a 41 bf 84 f8 81 bf c7 fc 4b 3b
       1.2364827 -0.7562651 -1.0153966 0.0031126009
000040 4e 6c 87 3e 77 e4 cc be 6d 1a 41 bf c2 d8 f3 3f
       0.26449817 -0.40018055 -0.7543095 1.9050524
000050 ae f3 89 3f de 88 19 c5 f3 a6 ec be 42 b4 d0 3d
       1.077749 -2456.5542 -0.46221122 0.101906314
000060 85 8b 36 3f dc 1a b0 bf 98 60 2e bf 9d 59 21 bf
       0.7130664 -1.3758197 -0.6811614 -0.63027364
000070 80 a5 30 be e4 a6 7f bf e9 19 09 40 e4 ca 1a 40
       -0.17250633 -0.9986403 2.1422064 2.4186335
000080 de 88 19 c5 52 64 0f c0 a2 dc 09 3f eb ab 7b bf
       -2456.5542 -2.240498 0.53852284 -0.983092
000090 07 8e ee bf 08 46 94 bf 37 2b 52 bf dd 65 cf be
       -1.8637093 -1.1583872 -0.8209719 -0.40507403
0000a0 05 90 be bf 83 b8 17 40 da 4f 3a 40 de 88 19 c5
       -1.4887701 2.3706367 2.9111238 -2456.5542
0000b0 e3 b8 c4 40 19 fb 80 bf 4b d7 7d bf 7a f2 3f bf
       6.147569 -1.0076629 -0.99156636 -0.74979365
0000c0 63 4f a6 40 a5 40 2a bf 23 50 6a bf 12 e3 25 bf
       5.1971908 -0.6650489 -0.9152853 -0.64799607
0000d0 65 90 48 c0 b3 2a 2a c0 de 88 19 c5 6d 7c 8a bf
       -3.1338131 -2.6588562 -2456.5542 -1.0819222
0000e0 e7 64 b8 40 b6 12 95 bf 78 d0 73 bf c7 00 19 bf
       5.762317 -1.1646335 -0.95239973 -0.5976681
0000f0 3e 4a b1 40 9d 7f 2f bf 33 3a 12 bf f6 5a 56 c0
       5.540313 -0.685541 -0.57120055 -3.3493018
000100 a2 1f 24 c0 de 88 19 c5 c2 b8 af bf b2 11 dd bf
       -2.5644307 -2456.5542 -1.3728259 -1.7271025
000110 94 50 e4 40 69 3b 69 bf e2 0e 32 bf 83 90 b9 bf
       7.134836 -0.9110628 -0.6955396 -1.4497226
000120 3a ff dc 40 9f 8b 48 bf 13 63 63 c0 0e d9 37 c0
       6.9061556 -0.78338045 -3.552922 -2.872623
000130 de 88 19 c5 dc ab 9e bf cb 0c 9e bf b1 ca 87 bf
       -2456.5542 -1.2396197 -1.2347654 -1.0608732
000140 e8 a6 ce 40 7f 64 12 bf 77 4b 4d bf 40 dd 2c bf
       6.4578743 -0.57184595 -0.80193275 -0.675251
000150 7c 05 8c 40 4f 21 59 c0 74 ae 22 c0 de 88 19 c5
       4.3756695 -3.392658 -2.5418978 -2456.5542
000160 01 93 0c bf 70 b5 25 bf 23 a7 51 bf 6d cd 26 bf
       -0.5491181 -0.64729977 -0.81895655 -0.65157205
000170 a4 57 8b bf d2 9c 88 bf 33 f5 23 bf 86 5c d3 3d
       -1.0886121 -1.0672858 -0.6404602 0.10320382
000180 16 7a 1b 3e f2 c2 9e 3f de 88 19 c5 de 88 19 c5
       0.15183291 1.2403243 -2456.5542 -2456.5542
000190 de 88 19 c5 de 88 19 c5 de 88 19 c5 de 88 19 c5
       -2456.5542 -2456.5542 -2456.5542 -2456.5542
0001a0 de 88 19 c5 de 88 19 c5 de 88 19 c5 de 88 19 c5
       -2456.5542 -2456.5542 -2456.5542 -2456.5542
0001b0 de 88 19 c5 de 88 19 c5 53 4c 99 3f 40 4f e7 be
       -2456.5542 -2456.5542 1.1976417 -0.4517765
0001c0 6d e4 19 bf 86 23 51 bf 4a 23 56 3f 26 21 14 3f
       -0.60114175 -0.8169483 0.83647597 0.5786308
0001d0 6b a1 86 bf 15 22 8b 3b d3 28 01 3f cb f3 eb bd
       -1.0518011 0.0042460063 0.5045292 -0.11521109
0001e0 de 88 19 c5
       -2456.5542

word_embeds.weight f4 [26883, 5]
000000 94 61 a1 bf 40 ea c3 be ec 86 56 3e 45 36 87 bd
       -1.2607903 -0.38264656 0.20949906 -0.06602148
000010 ae a2 e9 3e f9 45 12 3f 6b 0c f5 3c b1 2f 04 bf
       0.45631927 0.5713802 0.029913148 -0.5163527
000020 b2 35 ea 3e c1 c7 65 bd 46 07 be be 38 87 81 be
       0.4574409 -0.056098703 -0.37114924 -0.25298476
000030 31 8e 78 be 26 27 d7 3e f9 cb 77 3e 0a 10 e8 3e
       -0.24272992 0.42022055 0.24198903 0.45324737
000040 a7 49 19 be d5 8f b6 be e9 1c 3d 3e b4 c0 26 3d
       -0.14969502 -0.3565661 0.1846806 0.04071112
000050 8e f9 cd 3e 35 3e 02 be 90 9b b9 be 54 54 bc bd
       0.40229458 -0.12719043 -0.36251497 -0.09195772
000060 44 4a 3b 3f e9 16 27 3f 05 b4 1f 3d c7 8a b5 be
       0.73160195 0.65269333 0.03899004 -0.3545744
000070 8e c2 c1 bb bd ad ca 3e 2c 7d c2 be d7 28 aa 3c
       -0.0059130853 0.39585677 -0.37986124 0.020771427
000080 11 bc a7 3f 1b 07 b2 3d ed 64 4c bc 16 25 ac bd
       1.3104268 0.086927615 -0.012475234 -0.08405511
000090 0e 3d 16 3e 57 d2 fa bc ce 3b c2 3c 70 f5 e5 bd
       0.14671728 -0.030617876 0.023710158 -0.11228454
0000a0 14 a8 64 be 6a 07 86 3d b3 d2 8d bd e0 5d 1b bc
       -0.22329742 0.06544383 -0.06924953 -0.009482831
0000b0 b7 0a 1d 3f ac 4f 7c be 5c cb be 3e 6b 60 0a be
       0.61344475 -0.24639767 0.37264526 -0.13513343
0000c0 a1 f7 69 be 7f 97 15 3e da 56 01 3e 26 95 bb bd
       -0.22848369 0.14608572 0.12630787 -0.09159307
0000d0 73 3a bd 3d bd 15 ec 3d 2a 8b 87 3e aa 99 fa 3f
       0.09239664 0.11527584 0.2647336 1.9578145
0000e0 6b 52 92 3f 4c 7c b5 3e eb ea b1 be 42 c4 a8 bf
       1.1431402 0.35446393 -0.3474954 -1.3184893
0000f0 2c d8 0f 3f 34 c8 6a be 2e ed 2d bf d5 99 2f be
       0.5618923 -0.22927934 -0.6794003 -0.17148526
000100 f0 2f 9f bd 9a e1 9c bf 70 fd d7 be 3c 33 12 c0
       -0.07772815 -1.2256348 -0.42185545 -2.284377
000110 33 b1 eb 3d 03 13 b3 3d 92 39 f4 3f c5 58 8a 3f
       0.115084074 0.087438606 1.9080069 1.080834
000120 12 b8 85 3e fd 13 24 bf fd 32 a9 bf b9 73 40 bf
       0.26116997 -0.64093 -1.3218685 -0.7517658
000130 03 04 f7 bd d2 52 dc be 13 20 08 3e 3c 37 d7 3d
       -0.12061312 -0.43031937 0.13293485 0.10508582
000140 f2 d7 53 3d ac bb 69 3d 3f f3 a2 bd 3f 78 0d 3e
       0.051719613 0.057063743 -0.07956552 0.13815401
000150 16 b5 a4 be 02 1a 82 be 4f 75 08 3d de 3d 12 3e
       -0.32169408 -0.25410467 0.033315 0.14281413
000160 5d 18 98 3e 37 5f ef be 96 d0 98 be 14 dd 33 3e
       0.29706088 -0.4675233 -0.29846638 0.17564803
000170 c8 33 70 be 05 32 eb bd 60 80 9a 3d 3b b4 00 3f
       -0.23457253 -0.1148415 0.07544017 0.5027501
000180 2d 08 28 3e 68 54 8c 3e 68 29 4e 3e 82 a3 64 be
       0.16409369 0.27408147 0.20132983 -0.22327998
000190 4e 2a df 3e 98 b6 3e be df d6 85 be c2 40 8e 3e
       0.43586963 -0.18624341 -0.26140496 0.2778378
0001a0 19 ef 9b 3e 57 7f cf 3d 17 d4 b5 bc 5c bb 05 3d
       0.30455855 0.1013171 -0.022195859 0.032649383
0001b0 d6 11 02 bf 8f cb 2d be 75 f1 02 bf 26 9b 8a be
       -0.50808465 -0.16972183 -0.51149684 -0.27071494
0001c0 d4 e4 75 3d cf 9b 06 be e4 51 cd 3e 60 b2 50 3e
       0.06003268 -0.13145374 0.4010154 0.20380545
0001d0 4d 14 4e 3d 83 8d 90 3d 6e f5 06 3e e0 11 d8 bd
       0.05031233 0.07058241 0.13179561 -0.105502844
0001e0 c4 bf 82 3f 90 f9 3f 3d 64 8b 41 be 09 45 df 3e
       1.0214772 0.04686886 -0.1890083 0.43607357
0001f0 5d a2 fd be 0e 7d fc 3e e0 1d f0 3d 66 77 33 3e
       -0.49537936 0.4931416 0.11724448 0.17526016
000200 34 e1 45 3e a8 97 ef be 94 eb b1 3d cb d5 96 3e
       0.1932419 -0.46795392 0.08687511 0.29459986
000210 59 6b 98 bd 51 71 dd be 72 98 1f 3e b1 ae 93 bd
       -0.0744235 -0.43250516 0.15585497 -0.07211054
000220 bd ef aa be 94 f1 15 bf 8a d1 11 3e 2c ba 46 3e
       -0.3338603 -0.58571744 0.14240089 0.19406956
000230 e1 dd 1a 3f 17 bd 33 3e c1 6b b9 3e 21 70 e0 be
       0.6049481 0.17552601 0.36215022 -0.43835548
000240 e9 39 ac be 11 5c 77 be b7 f9 bd 3e ff 54 21 3e
       -0.33637932 -0.24156214 0.3710458 0.1575508
000250 1a d0 ed 3d fc a2 d7 bd 03 b5 0a 3e 94 88 c2 be
       0.11611958 -0.10529134 0.13545613 -0.37994826
000260 60 31 02 3e 06 62 d6 3c 4d 68 87 3d 5a 95 a6 3e
       0.12714148 0.026169788 0.06611691 0.3253582
000270 2e 8a db 3e 21 4e e9 3e 6f 92 31 be a7 aa 20 3f
       0.4287886 0.4556742 -0.17341016 0.62760395
000280 a6 83 cc 3e d9 5c 14 bd 53 f2 ae be c2 e2 c9 bd
       0.3994419 -0.03622136 -0.34169254 -0.09857704
000290 fe 6e 04 be dc d7 75 be 4e fa 5b 3e 96 57 78 3e
       -0.12932965 -0.24008125 0.21482202 0.24252161
0002a0 a7 c9 9b 3d 4d 1e bf 3e 7d 0b f3 3e e1 c2 d1 be
       0.076068215 0.37327805 0.47469702 -0.40968993
0002b0 0f 32 8a be 00 60 61 be 47 74 09 b9 d1 18 07 3c
       -0.26991317 -0.22009277 -0.00013108655 0.008245663
0002c0 11 a9 70 3e 28 b5 97 3e e4 be 04 3e 59 b1 c4 3e
       0.23501994 0.296304 0.12963444 0.38416556
0002d0 75 cd 92 be 2d 69 ca 3c d6 9a ee bd 56 31 b1 bd
       -0.28672376 0.024708355 -0.11650626 -0.08651988
0002e0 30 8d e8 3e 3a 02 18 bd a3 25 0e 3e 73 2c be 3e
       0.45420218 -0.0371115 0.13881545 0.37143287
0002f0 32 a9 c3 3c 81 a5 74 3e b9 9c 10 be 12 5f 77 3e
       0.02388439 0.2389126 -0.14122285 0.2415736
000300 00 31 81 bd 65 cf 56 3e 28 4b d8 3e 8c d0 1a be
       -0.06308174 0.20977552 0.4224484 -0.15118617
000310 7c 73 ba 3d a0 78 1f bf a1 b0 30 bf ad 0f 54 bd
       0.09104058 -0.62293434 -0.69019514 -0.051772762
000320 f9 63 fe bd 10 ea 73 3e 95 dd 3b be bd 48 03 3e
       -0.12421412 0.23819757 -0.18346246 0.12820716
000330 d8 f7 c6 be 8f 4e 2e bd 33 2c 37 3e 1f a6 65 3c
       -0.38860965 -0.042555388 0.17887954 0.014016657
000340 46 bd 63 3e 5f 7b 83 3e 6f 65 b0 bd 38 11 a8 3e
       0.22240171 0.25680062 -0.08613097 0.32825637
000350 bd 26 98 3c 88 96 ed 3e 50 fb eb 3e 47 df bb 3e
       0.01857316 0.4640391 0.46090174 0.36693785
000360 60 70 80 be aa 64 58 3e f8 c4 9a 3e ed 52 cb bd
       -0.25085735 0.2113215 0.302284 -0.09927926
000370 f1 d6 5b 3d 56 5f 10 be eb 40 b7 3e f8 9b de 3e
       0.05367178 -0.14098868 0.35791716 0.4347837
000380 30 63 cf 3e 1a 02 a6 bd cd 9d 7f bd 45 26 06 bf
       0.40505362 -0.081058696 -0.06240635 -0.52402145
000390 97 a2 8e 3e e6 20 be 3e 69 d0 a4 3d 3f 54 de 3d
       0.2785842 0.37134475 0.080475636 0.108559124
0003a0 36 7f 05 3d a7 e7 b8 3d b5 04 5a 3e f9 a2 a6 bd
       0.03259202 0.09028559 0.21290858 -0.08136553
0003b0 2d 33 8e 3e e7 ee 1a bf 00 39 7e be 63 81 07 3e
       0.2777342 -0.60520786 -0.24826431 0.13232951
0003c0 86 a3 42 bc 30 bd 4b 3e 2a 26 a3 3e 69 7c 0a be
       -0.011879807 0.19896388 0.31865054 -0.13524021
0003d0 fd 39 0c be 3f e2 d0 3c 11 29 7b bd e5 d9 21 bd
       -0.13693996 0.025498508 -0.06131846 -0.03951444
0003e0 fe 11 b8 3d 9b bd 0e be ae 64 c9 bd ed 4e 7f 3e
       0.08987807 -0.13939516 -0.09833656 0.24932452
0003f0 ca e4 74 bd c6 fa 95 be 20 fb 60 bc 76 c4 2a 3e
       -0.059788503 -0.29292887 -0.013731748 0.16676506

lstm.weight_ih_l0 f4 [8, 5]
000000 18 95 3c c0 f9 15 11 40 79 ff 32 bf 7c 16 ef 3f
       -2.9466 2.266966 -0.6992107 1.8678737
000010 d8 29 87 c0 64 10 bb c0 19 87 14 c0 e8 8a 84 c0
       -4.223858 -5.845751 -2.3207457 -4.1419563
000020 6d fb a0 bf 2e d0 2e 3f 6e 5f 63 be 7b a0 0f 3e
       -1.2576729 0.68286407 -0.22204372 0.14026062
000030 39 87 5f 3e 8f 1c 31 3f 98 d8 0e c0 0a b1 7f c0
       0.21828927 0.691842 -2.2319698 -3.9951806
000040 d1 6c 31 bf 63 2c 82 40 a0 45 a2 bf 2a f3 ab bf
       -0.69306666 4.0679183 -1.2677498 -1.3433583
000050 aa 0b 2c 40 62 5a 11 40 54 41 04 40 f4 e1 df 3f
       2.688212 2.2711415 2.0664873 1.749083
000060 ed b7 88 bf cb df b5 c0 dd 33 e0 bf 16 65 60 c0
       -1.068113 -5.6835685 -1.7515827 -3.5061698
000070 52 8c 99 3f b5 80 6b 40 1a ef 93 40 97 82 7f c0
       1.1995947 3.6797307 4.622937 -3.9923456
000080 94 56 1d 40 7e a7 33 c0 54 7b 60 40 91 2b 00 41
       2.4584093 -2.807098 3.5075274 8.010636
000090 6e 36 4a be 67 9b d0 40 fb 23 01 3f 31 7b 84 c0
       -0.19747326 6.51897 0.50445527 -4.140038

lstm.weight_hh_l0 f4 [8, 2]
000000 a6 a2 e7 3d 7f 32 69 3c 2b 55 2d 3d 18 13 91 3d
       0.113103196 0.014233231 0.04231755 0.0708372
000010 24 ca 63 3e 7a 6d bb 3d ff 81 87 3e 83 77 f2 3e
       0.2224508 0.0915174 0.26466367 0.47356805
000020 13 ee 47 3d ab b7 fa bd 37 9d 0c 3d 2e b6 41 bc
       0.04881103 -0.12242063 0.03432962 -0.01182322
000030 8c 3b f5 3d e5 ee 03 3d 23 4d c6 bc 19 85 7b 3d
       0.11974248 0.03221025 -0.024206704 0.06140623

lstm.bias_ih_l0 f4 [8]
000000 74 8c a2 3f 69 a2 cf 3f 44 9c 97 bf bb f8 08 c0
       1.2699113 1.6221439 -1.1844563 -2.1401813
000010 0f 53 d3 3f 9f c9 b9 3f 22 09 a4 3f 35 1c 0c 3e
       1.6509722 1.4514655 1.2815287 0.13682635

lstm.bias_hh_l0 f4 [8]
000000 8e 31 96 3f 10 74 ca 3f 1b fe b9 bf c9 63 0c c0
       1.1733873 1.581667 -1.4530672 -2.1935904
000010 c5 9d d1 3f f9 cd c0 3f e6 4a 81 3f a9 0f 83 bc
       1.6376272 1.5062858 1.0100982 -0.015998678

lstm.weight_ih_l0_reverse f4 [8, 5]
000000 6b f8 00 c1 9c af 28 be 24 6a 2b 40 e2 bd b9 bf
       -8.060649 -0.1647324 2.6783533 -1.4511073
000010 87 9d 9b bf 79 e1 ec 40 0b 7d b1 3e e6 f8 3e c1
       -1.2157449 7.4025235 0.34665713 -11.935766
000020 da f1 55 bf 8d 86 d7 3f c4 0a 04 bf 7c 52 db 3f
       -0.8357216 1.6837937 -0.5157893 1.7134547
000030 3f 3f 85 3f 4d 73 7d c0 e1 36 cb be b7 4c 8b be
       1.0409926 -3.9601624 -0.39690307 -0.27206966
000040 c9 d7 5d be 7f 88 16 c0 d7 bf 28 c0 2f b3 e9 bf
       -0.21664347 -2.352081 -2.636709 -1.8257807
000050 d6 e6 db c0 5b c9 4e bf a9 bf de c0 41 49 e6 be
       -6.871928 -0.80775994 -6.960896 -0.44977763
000060 59 49 82 40 e9 6b cd 40 cb bd 8a bc 39 57 21 c1
       4.0714536 6.4194226 -0.016936203 -10.083795
000070 4c cd 14 bf 46 c9 06 40 66 54 5a bf 12 36 05 c1
       -0.5812576 2.1060348 -0.8528503 -8.325701
000080 59 eb bb bf 23 7a d8 3e bf 63 c6 3e bf b9 ea c0
       -1.4681197 0.42280683 0.38747975 -7.335174
000090 26 06 e2 bf f6 4f 18 41 4e 11 d4 3f e4 3e 06 c0
       -1.7658126 9.519522 1.6567781 -2.0975885

lstm.weight_hh_l0_reverse f4 [8, 2]
000000 bc e1 e8 bb 56 2a 46 bc 48 a0 27 be 9e 90 82 be
       -0.0071069878 -0.012095055 -0.16369736 -0.2550096
000010 dc 20 85 bf a6 74 df 3e 2a d9 9c bd 6e a0 64 be
       -1.0400653 0.43643683 -0.07658608 -0.22326824
000020 65 17 19 bd 68 34 09 bc b9 d6 80 3d 25 82 bb bc
       -0.037375826 -0.008374311 0.06290955 -0.022889206
000030 03 32 c9 bd 5b 49 32 3d 0d 80 14 3e 13 83 59 3e
       -0.09823992 0.04352699 0.14501972 0.21241407

lstm.bias_ih_l0_reverse f4 [8]
000000 99 9d c4 3f d7 c0 38 3e 5c 28 cd bf dd 09 aa bf
       1.5360595 0.18042313 -1.6027942 -1.328426
000010 c1 2f 13 c0 50 eb 29 bf 49 12 83 3f 80 86 fc 3f
       -2.2997897 -0.66374683 1.0239955 1.9728546

lstm.bias_hh_l0_reverse f4 [8]
000000 59 30 bb 3f 33 3f 78 3e cd 8c dc bf c7 a3 98 bf
       1.462413 0.24242859 -1.7230469 -1.1924981
000010 44 be 11 c0 c5 ca 4f bf 2a e1 92 3f cc 3c 10 40
       -2.277238 -0.81168777 1.1474965 2.2537107

hidden2tag.weight f4 [11, 4]
000000 6c 4f 7c c1 b6 35 3c c1 c9 f2 18 c1 ea 75 00 41
       -15.76939 -11.763113 -9.559274 8.028788
000010 37 21 0a c1 78 b6 be 40 d5 b8 c4 bf 98 93 52 40
       -8.633109 5.959774 -1.5368906 3.2902584
000020 33 80 b8 be 1e 2a 23 c1 97 d9 a7 c0 91 3c ab 40
       -0.36035308 -10.1977825 -5.2453113 5.3511434
000030 99 f8 25 41 13 c8 1b 3f 7b f3 05 40 c4 01 77 3f
       10.373193 0.60852164 2.0929859 0.9648707
000040 c3 da bb c0 90 88 36 c0 09 12 8f c0 21 c3 86 40
       -5.8704543 -2.852085 -4.4709516 4.2113194
000050 36 da 45 c0 b5 84 02 41 5f 19 2d 40 ea 78 d9 bf
       -3.0914435 8.157399 2.7046735 -1.6990025
000060 53 15 cd 3f b7 59 c7 c0 bb 55 b4 bf 20 45 6e c0
       1.6022133 -6.2297015 -1.4088663 -3.722969
000070 1d 38 83 40 8a 71 7f 3e 60 37 73 3d 8c 76 d4 3f
       4.1006 0.24945655 0.05937898 1.6598678
000080 e4 43 8c 41 27 87 7f 41 1b fa 89 41 11 8e 8e c1
       17.53315 15.970496 17.247122 -17.819368
000090 be 22 68 3c 52 09 af bc 5d 50 01 bd a9 8a 8e bd
       0.014168439 -0.021366749 -0.03157078 -0.06960041
0000a0 23 31 0c 3b 4c 1d cb 3d 31 f4 04 bc 10 a2 81 bd
       0.0021391592 0.09917697 -0.00811486 -0.06329739

hidden2tag.bias f4 [11]
000000 b9 c7 5f 3f 2d 8c b2 3f 74 c0 64 3f b5 38 28 c0
       0.8741413 1.3949028 0.8935616 -2.6284611
000010 4d 88 d8 3f ec a6 e2 3e 26 a3 42 3f 22 51 31 bf
       1.6916596 0.44267976 0.76030195 -0.69264424
000020 5b d0 2c c0 04 e0 a7 3d ae 52 9a 3d
       -2.700217 0.081970245 0.07535301
