PJ1/CNN/0.001_32_20.pth (torch, 364592 bytes, 6 tensors)

weight f4 [32, 1, 5, 5]
0	0xbe8e11b5	-0.27747884
1	0xbde9e1de	-0.11420034
2	0xbe6e7e61	-0.23290397
3	0xbd929328	-0.07156974
4	0xbd880d57	-0.066431694
5	0xbe304b1b	-0.1721615
6	0x3dc00113	0.09375205
7	0x3e37b75b	0.17941038
8	0x3d7ebf4c	0.062194154
9	0x3d69d401	0.05708695
10	0x3d269339	0.040667746
11	0x3d8dfbd5	0.06932799
12	0x3e40a43b	0.18812649
13	0x3dae756b	0.085184895
14	0x3cae72ea	0.02129503
15	0x3db3fcdc	0.087884635
16	0x3e038bd7	0.12846313
17	0x3d4bc8dc	0.0497521
18	0xbdd5f081	-0.10446263
19	0x3e0efee2	0.13964418
20	0x3d845b78	0.06462759
21	0x3bfff49b	0.0078111417
22	0xbe1bfc65	-0.15233
23	0x3e1b7963	0.15183024
24	0xbe3e0de1	-0.18559982
25	0x3e17eeb7	0.14837156
26	0xbe123d43	-0.14281182
27	0x3d86b29c	0.06577036
28	0x3d8a0bb4	0.067405134
29	0x3d733db9	0.059385035
30	0xbc6be580	-0.014397979
31	0xbde23c34	-0.11046639
32	0x3e2d9177	0.16950022
33	0xbddef00b	-0.10885628
34	0xbda4d28b	-0.080479704
35	0x3c58e364	0.013237808
36	0xbe9491fe	-0.29017633
37	0x3e84605b	0.25854763
38	0x3b8179e0	0.003951296
39	0xbd23feaf	-0.040037807
40	0xbe1a871e	-0.15090606
41	0xbe4b89ec	-0.19876832
42	0x3e84c4c6	0.25931376
43	0xbde4fa01	-0.11180497
44	0xbe2c3dfa	-0.16820517
45	0xbe21d4a5	-0.15803774
46	0x3b8e0def	0.004335157
47	0x3e0cfcbc	0.13768286
48	0xbe77eaa9	-0.2421061
49	0x3e486e61	0.19573356
50	0x3dd85784	0.10563567
51	0xbe319560	-0.17342138
52	0xbd79b94b	-0.060967725
53	0xbdf41b29	-0.11919243
54	0xbddc06ad	-0.10743461
55	0xbe1b0f77	-0.15142618
56	0xbd2fa324	-0.042880192
57	0xbe28ac50	-0.16471982
58	0xbcdb9c86	-0.026808035
59	0xbbb74b1c	-0.0055936705
60	0x3e42ffb5	0.19042857
61	0x3e1dd579	0.15413465
62	0xbd472933	-0.048623275
63	0xbe494e45	-0.19658764
64	0x3e4799d3	0.19492273
65	0xbd59d2c5	-0.05317952
66	0xbe3e9e7e	-0.18615147
67	0x3dd9175b	0.10600158
68	0xbdf88b1e	-0.121359095
69	0x3e685352	0.22688034
70	0x3d824223	0.06360271
71	0x3d2a1337	0.04152223
72	0xbcec2cdd	-0.028829986
73	0x3e41047a	0.18849364
74	0xbd97ca08	-0.07411581
75	0x3de4628f	0.11151611
76	0xbe1a4248	-0.15064347
77	0xbe267b1d	-0.16257901
78	0x3dd4b587	0.10386186
79	0xbe4a8a07	-0.19779216
80	0x3da03314	0.078222424
81	0xbd97c4d8	-0.07410592
82	0x3dc2228f	0.09479248
83	0x3c381eb9	0.011237794
84	0xbe42d95e	-0.19028232
85	0x3e5adbde	0.21372935
86	0xbd64474b	-0.055732053
87	0xbd88ea81	-0.06685353
88	0x3ca70ed7	0.020392818
89	0xbd8cd09f	-0.06875729
90	0xbe41823c	-0.18897337
91	0xbab7ca31	-0.001402205
92	0x3dcb456d	0.09925351
93	0xbdfb9deb	-0.1228598
94	0x3d5e41ec	0.054262087
95	0x3e2deaa5	0.16984041
96	0xbe70dac1	-0.23520948
97	0xbde2cb32	-0.11073913
98	0x3e46b8a8	0.19406378
99	0x3db5714d	0.08859501
100	0xbe044729	-0.1291777
101	0x3e27e7d2	0.16397026
102	0xbe45aa36	-0.19303212
103	0x3e55e406	0.20887765
104	0x3e06cc95	0.1316398
105	0x3d018ac6	0.031626485
106	0x3e170f11	0.14751841
107	0x3e148b11	0.14506175
108	0xbd86d276	-0.06583111
109	0x3e54625f	0.2074065
110	0xbe9f984c	-0.3117088
111	0xbe1c4bdf	-0.15263318
112	0xbe8fa1ef	-0.28053233
113	0xbe0d4fe6	-0.1380001
114	0xbd3fa793	-0.04679067
115	0xbbbd0fb1	-0.005769693
116	0x3e34d4e9	0.17659344
117	0x3cf04e84	0.029334314
118	0x3d22e066	0.039764784
119	0xbca13af0	-0.019681424
120	0xbe21eaff	-0.158123
121	0xbd97fdae	-0.074214324
122	0x3e2aaba2	0.16667035
123	0x3b55ba6d	0.003261234
124	0x3d5dded9	0.054167602
125	0x3dacf1f4	0.084445864
126	0x3e766cec	0.24064988
127	0x3c96103e	0.018318292
128	0x3d4d8af1	0.050181333
129	0xbc77328f	-0.015087738
130	0x3d87dc14	0.066337734
131	0xbc062830	-0.008188292
132	0xbcb16c95	-0.021658221
133	0xbcf76c95	-0.030203143
134	0xbe87c909	-0.26520565
135	0xbd17a36d	-0.03702109
136	0x3dd0566b	0.10172733
137	0xbd8c1c6f	-0.06841361
138	0xbea98035	-0.33105627
139	0x3dbfcf6e	0.09365736
140	0xbe597ea4	-0.21239716
141	0xbeb24873	-0.348209
142	0x3cd9c987	0.026585354
143	0x3e4d88a3	0.20071654
144	0x3c8dd7bf	0.01731479
145	0x3db5dbab	0.08879789
146	0xbcc0a77f	-0.023517368
147	0x3c80616d	0.015671456
148	0x3e3932a2	0.18085721
149	0x3e73ab0c	0.23795718
150	0xbd0746b9	-0.03302643
151	0x3d926cfa	0.07149692
152	0xbcf1d1af	-0.02951893
153	0xbd0a4f72	-0.03376717
154	0xbb0f5f58	-0.0021876898
155	0x3c1c83e0	0.009552926
156	0xbc89fb96	-0.016843598
157	0xbe2add16	-0.166859
158	0xbe8bd8f8	-0.27313972
159	0xbe95347c	-0.29141605
160	0x3e0fcc2f	0.14042734
161	0xbe5ec142	-0.2175341
162	0x3d4b9300	0.049700737
163	0x3e24a989	0.16080298
164	0x3e842696	0.2581069
165	0xbe7f1aae	-0.24912521
166	0xbe1df10f	-0.15423988
167	0xbd9f5a22	-0.07780863
168	0xbd8bf5bf	-0.06833982
169	0xbe1b1f97	-0.1514877
170	0x3df5cf82	0.120024696
171	0xbcc312f0	-0.023812741
172	0x3e2cbee0	0.16869688
173	0x3e3e0395	0.18556054
174	0x3e7f44a2	0.24928525
175	0xbe5aba12	-0.21360043
176	0xbd957e55	-0.072994865
177	0x3ccbcba4	0.024877377
178	0xbea46c46	-0.32113856
179	0xbe7668e4	-0.2406345
180	0x3dce19d5	0.10063521
181	0x3db2b308	0.08725554
182	0xbea12503	-0.3147355
183	0xbcd03974	-0.02541802
184	0x3e5fcea8	0.21856177
185	0xbc9d32b6	-0.01918922
186	0x3e566e02	0.20940402
187	0xbe1a46e5	-0.15066107
188	0xbe3f33d5	-0.18672116
189	0x3e82a752	0.2551828
190	0x3df547cd	0.119765855
191	0xbda31412	-0.079628125
192	0x3dc818c0	0.09770346
193	0x3cc00ac6	0.023442637
194	0x3e6b5375	0.22981055
195	0x3d06ea93	0.03293855
196	0x3e284fc1	0.16436674
197	0xbe14cf80	-0.1453228
198	0x3dafc9ec	0.085834354
199	0xbd75803c	-0.059936747
200	0x3e0bb325	0.13642557
201	0x3e2ac78e	0.16677687
202	0xbdb0f5f5	-0.086406626
203	0x3d788c47	0.060680654
204	0xbe8790c3	-0.26477632
205	0xbd476cd9	-0.04868779
206	0xbe046aeb	-0.12931411
207	0x3e54c216	0.20777163
208	0xbe24fd45	-0.1611224
209	0xbe5a55a1	-0.21321727
210	0x3e5a4f40	0.21319294
211	0x3de56fee	0.112029895
212	0x3e4884f0	0.19581962
213	0xbdeeb753	-0.1165606
214	0xbe69e914	-0.22842818
215	0xbd398035	-0.045288283
216	0x3e056fcc	0.13030928
217	0x3dddd41b	0.108314715
218	0x3d29f1f7	0.04149052
219	0xbea2c681	-0.3179207
220	0x3d0acf8f	0.03388935
221	0xbd6149cc	-0.05500202
222	0x3d8f2e54	0.06991258
223	0xbd44e50f	-0.04807001
224	0xbe8340cb	-0.2563537
225	0x3da4f066	0.08053665
226	0xbe70d162	-0.23517373
227	0xbbca9bc1	-0.006183118
228	0x3e1c0465	0.15236051
229	0xbdd76f6e	-0.105193004
230	0xbd1ee664	-0.038793936
231	0xbe3ea9f2	-0.18619516
232	0xbdd39f2f	-0.10333096
233	0xbc272b17	-0.0102031445
234	0xbe120708	-0.14260495
235	0xbe241d94	-0.16026908
236	0xbe584fc4	-0.21124178
237	0x3dda4164	0.106570035
238	0x3e2b91e5	0.16754873
239	0xbc1a89df	-0.009432285
240	0xbe21276d	-0.15737696
241	0xbd2edd37	-0.042691436
242	0x3e18b793	0.14913778
243	0xbcf2fbaf	-0.029661028
244	0xbd959f9e	-0.07305835
245	0x3e158e59	0.14605083
246	0xbe3d1d51	-0.18468215
247	0x3e68f273	0.22748737
248	0x3da227db	0.07917758
249	0x3e4db5ca	0.20088878
250	0x3e3b27c4	0.18276888
251	0x3d41179c	0.047141656
252	0x3da29c2e	0.07939945
253	0xbd94b245	-0.07260565
254	0x3dddc6df	0.10828947
255	0x3e3c65ff	0.18398283

bias f4 [32]
0	0xbd98201a	-0.07427998
1	0x3e74fc49	0.23924364
2	0x3e7d302d	0.24725409
3	0x3e7e0f5c	0.24810547
4	0x3c78e998	0.015192412
5	0xbd6f70c4	-0.05845715
6	0x3e6fdb9d	0.2342362
7	0x3e0e9187	0.13922702
8	0x3e01fc95	0.12694009
9	0x3e4ef356	0.20210013
10	0x3e512cbd	0.20427223
11	0x3db74bf4	0.08950034
12	0xbd23572e	-0.039878063
13	0xbe4a4295	-0.19751962
14	0x3e39964e	0.18123743
15	0x3e4219a0	0.18955088
16	0x3e1c152d	0.15242453
17	0xbd3ec665	-0.046575923
18	0xbe1cf57c	-0.1532802
19	0x3b299bef	0.0025880297
20	0xbdce5858	-0.10075444
21	0x3e049994	0.1294921
22	0xbde3975c	-0.11112854
23	0xbdbf8eb7	-0.093533926
24	0x3caec3a7	0.021333529
25	0xbd86c28b	-0.06580075
26	0x3da75ee3	0.08172395
27	0x3c87b945	0.016567836
28	0xbe2f9f8d	-0.17150708
29	0x3cad1941	0.021130206
30	0xbdf0117c	-0.11722085
31	0xbd4b7942	-0.049676187

weight f4 [64, 32, 5, 5]
0	0x3bbcb510	0.005758889
1	0xbd4e5f71	-0.05038399
2	0xbc3c66fe	-0.011499165
3	0xbc950e7c	-0.018195383
4	0xbd60455c	-0.054753646
5	0xbc9a10e4	-0.018806882
6	0xbd0e46ef	-0.034735616
7	0x3cc07bd3	0.023496544
8	0xbd3406a3	-0.04395164
9	0xbd4f22d2	-0.050570317
10	0xbd01b4da	-0.031666614
11	0xbb657443	-0.0035011924
12	0xbca6a28f	-0.020341186
13	0x39fae10a	0.00047851383
14	0xbd4e7d94	-0.05041273
15	0xbd3732ea	-0.04472629
16	0x3ad509e0	0.0016253553
17	0xbccffbab	-0.02538856
18	0xbc0e957e	-0.008702634
19	0xbcad69ae	-0.021168556
20	0xbce850f7	-0.02835892
21	0xbc09afdb	-0.008403744
22	0xbbcd6e34	-0.0062692408
23	0xbca8654e	-0.020556118
24	0xbd0582f0	-0.032595575
25	0x3dcc2042	0.0996709
26	0x3e108a2c	0.14115208
27	0x3d0519d1	0.032495324
28	0x3db53098	0.08847159
29	0x3d401445	0.04689433
30	0x3ddb1714	0.10697761
31	0x3e07c14b	0.13257329
32	0x3e132c2c	0.14372319
33	0x3d887c10	0.06664288
34	0x3dd8b1d2	0.105807915
35	0x3ccd6c7e	0.025076147
36	0x3e244194	0.16040641
37	0x3df3f79a	0.119124606
38	0x3dd3011a	0.103029445
39	0x3e098237	0.1342858
40	0x3d67a656	0.056555115
41	0x3dd0947b	0.101845704
42	0x3ddcc1b1	0.10779131
43	0x3c9a9f70	0.018874854
44	0x3db57eb3	0.088620566
45	0x3c061b67	0.008185244
46	0x3d020886	0.03174641
47	0x3caee5b8	0.021349773
48	0xbd62011d	-0.055176843
49	0x3d168805	0.036750812
50	0x3c546b0e	0.012964977
51	0xbbacf915	-0.0052787163
52	0xbd709e77	-0.058744874
53	0xbdb53e23	-0.08849742
54	0xbd0437e4	-0.032279864
55	0x3d7bb6b6	0.061453544
56	0x3da233cc	0.07920036
57	0x3cef0c12	0.02918056
58	0xbcdf529d	-0.027261073
59	0xbcac84c7	-0.021059407
60	0x3c8c0a55	0.01709477
61	0x3de40722	0.11134173
62	0x3cc7cc56	0.024389427
63	0xbcbdf3fa	-0.023187626
64	0x3c2f1f0a	0.010688553
65	0xbc8f41e9	-0.017487483
66	0x3d5933b2	0.053027816
67	0x3d9f144f	0.077675454
68	0x3ca1468d	0.019686962
69	0x3d379a12	0.044824667
70	0x3ca4a192	0.020096574
71	0x3dad9440	0.08475542
72	0x3d78cd40	0.060742617
73	0x3d159e7a	0.03652809
74	0x3cc79cfc	0.024366848
75	0x3c7dcde6	0.015490985
76	0x3d88e20d	0.06683741
77	0x3d61bfa8	0.05511442
78	0xbda01292	-0.07816042
79	0xbcf2e4e4	-0.02965016
80	0x3d30b180	0.043138027
81	0x3e1db5bd	0.15401359
82	0x3db53402	0.0884781
83	0x3c840dba	0.016119827
84	0x3ce50a04	0.027958877
85	0x3da4a15c	0.08038589
86	0x3df91b75	0.1216344
87	0x3d90e2fa	0.07074542
88	0x3d725566	0.059163474
89	0x3c81bf74	0.015838362
90	0x3d973fc0	0.07385206
91	0x3d6f20fb	0.058381062
92	0x3e0a3586	0.1349698
93	0xbca9d449	-0.020731108
94	0x3ceb54a3	0.028726881
95	0x3c09594c	0.008383106
96	0x3ca4cc01	0.020116808
97	0x3d3cfb61	0.04613817
98	0xbd1d60e1	-0.03842247
99	0x3d845324	0.0646117
100	0xbcae0032	-0.021240328
101	0x3c468928	0.012117662
102	0x3d231404	0.03981401
103	0x3da6127e	0.08108996
104	0x3c6309f9	0.013857358
105	0xbbfa1590	-0.007631965
106	0x3d4e40cc	0.050354764
107	0x3d845b18	0.06462687
108	0x3d991310	0.07474339
109	0x3cd733be	0.02626979
110	0xbd6546d9	-0.05597577
111	0x3c58cc1b	0.013232256
112	0x3d5fd22a	0.054643787
113	0x3d72d1c8	0.059282094
114	0x3ce5ab87	0.028035892
115	0xbc025840	-0.007955611
116	0xbd6f9146	-0.058488153
117	0x3d0e82d7	0.034792747
118	0x3d27a1be	0.040925734
119	0x3b78ed9c	0.0037983423
120	0xbd2aca90	-0.041697085
121	0x3c9914f8	0.018686756
122	0x3d1b0f98	0.03785667
123	0x3cb01f38	0.021499261
124	0x3cf92e62	0.030417625
125	0xbd839f06	-0.06426816
126	0xbcf5f57b	-0.03002428
127	0x3c626b2d	0.013819498
128	0xbd6f051c	-0.058354482
129	0xbcfb6120	-0.030685961
130	0xbd3c273b	-0.04593585
131	0xbc95c893	-0.018284118
132	0x3b40f334	0.0029441835
133	0xbd987d74	-0.07445803
134	0xbe01849b	-0.12648241
135	0xbcfb5d9b	-0.030684283
136	0x3bec54bd	0.00721225
137	0xbd302153	-0.04300053
138	0xbdcdfa84	-0.10057548
139	0xbdb5f3f5	-0.08884422
140	0xbba1d5fc	-0.004938839
141	0xbd564905	-0.05231573
142	0xbd7a06e3	-0.061041724
143	0xbcbb9a8e	-0.022900846
144	0xbd7018bd	-0.058617342
145	0x3bf76c34	0.0075507406
146	0x3c88b7b0	0.016689152
147	0xbd1aa2a3	-0.03775276
148	0x3ce4d736	0.027934652
149	0x3d7c342a	0.061573185
150	0xbd9286d9	-0.071546264
151	0x3d50147c	0.050800785
152	0xbc79ff3f	-0.015258609
153	0xbd9e0d03	-0.077173255
154	0xbc62af15	-0.013835688
155	0x3aeacf8e	0.0017914639
156	0x3cfdeeb5	0.030997613
157	0x3d8f2196	0.06988828
158	0x3cc3d945	0.023907313
159	0xbd0a4d11	-0.033764903
160	0xbd41dadf	-0.047327872
161	0x3d273282	0.040819652
162	0x3d413381	0.04716826
163	0xbd34ef78	-0.044173688
164	0xbce57674	-0.028010584
165	0xbd8d7ef0	-0.06908977
166	0x3c995437	0.018716915
167	0x3d4c5abf	0.04989123
168	0x3ca212f9	0.019784437
169	0x3cb13428	0.021631315
170	0x3d211e9b	0.03933583
171	0x3d0a4d1d	0.033764947
172	0x3d7f09fc	0.06226538
173	0x3d15bc34	0.036556438
174	0x3bf33883	0.007422508
175	0xbc53cb59	-0.0129269
176	0x3d8388f3	0.06422605
177	0x3ba28d65	0.004960703
178	0xbd8a5929	-0.06755287
179	0xbdc1d4bf	-0.09464406
180	0x3d99b763	0.07505681
181	0x3dd57ab0	0.104237914
182	0x3c855600	0.01627636
183	0xbc6d95df	-0.014501064
184	0xbcb9c20a	-0.022675533
185	0x3d6df7ac	0.058097526
186	0x3df8e573	0.12153139
187	0x3d131dfe	0.035917275
188	0x3d362cf7	0.044476476
189	0x3d399bcc	0.045314595
190	0xbd0a845b	-0.03381763
191	0x3da5b692	0.08091463
192	0x3cb4c4e9	0.02206655
193	0x3c61160c	0.013738167
194	0xbc4471da	-0.011990035
195	0xbd2e1d40	-0.042508364
196	0x3c012486	0.007882243
197	0xbd0a8120	-0.03381455
198	0xbc99ee67	-0.018790437
199	0x3cbc2a42	0.022969369
200	0x3e3fc101	0.18725969
201	0x3e249fef	0.16076635
202	0x3d9721ab	0.073794685
203	0x3d7f4488	0.062321216
204	0x3d880772	0.06642045
205	0x3e5ac6bf	0.21364878
206	0x3e4950e1	0.19659759
207	0x3de7b66b	0.1131409
208	0x3d94add5	0.07259718
209	0x3dc179a3	0.094470285
210	0x3e3e7fa5	0.1860338
211	0x3e269cbf	0.16270731
212	0x3e1e38b4	0.15451318
213	0x3de208d2	0.110368386
214	0x3dd9f061	0.10641552
215	0x3e08e9c6	0.13370427
216	0x3e2d670b	0.16933839
217	0x3df1d04c	0.118073076
218	0x3d585219	0.05281267
219	0x3d82d02c	0.06387362
220	0x3d44e915	0.048073847
221	0x3dc66663	0.096874975
222	0x3d8af6f0	0.06785381
223	0x3bb4b5f1	0.005514853
224	0x3c93c39d	0.018037612
225	0xbd2b00e2	-0.04174889
226	0x3e01a5da	0.12660924
227	0xbbc1d4b0	-0.005915247
228	0xbd26f45f	-0.040760394
229	0x3b503f60	0.0031776056
230	0x3d236d64	0.039899245
231	0x3e06fb4a	0.13181797
232	0x3e204142	0.15649894
233	0x3cb68a16	0.022282641
234	0x3da12360	0.07868075
235	0x3d49cc97	0.049267378
236	0x3e0f8bc8	0.14018166
237	0x3e19c479	0.15016355
238	0x3ce1847b	0.027528992
239	0x3d4aa9d8	0.049478382
240	0x3cd56c83	0.026052719
241	0x3df69926	0.120409295
242	0x3e0336ed	0.12813921
243	0x3da2a8e1	0.07942367
244	0x3dcc6d73	0.09981813
245	0x3cef6a33	0.029225444
246	0x3d817a4a	0.06322153
247	0x3de5ef67	0.11227303
248	0x3d12aac9	0.035807405
249	0x3d8f380c	0.06993112
250	0xbbbd7d31	-0.0057827462
251	0x3d9e80fa	0.07739444
252	0x3bd0ce28	0.006372232
253	0xbb172886	-0.0023064925
254	0x3d0e628b	0.034761947
255	0x3d0cc68e	0.034369044

bias f4 [64]
0	0x3c15f36f	0.009152277
1	0xbcab9495	-0.020944873
2	0xbd0aad23	-0.033856522
3	0xbc781f73	-0.015144217
4	0xbd193d78	-0.037412137
5	0xbcd667b9	-0.026172506
6	0xbce23107	-0.027611269
7	0x3ca8871a	0.020572234
8	0x3b2a3102	0.0025969152
9	0xbd0c6b7f	-0.034282204
10	0xbbd37768	-0.0064534433
11	0x3cc4e7ad	0.024036253
12	0x3c5a3424	0.013318095
13	0x3cba8271	0.022767277
14	0x3a3a23a4	0.0007100648
15	0xbd04ea93	-0.03245027
16	0xbd659886	-0.05605366
17	0x3bff1b68	0.0077852495
18	0x3bf2a533	0.007404947
19	0xbaf58f28	-0.001873468
20	0x3c544132	0.012954997
21	0x3c028692	0.007966654
22	0xbc0748d2	-0.008257108
23	0xbd1c7055	-0.038193066
24	0xbd9766ab	-0.07392629
25	0x3c30ae67	0.010783768
26	0x3c8b0788	0.016971365
27	0x3c5f52d2	0.013630586
28	0xbcf3aba5	-0.029744932
29	0x3cae5d01	0.021284582
30	0xbcb44b7d	-0.022008652
31	0xbc88e602	-0.016711239
32	0xbcd2ead0	-0.025746733
33	0xbc37921b	-0.011204268
34	0xbc5bec81	-0.013423086
35	0xbd241804	-0.040061966
36	0xbc38cc21	-0.011279137
37	0xbcc42f92	-0.023948465
38	0x3c88bfce	0.016693022
39	0xbcd6374e	-0.026149418
40	0x3d417cfe	0.047238342
41	0xbd0127f3	-0.03153224
42	0xbcdd92fb	-0.027047625
43	0x3d0f72db	0.035021644
44	0xbc94787d	-0.01812386
45	0xbcf5b3f8	-0.029993042
46	0xbcf30807	-0.029666914
47	0xbc136110	-0.0089953095
48	0x3b9a8b23	0.0047162934
49	0xbc1ac1fe	-0.009445665
50	0x3cc32eb5	0.023825983
51	0x3ca9d72b	0.020732483
52	0xbd1eb3a7	-0.03874555
53	0xbd0c401a	-0.03424082
54	0x3cab11c5	0.020882497
55	0x3ce98eef	0.028510539
56	0xbc773cec	-0.0150902085
57	0xbd15a30b	-0.036532443
58	0x3c03790d	0.008024466
59	0xbd52f14c	-0.05149965
60	0x3c190a1a	0.009340787
61	0xbc3fac0a	-0.011698732
62	0xbd1ef475	-0.03880735
63	0xbca4a52c	-0.020098291

weight f4 [12, 3136]
0	0xbd40b344	-0.04704596
1	0xbae4d811	-0.0017459412
2	0x3d31975d	0.043357242
3	0x3da326e0	0.07966399
4	0x3ddeb83c	0.10874984
5	0x3daf0218	0.08545321
6	0x3b85fe53	0.0040891557
7	0x3c973d4e	0.01846185
8	0x3c570ae5	0.013125156
9	0xba98a800	-0.0011646748
10	0x3d51902e	0.05116289
11	0x3db5ca72	0.08876504
12	0x3db1b76f	0.08677565
13	0x3cecc79a	0.028903771
14	0x3d3b9dd2	0.045804806
15	0x3cc24974	0.023716666
16	0x3d79e777	0.061011758
17	0x3d67d82d	0.056602646
18	0x3d8091fa	0.06277843
19	0x3d81e8ee	0.06343256
20	0x3c9ec14e	0.019379284
21	0x3a4bb856	0.00077713036
22	0xbc22df0f	-0.009940877
23	0x3c88c874	0.016697146
24	0x3d4fd00c	0.05073552
25	0x3d9957aa	0.07487424
26	0x3d095764	0.033530608
27	0x3cd801a3	0.026367968
28	0xbcf2f2a7	-0.029656721
29	0xbcb67f45	-0.022277484
30	0x3c1daf16	0.009624263
31	0xbccdd1c3	-0.025124436
32	0x3ccf1ac9	0.025281327
33	0x3cdd3eb0	0.02700743
34	0xbd15d4d5	-0.036579926
35	0xbd08f154	-0.033433273
36	0xbd126b62	-0.03574694
37	0xbdb20db8	-0.08694023
38	0x3c8d13cd	0.017221356
39	0x3d0ca74f	0.034339245
40	0x3c1b0cba	0.0094634835
41	0xbccedc68	-0.025251582
42	0xbd27103a	-0.04078696
43	0x3b73d7f0	0.0037207566
44	0xbd625379	-0.055255387
45	0xbc6059ca	-0.013693282
46	0xba811e5a	-0.0009850964
47	0x3cb00c8f	0.021490363
48	0xbd121807	-0.035667446
49	0x3c50e63d	0.012750206
50	0x3b681dbd	0.0035418116
51	0x3c618342	0.013764204
52	0xbc2f6ddf	-0.010707348
53	0x3b135fa8	0.0022487435
54	0x3c2a3734	0.010389138
55	0xbc7bb6f2	-0.015363442
56	0x3a34a1cf	0.00068905664
57	0xbc0f35ef	-0.008740886
58	0xbc3fcf01	-0.011707068
59	0xbc73fbeb	-0.014891605
60	0xba665f91	-0.0008788044
61	0xbc3b9a1d	-0.011450318
62	0x3c5cd448	0.013478346
63	0x3c41b3bc	0.011822637
64	0x3c910983	0.01770473
65	0xbc6de0e0	-0.014518946
66	0xbc37a147	-0.011207885
67	0x3a4f9613	0.0007918786
68	0xbc36bd53	-0.011153537
69	0xbc7a06c4	-0.015260402
70	0xbb7f4c23	-0.0038955293
71	0x3ca492ed	0.02008959
72	0x3c3a2b9c	0.011362936
73	0xbc8e1e7c	-0.01734852
74	0x3c444bcb	0.011980961
75	0xbc0e1f58	-0.008674465
76	0x3c18ffad	0.009338302
77	0x3caea904	0.021320827
78	0xbb958300	-0.0045627356
79	0x3b679133	0.0035334348
80	0x3aa689c0	0.0012705848
81	0x3c9617ff	0.01832199
82	0x3b96e321	0.0046047126
83	0x3c36f0b4	0.011165787
84	0xbb0f50be	-0.0021868194
85	0x3996a42f	0.00028732556
86	0x3c649244	0.013950888
87	0x3c4ea60a	0.012612829
88	0xbbeee95a	-0.0072910013
89	0x3b1f7196	0.0024329177
90	0x3b094899	0.0020947813
91	0xb9d94ae6	-0.0004144527
92	0xbc222939	-0.009897524
93	0x3ab9b031	0.0014166889
94	0x3b9f6545	0.004864367
95	0x3c682442	0.014168801
96	0x3c8f4c3a	0.017492402
97	0x3c53abae	0.01291935
98	0xbaabeb10	-0.0013116319
99	0xbb98865c	-0.0046546888
100	0xbc53c1c3	-0.012924614
101	0xbb8e1ec3	-0.004337163
102	0x3c01bc60	0.007918447
103	0x3c7a6d52	0.015284853
104	0x3c7fb69a	0.0156075
105	0x3b51aff8	0.0031995755
106	0x3c536b22	0.01290396
107	0x3bc9ae54	0.0061548147
108	0xbbfd662a	-0.007733126
109	0xbbd0562e	-0.0063579297
110	0x3c1cf92a	0.00958089
111	0x3c2e6648	0.010644503
112	0x3b9dbe64	0.004813956
113	0xbbb69240	-0.0055716336
114	0x3c6b78ee	0.014372094
115	0x3c489c98	0.012244366
116	0xbc42b2d5	-0.011883457
117	0xbb8e4be0	-0.004342541
118	0xbc1ed383	-0.009693983
119	0x3bd3d794	0.006464908
120	0xbae9d450	-0.0017839763
121	0xbc405da0	-0.011741072
122	0xbc0151e5	-0.00789306
123	0x3baa1600	0.005190611
124	0x3b4343a0	0.0029794946
125	0x3c0754a2	0.008259924
126	0xbbd08ef2	-0.0063646967
127	0x3c8d30c9	0.017235177
128	0xbb05a018	-0.0020389613
129	0x3b0b5010	0.0021257438
130	0x3c339c6c	0.010962587
131	0xba8c70b0	-0.0010714736
132	0xbc016630	-0.007897899
133	0xbc7d6c41	-0.015467704
134	0xbba1cf5c	-0.0049380492
135	0xbb4a4fc8	-0.0030870307
136	0x3c5b230c	0.013375055
137	0xbbb979d8	-0.005660277
138	0xbc8ea98c	-0.01741483
139	0x392bc300	0.00016380474
140	0xbc7ebcb1	-0.015547917
141	0xb981e940	-0.00024778582
142	0x3c04c1f4	0.008102883
143	0xba2152c0	-0.00061539933
144	0xb85bde00	-5.2420422e-05
145	0x3b400478	0.0029299539
146	0xbbd81aea	-0.0065950053
147	0xbc8a403f	-0.016876338
148	0x3bc81b7d	0.0061067925
149	0x3c099bad	0.008398932
150	0x3b86d6bd	0.0041149543
151	0x3bb05547	0.0053812596
152	0xbaa82836	-0.0012829367
153	0x3b0b9298	0.0021297093
154	0x3c43fe60	0.011962503
155	0x3b9734ed	0.0046144635
156	0xbbba75ae	-0.005690298
157	0x3bd78f17	0.006578337
158	0xbc8aeb83	-0.016958004
159	0xbccbb961	-0.024868669
160	0xbc4ec45a	-0.012620056
161	0xbc0ef7db	-0.008726086
162	0x3bf23356	0.0073913736
163	0xbc8a88f5	-0.01691101
164	0xb8bb2d46	-8.925288e-05
165	0xbcefe05b	-0.029281786
166	0xbcc38a7e	-0.02386975
167	0xbbdc7dd5	-0.0067288675
168	0xbc8ee94d	-0.01744523
169	0x3c20518e	0.009785069
170	0x38f9ffe8	0.000119209115
171	0xbaff2be4	-0.0019468036
172	0x3c0625ba	0.008187706
173	0xbca80e29	-0.020514565
174	0xbb353afb	-0.0027653563
175	0x3b4a1db4	0.0030840458
176	0xbb3c0e2e	-0.0028694975
177	0x3c804772	0.015659068
178	0x3c379b72	0.011206495
179	0xbb165992	-0.0022941572
180	0x3b1a4f86	0.0023545935
181	0xbc29e7d7	-0.010370216
182	0xbc0359ea	-0.008017043
183	0x3c5329fc	0.012888428
184	0x3bdc546e	0.006723932
185	0x3c85b414	0.01632122
186	0x3bef880d	0.0073099197
187	0xbc491054	-0.012271959
188	0x3c10f7ef	0.0088481745
189	0x3c94eada	0.018178392
190	0x3c53d775	0.012929787
191	0xbc14e1da	-0.00908705
192	0xbc5ec733	-0.0135972975
193	0x3876c150	5.8831007e-05
194	0xbab1cc7b	-0.0013564968
195	0x3c145d67	0.009055472
196	0xbb85be50	-0.004081525
197	0x3c4f7a64	0.012663458
198	0xbbe530a3	-0.0069943233
199	0x3bd1fb97	0.0064081657
200	0xba5a695b	-0.0008331739
201	0x3b0c1e82	0.0021380489
202	0xbb9cea4e	-0.0047886735
203	0x3caf78aa	0.021419842
204	0xbc097f7e	-0.008392213
205	0x3b1ade93	0.00236312
206	0x3c99f9c0	0.018795848
207	0x3c58eac9	0.013239571
208	0x3c35de0a	0.0111003015
209	0xbb7459ac	-0.0037284894
210	0x3b77dfa8	0.0037822518
211	0x3c55e7c9	0.01305575
212	0x3ca1a928	0.01973398
213	0x39ba54dd	0.00035539913
214	0xba2d9f3c	-0.0006623154
215	0xbbed337a	-0.0072388025
216	0xbc54f4d1	-0.012997822
217	0x3c5050b9	0.012714558
218	0xbae46b01	-0.0017426909
219	0xbb98f926	-0.0046683727
220	0x3c273b10	0.010206953
221	0xbbc664be	-0.00605449
222	0xbcc59692	-0.02411965
223	0x393a33d9	0.00017757657
224	0xbbe3bba9	-0.006949861
225	0x3bbb16af	0.005709491
226	0x3c56d8da	0.013113225
227	0x3bf02ba2	0.00732942
228	0xbb91d640	-0.0044505894
229	0x3c1ccf68	0.009570934
230	0xbb79a948	-0.0038095284
231	0x3ba5f4a9	0.005064566
232	0x3bf22973	0.007390195
233	0xbbb9e166	-0.0056726215
234	0x3b8fa936	0.004384185
235	0x3b6cafb8	0.0036115479
236	0x3bf5af6c	0.0074977186
237	0xbbcbbb93	-0.006217429
238	0x3c3fe167	0.011711455
239	0xbc2ab3f4	-0.010418881
240	0xbc3e2b68	-0.011607029
241	0xbc93bff6	-0.01803587
242	0xbb31b215	-0.0027114202
243	0x3c9454dc	0.01810687
244	0x3c443f3d	0.011977968
245	0xbdb51b4d	-0.08843098
246	0xbcbbe193	-0.02293471
247	0x3d8e929d	0.06961558
248	0x3d8e7c3a	0.06957288
249	0x3dc72275	0.09723369
250	0x3a252c38	0.00063008396
251	0xbca1ccc5	-0.019750962
252	0xbd27c418	-0.040958494
253	0xbdee93a8	-0.11649257
254	0xbe01aca6	-0.12663516
255	0xbda4c42e	-0.08045231

bias f4 [12]
0	0xbc955d2a	-0.0182329
1	0x3bc67d87	0.0060574445
2	0xbc120810	-0.008913055
3	0x3cc669f6	0.024220448
4	0x3c9f5e35	0.019454101
5	0x3cbd966a	0.023143012
6	0x3bc53ddf	0.0060193385
7	0x3c634b16	0.013872882
8	0xbc6f586d	-0.014608485
9	0xbc665f4e	-0.014060808
10	0xbb67a835	-0.0035348062
11	0xbc1e16da	-0.009649003
