PJ1/CNN/0.001_64_20.pth (torch, 364592 bytes, 6 tensors)

weight f4 [32, 1, 5, 5]
-0.034573037 -0.039168708 0.20510645 -0.086870186 0.00992789 -0.28252986 -0.25873974 -0.30239215
-0.06488239 -0.0543956 0.15071806 0.115708776 0.10897777 -0.053081416 0.03741771 0.11633793
0.1408282 -0.13344775 0.06939158 0.0071045277 0.111756474 0.0911186 -0.108389765 -0.050494518
0.13344574 -0.094767116 0.24369104 -0.16898821 -0.10387211 0.14854413 -0.08550158 0.17862737
0.023288868 0.15321547 0.06395476 -0.095395096 0.16806887 -0.2881544 0.20391497 0.030912202
0.08269891 -0.18268 -0.2322053 -0.041811343 0.22891042 -0.22421975 -0.12348912 -0.16995902
-0.104670025 0.24272941 0.055320106 -0.08891849 0.13479245 0.06889541 -0.26424503 -0.07306462
-0.05894999 0.20753585 0.011866562 -0.3169433 0.10877427 0.22895627 0.067001775 0.0889641
-0.3219752 -0.009599206 0.25249305 0.116964586 0.005716003 -0.2735243 0.085531324 -0.119814016
-0.1588891 -0.05005399 0.07440089 0.039385542 0.18684499 -0.08189472 -0.06971333 -0.113723546
0.19000377 -0.029380484 0.16685286 0.0016617551 0.14228275 0.13400233 0.010916711 0.08041239
-0.17303292 -0.13473222 -0.018533304 -0.0076587577 0.15836102 -0.11408482 -0.1067229 -0.19338396
0.15342134 0.07703177 0.1767724 0.121323764 0.07221049 0.15540661 -0.059138704 0.109400444
-0.11921069 0.005726481 0.075480446 0.20997709 0.18524387 0.033159383 -0.08303146 -0.15545295
0.05743692 0.13128366 0.03355411 -0.2232887 -0.32488948 -0.24830352 -0.19100513 0.03574845
-0.26943845 0.12384757 0.2034804 -0.059739932 0.22566842 0.0018296238 0.077391826 -0.34399852
0.030497251 0.23976225 -0.059757736 0.019225739 -0.33843055 0.06756962 0.18445623 0.15273994
-0.06903551 -0.34898874 0.16183446 0.08146856 -0.027040046 -0.012504726 -0.20597607 0.12131386
0.017407585 0.083433084 0.04013638 -0.35815296 0.22165586 -0.029466849 0.028554296 0.1294785
0.09437029 0.083116464 -0.096608385 -0.07905902 0.09000592 0.04722171 0.20855936 -0.16265005
0.033738364 -0.2262039 -0.27415243 -0.0037278556 -0.15131046 -0.057513554 0.25017247 0.17995441
0.24354741 -0.18343864 -0.013187388 -0.18559599 -0.15323117 0.11514784 0.17758909 -0.008510989
0.09807975 -0.13499466 -0.22020452 -0.03430576 0.23958144 -0.1094863 -0.28169754 -0.04191914
0.22120106 0.10152578 0.16895984 -0.33822834 0.01073566 0.2616547 0.11964989 -0.20863491
0.14227836 0.07525546 -0.16633478 0.08704089 0.13159063 -0.10962555 -0.06438114 -0.063658595
-0.11114953 -0.11876416 -0.12036529 0.19094959 0.12274566 -0.02313476 -0.24248806 0.22344108
-0.18182096 0.16320033 0.09544189 0.16661705 -0.028444776 -0.25750554 -0.03715195 0.048491694
0.08402898 -0.008125669 0.034385826 -0.23007664 -0.18452376 0.10903446 -0.22022253 0.21315204
0.060281422 -0.10042128 -0.07152468 0.22652006 -0.22848284 0.18086909 0.026697228 -0.072547704
0.14856121 -0.025262298 0.12061582 0.13435446 -0.17046441 -0.07068939 -0.22418052 0.082509905
-0.1639592 -0.122230306 0.0053848308 -0.13339496 0.20736362 0.24468182 -0.17784157 0.2149439
-0.066420525 0.11585697 -0.04684575 0.0700279 -0.14348592 0.12498748 -0.2334215 0.09072041
00000000: 759c 0dbd 5e6f 20bd 6d07 523e ffe8 b1bd
00000010: 97a8 223c c1a7 90be 8979 84be 25d3 9abe
00000020: 0fe1 84bd eccd 5ebd d655 1a3e b9f8 ec3d
00000030: bd2f df3d e66b 59bd 5043 193d 9542 ee3d
00000040: 4535 103e 87a6 08be 2c1d 8e3d 19cd e83b
00000050: 94e0 e43d 639c ba3d 74fb ddbd 57d3 4ebd
00000060: 00a6 083e 4315 c2bd 258a 793e 3f0b 2dbe
00000070: e7ba d4bd f41b 183e 741b afbd 18ea 363e
00000080: 4cc8 be3c 84e4 1c3e b7fa 823d 815e c3bd
00000090: 3f1a 2c3e f988 93be 16cf 503e 963b fd3c
000000a0: 0c5e a93d 7710 3bbe 3ac7 6dbe 5f42 2bbd
000000b0: 7e67 6a3e dd99 65be dde7 fcbd bd09 2ebe
000000c0: 3d5d d6bd 0f8e 783e 5697 623d e61a b6bd
000000d0: 0807 0a3e 0919 8d3d 204b 87be e7a2 95bd
000000e0: 8b75 71bd 4784 543e f86b 423c 6446 a2be
000000f0: 0bc5 de3d 8373 6a3e 3a38 893d cf32 b63d
00000100: efd9 a4be fd45 1dbc c546 813e 218b ef3d
00000110: 4f4d bb3b 610b 8cbe 0c2b af3d 0d61 f5bd
00000120: d3b3 22be 6a05 4dbd 7e5f 983d bc52 213d
00000130: 4b54 3f3e 6bb8 a7bd ddc5 8ebd e4e7 e8bd
00000140: 5990 423e 57af f0bc 7adb 2a3e 40cf d93a
00000150: 92b2 113e e837 093e 01dc 323c 40af a43d
00000160: 8b2f 31be 3ef7 09be 28d3 97bc 51f6 fabb
00000170: 6429 223e 4da5 e9bd 8991 dabd 7206 46be
00000180: 7c1a 1d3e d5c2 9d3d d303 353e 9878 f83d
00000190: 18e3 933d e922 1f3e 6d3b 72bd 570d e03d
000001a0: bc24 f4bd 34a5 bb3b 7e95 9a3d 3c04 573e
000001b0: 92b0 3d3e 22d2 073d 660c aabd 0f2f 1fbe
000001c0: fa42 6b3d 396f 063e 0970 093d cba5 64be
000001d0: ea57 a6be 4743 7ebe d996 43be f76c 123d
000001e0: d6f3 89be cba3 fd3d 2a5d 503e dcb1 74bd
000001f0: 9f15 673e fdcf ef3a 9b7f 9e3d 9320 b0be
00000200: 5fd5 f93c 3c84 753e 87c4 74bd 4c7f 9d3c
00000210: c546 adbe f161 8a3d 18e2 3c3e dc67 1c3e
00000220: 7d62 8dbd a7ae b2be efb7 253e fdd8 a63d
00000230: 1683 ddbc 9fe0 4cbc 64eb 52be 6773 f83d
00000240: 5a9a 8e3c f7de aa3d 0b66 243d d35f b7be
00000250: c1f9 623e 7664 f1bc b3ea e93c 0396 043e
00000260: 3645 c13d f738 aa3d 9eda c5bd b2e9 a1bd
00000270: 0655 b83d 8d6b 413d 9690 553e bc8d 26be
00000280: 3d31 0a3d ffa1 67be b55d 8cbe 0a4f 74bb
00000290: 21f1 1abe 5593 6bbd 9b16 803e f845 383e
000002a0: 7e64 793e 57d7 3bbe ea0f 58bc e00c 3ebe
000002b0: a2e8 1cbe a1d2 eb3d ead9 353e ad71 0bbc
000002c0: 09de c83d 0a3c 0abe 4b7d 61be 3284 0cbd
000002d0: d654 753e 5a3a e0bd a93a 90be 67b3 2bbd
000002e0: 8882 623e c0ec cf3d cf03 2d3e 442c adbe
000002f0: 9fe4 2f3c 9bf7 853e 000b f53d 64a4 55be
00000300: 6bb1 113e 891f 9a3d aa53 2abe 7e42 b23d
00000310: b2bf 063e 5c83 e0bd 42da 83bd 705f 82bd
00000320: 5da2 e3bd a03a f3bd 1482 f6bd 4a88 433e
00000330: 1462 fb3d 1c85 bdbc ca4e 78be bdcd 643e
00000340: 462f 3abe fd1d 273e 0a77 c33d a99d 2a3e
00000350: 0505 e9bc c4d7 83be a52c 18bd 3a9f 463d
00000360: 6317 ac3d 8721 05bc 27d8 0c3d 3699 6bbe
00000370: ccf3 3cbe 754d df3d 0482 61be 8744 5a3e
00000380: a7e9 763d aca9 cdbd 887b 92bd e0f4 673e
00000390: 68f7 69be bf35 393e 25b4 da3c e493 94bd
000003a0: 6e20 183e e1f2 cebc 6d05 f73d 3794 093e
000003b0: 398e 2ebe 99c5 90bd 948f 65be f4fa a83d
000003c0: ece4 27be e253 fabd 3c73 b03b b098 08be
000003d0: 2157 543e df8d 7a3e 1a1c 36be 411a 5c3e
000003e0: 7c07 88bd 6b46 ed3d 54e1 3fbd ca6a 8f3d
000003f0: f9ed 12be 70f9 ff3d 0c06 6fbe 9fcb b93d

bias f4 [32]
0.17444554 0.1156655 0.021562848 -0.03517582 0.061524753 0.1373325 -0.11197976 0.108525105
0.21751682 -0.12552176 0.14337915 -0.083486415 -0.12097055 -0.1293652 0.14454533 0.17542654
0.16483961 0.23653416 0.08010211 0.22618309 -0.007349575 0.048973527 -0.017909577 -0.15316175
0.20755522 0.0798234 0.24758314 -0.024817677 0.22166476 -0.04999644 -0.017018337 0.09625549
00000000: daa1 323e 09e2 ec3d 92a4 b03c 8514 10bd
00000010: 6101 7c3d e4a0 0c3e a555 e5bd 6942 de3d
00000020: bbbc 5e3e c788 00be fcd1 123e edfa aabd
00000030: 68bf f7bd 5078 04be b103 143e 04a3 333e
00000040: b7cb 283e 0336 723e 930c a43d 8a9c 673e
00000050: b4d4 f0bb 7798 483d 1bb7 92bc 6fd6 1cbe
00000060: 5b89 543e 737a a33d 6f86 7d3e 714e cbbc
00000070: 16fc 623e 11c9 4cbd 0a6a 8bbc 9921 c53d

weight f4 [64, 32, 5, 5]
0.020029908 0.030313663 -0.014903781 0.029843807 0.032061 -0.022538217 -0.044152364 -0.03941847
-0.052973613 0.00838208 0.019027162 -0.006478253 -0.037834182 -0.024616478 -0.026293764 0.026690144
0.011081722 0.075230226 -0.01526629 0.03854185 0.023578122 0.07674254 0.07441296 0.07111574
0.009292263 0.006309855 -0.08987485 -0.07354907 -0.10519259 -0.060472645 0.034364514 -0.013479642
-0.044168808 -0.08917281 -0.060140558 0.012784442 0.06540181 0.06387804 0.028726112 0.0068925032
0.009260093 0.058790274 0.07507705 0.059092533 0.026701435 0.016565997 0.00943821 0.0034142737
0.028518604 -0.03181822 -0.04676393 -0.07794172 -0.114138015 -0.13501772 -0.076581515 -0.13453747
-0.087979674 -0.10461135 -0.108030885 -0.016242895 -0.03093222 -0.009479203 -0.0689251 -0.11203302
-0.0070735267 0.06468107 0.048317548 -0.019343674 -0.041963506 0.015372433 0.04779527 -0.021772256
0.04818199 -0.089677095 -0.0186507 0.0469496 0.038325973 0.017432254 -0.011710896 -0.021318527
-0.017133137 0.004706349 0.002326108 0.022504643 -0.009123445 -0.0036811377 0.013826231 0.026010979
0.03494222 -0.013821198 -0.0028260099 0.03724598 0.022110572 -0.010100148 -0.014006286 0.027803337
0.053239744 0.013501123 -0.006519556 0.05090268 0.03716117 -0.037136193 -0.07356099 -0.009547273
0.006264381 0.028393721 0.01098079 -0.041115623 -0.094487086 -0.039244264 0.025173834 0.10539983
0.057939593 0.03865367 0.05398541 0.07508723 0.08028505 0.10064934 0.07594778 0.08162492
0.07640372 0.058547787 0.054583818 0.03629081 0.009387186 -0.07461338 -0.1252741 -0.16057472
-0.116446525 -0.07205371 -0.12685211 -0.11681585 -0.15026146 -0.1551819 -0.08908825 -0.12801503
-0.09001134 -0.100379534 -0.12631004 -0.05579167 -0.088067204 -0.012901016 -0.03249241 0.031584263
-0.012152281 -0.07655799 -0.07376532 -0.002640755 0.035659745 -0.004490558 0.0075058634 -0.063524306
-0.020920437 0.0055206 0.045647148 -0.030998826 -0.0922544 -0.048021138 -0.097887196 -0.06954508
0.025146345 0.056147695 0.04888569 -0.015186632 0.020590303 0.078365386 0.06154697 0.08906843
0.033439655 0.03490652 0.08685206 0.05418902 0.08531835 0.068583794 0.002443447 0.034332428
-0.029420886 -0.047443025 -0.05676883 -0.01917898 -0.010579926 -0.06021467 -0.05073843 -0.030263942
-0.025413692 0.009633977 0.0392801 -0.02876797 -0.02638924 0.0032993988 0.043654963 0.057671927
0.02757054 0.0039261295 0.06603985 0.03474643 0.05397927 0.029046768 0.035576005 0.044054575
-0.014464427 -0.0006511375 -0.009804108 0.01350326 0.041015286 0.00484221 -0.049589593 -0.024929458
-0.044774536 0.040474605 0.09124136 0.054118946 0.069598325 0.042984664 0.030090269 0.085092865
0.14750583 0.08649289 0.040824912 0.06526001 0.033229668 0.10871521 0.13430971 0.05025081
0.06803567 -0.06754548 -0.08212073 -0.13895415 -0.058372725 -0.026193764 -0.042975713 -0.10814863
-0.10744569 -0.08620422 -0.078746356 -0.034191683 -0.08099081 -0.07128843 -0.079401255 -0.039347894
0.016672507 0.039781947 0.032125235 -0.0058800424 -0.026099754 0.013609077 -0.015597063 0.007637926
0.0049215523 -0.02915686 -0.06338266 -0.030800488 -0.041737612 0.009723172 0.032365993 -0.08756302
00000000: c315 a43c 5c54 f83c fd2e 74bc 007b f43c
00000010: 6552 033d 11a2 b8bc 1cd9 34bd 4375 21bd
00000020: dcfa 58bd fe54 093c dade 9b3c 8647 d4bb
00000030: 04f8 1abd 7fa8 c9bc 0566 d7bc 4aa5 da3c
00000040: 1c90 353c 4e12 9a3d 761f 7abc 0fde 1d3d
00000050: e826 c13c 312b 9d3d d265 983d 21a5 913d
00000060: 933e 183c e6c2 ce3b 4e10 b8bd e5a0 96bd
00000070: 366f d7bd 2ab2 77bd cec1 0c3d b7d9 5cbc
00000080: 5aea 34bd 3ca0 b6bd f255 76bd d675 513c
00000090: 62f1 853d 7dd2 823d 0653 eb3c 82da e13b
000000a0: a5b7 173c 12ce 703d ffc1 993d 030b 723d
000000b0: f8bc da3c 6ab5 873c b9a2 1a3c 02c2 5f3b
000000c0: d99f e93c d253 02bd 898b 3fbd e99f 9fbd
000000d0: 31c1 e9bd 1642 0abe c5d6 9cbd 31c4 09be
000000e0: b02e b4bd 7a3e d6bd 4c3f ddbd d20f 85bc
000000f0: 9165 fdbc a94e 1bbc 9a28 8dbd 9171 e5bd
00000100: 0bc9 e7bb 8277 843d 9fe8 453d a076 9ebc
00000110: ede1 2bbd a8dc 7b3c f9c4 433d bb5b b2bc
00000120: 7a5a 453d a0a8 b7bd 5ac9 98bc 394e 403d
00000130: b2fb 1c3d 16ce 8e3c 0fdf 3fbc 31a4 aebc
00000140: cb5a 8cbc b837 9a3b 9e71 183b a85b b83c
00000150: 807a 15bc 3e3f 71bb 6a87 623c fa14 d53c
00000160: 931f 0f3d 4e72 62bc 9434 39bb 3e8f 183d
00000170: 3b21 b53c 177b 25bc 9f7a 65bc d3c3 e33c
00000180: eb11 5a3d d033 5d3c 00a2 d5bb 547f 503d
00000190: 5036 183d 1f1c 18bd 25a7 96bd 2a6c 1cbc
000001a0: 7045 cd3b f399 e83c c5e8 333c db68 28bd
000001b0: 7282 c1bd 98be 20bd 5b39 ce3c dedb d73d
000001c0: 1152 6d3d 5053 1e3d ce1f 5d3d 55c7 993d
000001d0: 7d6c a43d 3e21 ce3d 828a 9b3d f72a a73d
000001e0: 8e79 9c3d cecf 6f3d 4893 5f3d aca5 143d
000001f0: b6cc 193c e6ce 98bd db47 00be b36d 24be
00000200: 847b eebd e590 93bd 85e5 01be 263d efbd
00000210: 24de 19be 01e8 1ebe e773 b6bd 5f16 03be
00000220: de57 b8bd c993 cdbd 6b57 01be ce85 64bd
00000230: 945c b4bd c85e 53bc c316 05bd 805e 013d
00000240: 5c1a 47bc 6fca 9cbd 4612 97bd 8410 2dbb
00000250: f40f 123d 8825 93bb bff3 f53b 0819 82bd
00000260: 5661 abbc 26e6 b43b 81f8 3a3d 40f1 fdbc
00000270: e0ef bcbd d0b1 44bd 1579 c8bd a76d 8ebd
00000280: b5ff cd3c 20fb 653d 5c3c 483d 5ad1 78bc
00000290: ffac a83c 087e a03d ad18 7c3d 8269 b63d
000002a0: 05f8 083d 24fa 0e3d 7edf b13d 4ef5 5d3d
000002b0: 63bb ae3d a975 8c3d 3d22 203b 29a0 0c3d
000002c0: 1204 f1bc 9e53 42bd 6f86 68bd 3c1d 9dbc
000002d0: 6d57 2dbc a8a3 76bd 1ad3 4fbd 16ec f7bc
000002e0: 6030 d0bc d4d7 1d3c 2ce4 203d ceaa ebbc
000002f0: 3f2e d8bc ba3a 583b 8ccf 323d 6639 6c3d
00000300: 9ddb e13c c3a6 803b e73f 873d 4652 0e3d
00000310: 5e19 5d3d 7df3 ed3c 25b8 113d 9272 343d
00000320: 34fc 6cbc 19b1 2aba 69a1 20bc c73c 5d3c
00000330: a5ff 273d 67ab 9e3b 751e 4bbd dd38 ccbc
00000340: 8165 37bd b3c8 253d c0dc ba3d d4ab 5d3d
00000350: 9189 8e3d b010 303d de7f f63c 2b45 ae3d
00000360: c50b 173e 2f23 b13d 0638 273d 0aa7 853d
00000370: d51b 083d 14a6 de3d 7c88 093e cbd3 4d3d
00000380: 4956 8b3d 4955 8abd ea2e a8bd ff49 0ebe
00000390: 3d18 6fbd 4e94 d6bc 4d07 30bd 077d ddbd
000003a0: 7c0c dcbd d78b b0bd c545 a1bd 940c 0cbd
000003b0: 83de a5bd abff 91bd 209d a2bd 422b 21bd
000003c0: c894 883c 65f2 223d c095 033d 5fad c0bb
000003d0: 27cf d5bc 9bf8 5e3c d38a 7fbc 9147 fa3b
000003e0: f944 a13b 5eda eebc c5ce 81bd 4e51 fcbc
000003f0: 0ff5 2abd f04d 1f3c 3492 043d 3e54 b3bd

bias f4 [64]
0.023389317 -0.023017412 -0.020696327 -0.011065143 -0.03732849 0.008112199 -0.00702259 0.018244352
-0.04854899 -0.038991712 -0.023453433 -0.022246456 -0.00072090584 0.019270917 0.019244 0.025490064
-0.023832114 -0.027637374 0.014645679 -0.028755141 0.009277446 -0.0061297757 -0.02372863 -0.032097317
-0.023647474 -0.014997716 -0.020657642 -0.03638698 0.02912113 0.0018875329 0.01769459 0.016569518
0.009143511 -0.018198853 -0.0028166263 0.0042220773 -0.02405822 -0.0042729834 0.027463207 0.015823308
0.007894697 -0.033984944 -0.016926862 0.016368166 0.018753614 -0.0029564153 0.0013470885 0.023173086
0.004700121 -0.036647268 0.0067402404 -0.04078695 0.026974605 -0.008239154 -0.026455816 0.025214553
0.04438846 -0.021376166 0.0035415245 -0.0067775743 0.0193807 -0.029904284 -0.015847653 -0.03318946
00000000: f49a bf3c 038f bcbc 588b a9bc 934a 35bc
00000010: c2e5 18bd 07e9 043c c11d e6bb 2e75 953c
00000020: 4edb 46bd c6b5 1fbd 6a21 c0bc 333e b6bc
00000030: 2cfb 3cba 0bde 9d3c 98a5 9d3c 8ad0 d03c
00000040: 913b c3bc c667 e2bc 6ef4 6f3c e78f ebbc
00000050: 6e00 183c 49dc c8bb 8b62 c2bc 7a78 03bd
00000060: 59b8 c1bc fbb8 75bc 373a a9bc 840a 15bd
00000070: 708f ee3c 1867 f73a 3ff4 903c ccbc 873c
00000080: aace 153c c315 95bc 2697 38bb 5a59 8a3b
00000090: bf15 c5bc 6204 8cbb 85fa e03c e29f 813c
000000a0: c258 013c cc33 0bbd 34aa 8abc 8816 863c
000000b0: 2ea1 993c 6bc0 41bb ca90 b03a 7cd5 bd3c
000000c0: 7903 9a3b 721b 16bd 3cdd dc3b 3810 27bd
000000d0: d9f9 dc3c 84fd 06bc deb9 d8bc c08e ce3c
000000e0: add0 353d 121d afbc ec18 683b 6a16 debb
000000f0: 46c4 9e3c d4f9 f4bc f0d2 81bc acf1 07bd

weight f4 [12, 3136]
-0.008458482 -0.038409483 -0.0416933 -0.04041722 -0.015866369 0.018679304 0.031277075 0.02699977
-0.0060325884 0.013280873 -0.04400808 -0.06184796 -0.022554597 -0.004007989 0.04542547 -0.024605976
-0.02689586 -0.059522934 -0.037959054 -0.023148881 0.0291771 -0.071752094 -0.11149877 -0.1474723
-0.13215992 -0.06922219 -0.01174199 -0.015101086 -0.031851623 -0.08662018 -0.058139693 -0.073530026
-0.08206572 -0.07859824 -0.025425779 -0.01431512 -0.07241143 -0.091770485 -0.07416075 -0.025228601
-0.015341484 -0.019029774 -0.009412456 -0.057063505 -0.023365254 -0.057936117 -0.060670666 -0.010441319
0.009052214 -0.017536003 0.0016136456 -0.023345586 -0.005235798 -0.0064189285 -0.011409143 -0.0009546308
-0.005008869 0.010436744 -0.007870691 -0.0076596458 -0.019035876 0.005813654 0.010653566 -0.011125735
0.018805293 0.010085753 0.0025119584 -0.009281999 0.0060729673 0.012038893 -0.016309982 -0.011863023
-0.006692666 -0.0061019086 0.015148537 -0.018790096 -0.006514274 -0.016468013 0.00013778334 -0.010891994
-0.023237146 -0.021389375 0.011186422 0.013896516 -0.022677355 0.0035706912 -0.01219423 -0.017622706
0.006012529 -0.009114981 0.015694339 -0.0045134965 0.0015834224 -0.019030297 0.011380757 0.008006149
-0.011042334 -0.014003968 0.0025207042 -0.010767141 -0.010305009 0.0056754574 0.010933721 -0.010369374
-0.0004067317 -0.001335452 -0.023917211 -0.021997962 0.0029231233 0.008197041 0.0011934192 0.0042676018
-0.016340131 0.005870488 0.0003983709 0.006162204 -0.018987846 -0.005728403 -0.018302426 0.005200624
-0.017754009 -0.006359551 -0.018691732 -2.3326807e-05 -0.010859105 -0.002247744 0.005870185 -0.0035735131
0.0063721715 0.01224933 -0.018110158 -0.014079312 -0.01954366 -3.2141606e-06 -0.00986761 0.0107633965
0.005303377 0.0043073827 -0.016422626 -0.018912423 0.007261649 0.0026441738 -0.01656594 0.007437428
0.011137348 -0.01288856 0.012491279 0.01184332 -0.0026612547 0.015690982 0.069427356 0.06531481
0.050459728 0.041766975 0.021259435 0.017094482 0.031016972 0.059392564 0.06667452 0.063512996
0.04105261 0.041101374 0.027363809 0.035524447 0.027787628 0.06430486 0.0437087 0.05402919
0.046321932 0.021082759 -0.002303636 0.047727223 0.04214848 0.04033536 0.019819865 -0.00789338
-0.034014232 -0.037405074 -0.007629959 0.04592138 0.01819999 -0.015720518 0.012691026 -0.035630483
-0.027650997 0.02815666 0.043417014 0.02946468 -0.017780967 0.005702441 0.004932197 -0.01816711
0.029445881 0.054351885 0.027001597 -0.042210903 -0.0037920857 0.0070887543 0.005129494 -0.0073706573
-0.017744947 -0.0059716534 0.0047314744 0.01516453 -0.012938229 0.01724668 0.012034304 -0.01092739
0.016804105 0.015914628 -0.0074734716 -0.0032493342 -0.000605803 0.01149115 -0.0038432349 0.0012586974
0.01635108 -0.0025636023 -0.0017515551 0.016873995 0.015077507 -0.007923245 0.0062070657 -0.014089238
-0.002779588 -4.8937276e-05 0.011076996 0.0057820156 -0.01172996 0.013400467 0.001092922 -0.0021708366
0.01648545 -0.0068449937 -0.0027297102 0.0021759365 0.008046228 -0.015179075 0.009010009 0.0151261
0.0039548445 0.011341533 0.009691618 -0.0052404283 -0.014533617 -0.01676497 -0.0059424182 0.012150806
0.0033865944 -0.013999538 0.00044546556 0.0121904705 -0.021288345 -0.0052076625 0.01662073 -0.0030051158
00000000: 7295 0abc 4353 1dbd 98c6 2abd 878c 25bd
00000010: 30fa 81bc 5705 993c 641c 003d 9f2e dd3c
00000020: 05ad c5bb 0598 593c d141 34bd 4954 7dbd
00000030: 6bc4 b8bc 7355 83bb 0f10 3a3d 7992 c9bc
00000040: b554 dcbc 52ce 73bd f47a 1bbd b9a2 bdbc
00000050: d004 ef3c c3f2 92bd 7859 e4bd fb02 17be
00000060: ee54 07be 5dc4 8dbd 7a61 40bc 8c6a 77bc
00000070: d976 02bd ec65 b1bd e323 6ebd e996 96bd
00000080: 1212 a8bd 1df8 a0bd b949 d0bc f789 6abc
00000090: 724c 94bd 2af2 bbbd 97e1 97bd 36ac cebc
000000a0: d95a 7bbc 54e4 9bbc b436 1abc 6cbb 69bd
000000b0: 7d68 bfbc 6c4e 6dbd ce81 78bd 1112 2bbc
000000c0: bd4f 143c aaa7 8fbc f680 d33a 3e3f bfbc
000000d0: 0f91 abbb e055 d2bb 6aed 3abc 3040 7aba
000000e0: 7021 a4bb e1fe 2a3c 12f4 00bc c4fd fabb
000000f0: 20f1 9bbc 7780 be3b 4b8c 2e3c b748 36bc
00000100: 8f0d 9a3c b73e 253c ab9f 243b 8713 18bc
00000110: beff c63b c73e 453c 839c 85bc 205d 42bc
00000120: 274e dbbb 85f2 c7bb 9231 783c b0ed 99bc
00000130: b175 d5bb ede7 86bc ef79 1039 5674 32bc
00000140: d45b bebc c538 afbc 4147 373c 36ae 633c
00000150: dcc5 b9bc 4202 6a3b 4fca 47bc 7e5d 90bc
00000160: c004 c53b 0057 15bc 6a91 803c f4e5 93bb
00000170: d78a cf3a 6de5 9bbc 5b76 3a3c 392c 033c
00000180: e8ea 34bc e670 65bc 6632 253b aa68 30bc
00000190: 57d6 28bc 30f9 b93b 5a23 333c 4fe4 29bc
000001a0: 9b3e d5b9 550a afba 07ee c3bc 1235 b4bc
000001b0: df91 3f3b e24c 063c 816c 9c3a 3dd7 8b3b
000001c0: bddb 85bc 395d c03b 70dc d039 50ec c93b
000001d0: 668c 9bbc 54b5 bbbb f8ee 95bc ff69 aa3b
000001e0: db70 91bc c863 d0bb 671f 99bc f0ad c3b7
000001f0: 63ea 31bc e34e 13bb ae5a c03b 9a31 6abb
00000200: a6cd d03b 6ab1 483c c15b 94bc eaac 66bc
00000210: 071a a0bc dcb2 57b6 c2ab 21bc f558 303c
00000220: f3c7 ad3b f224 8d3b be88 86bc 3aee 9abc
00000230: 20f3 ed3b e049 2d3b 4bb5 87bc abb5 f33b
00000240: 6c79 363c 8a2a 53bc 39a8 4c3c 7c0a 423c
00000250: 7268 2ebb 608a 803c ee2f 8e3d c5c3 853d
00000260: dcae 4e3d d913 2b3d 4428 ae3c ba09 8c3c
00000270: 4e17 fe3c 9e45 733d a78c 883d 1a13 823d
00000280: c826 283d ea59 283d 112a e03c 1582 113d
00000290: e1a2 e33c 44b2 833d e507 333d b64d 5d3d
000002a0: 11bc 3d3d c0b5 ac3c 99f8 16bb 9f7d 433d
000002b0: e2a3 2c3d b136 253d 455d a23c 3c53 01bc
000002c0: 8252 0bbd 1036 19bd bc04 fabb 0f18 3c3d
000002d0: 2518 953c 51c8 80bc 05ee 4f3c 45f1 11bd
000002e0: 5884 e2bc cca8 e63c 0ad6 313d ea5f f13c
000002f0: 64a9 91bc 8bdb ba3b 449e a13b 31d3 94bc
00000300: 7d38 f13c 15a0 5e3d 7432 dd3c 57e5 2cbd
00000310: a484 78bb c848 e83b 5015 a83b 8e85 f1bb
00000320: da5d 91bc dcad c3bb 7c0a 9b3b a674 783c
00000330: defa 53bc e948 8d3c 882b 453c cc08 33bc
00000340: c3a8 893c 655f 823c 06e4 f4bb c8f2 54bb
00000350: c0ce 1eba 6045 3c3c c8de 7bbb e0fa a43a
00000360: b3f2 853c 1c02 28bb 7094 e5ba 553b 8a3c
00000370: a607 773c 80d0 01bc a464 cb3b 8cd6 66bc
00000380: c029 36bb 0042 4db8 4a7c 353c 1077 bd3b
00000390: 052f 40bc a28d 5b3c 6040 8f3a 9844 0ebb
000003a0: 7f0c 873c f84b e0bb f0e4 32bb 289a 0e3b
000003b0: 54d4 033c a8b1 78bc b79e 133c 76d3 773c
000003c0: a497 813b d6d1 393c 98c9 1e3c e6b7 abbb
000003d0: 681e 6ebc b156 89bc 9eb8 c2bb 2d14 473c
000003e0: a0f1 5d3b 515e 65bc 608d e939 8aba 473c
000003f0: e564 aebc 0aa5 aabb 3228 883c 7af1 44bb

bias f4 [12]
-0.036703303 -0.010441433 -0.004573543 0.0080772685 0.017046714 0.038177222 0.005633835 -0.014681773
-0.007771035 -0.012940714 -0.006010309 -0.019521879
00000000: 3456 16bd 8b12 2bbc a9dd 95bb 8556 043c
00000010: 8da5 8b3c b85f 1c3d 099c b83b d28b 70bc
00000020: 2ba4 febb 4a05 54bc 20f2 c4bb 59ec 9fbc
