PJ1/CNN/0.01_64_20.pth (torch, 364582 bytes, 6 tensors)

weight f4 [32, 1, 5, 5]
00000000: b1fb 3fbc 7381 7abe 2ab2 04be d07e 36be
00000010: 446e 82be bc2e 833d b2cf f2bc 5bb5 24bd
00000020: 53e8 73be 7681 28be 3d60 9cbe 96a1 51bd
00000030: b5c9 6bbe 62da 97bd 6b12 033d 61df af3d
00000040: c70e b33b 4acc 763d 7524 903d 1711 49be
00000050: 1478 46bd df1d 6c3d 7447 41be 5323 37be
00000060: 67a1 c8bd 5b41 863e 8a75 9ebd 55ec c43c
00000070: 51e8 5abe 5645 213e e77f 213e 3564 633e
00000080: d6a8 c8be af41 03be a51d 863c fee5 423e
00000090: 3db5 6f3e 38c4 bdbe 2236 9dbe 3008 6bbc
000000a0: 473c b2be ee00 21bf 08a4 943d dc14 98bd
000000b0: 702e eabe a701 21be aa20 d03d 4338 54be
000000c0: 730b 4e3e 7b37 4e3e 5ee3 2ebe c6dc d73d
000000d0: ffb5 1d3e 3c04 59be b4f8 10be 478d 59bb
000000e0: 7508 493e bee4 8d3e 490d 953e 2483 2cbf
000000f0: 96de b73d 72c1 2a3e 0ec9 28bd 488c 773e
00000100: 392e 1ebf 7098 6bbd fd08 f4bd e72a d43c
00000110: 23d1 34bd 41f0 67be f382 5dbe 26b3 14be
00000120: efc2 7b3d d850 6a3d 397a c0bd 5760 d6bd
00000130: 17ee 34be ae26 03bd f470 c0be 2729 68be
00000140: 7c4d 10be 67d2 b6be 1d50 b6be 2142 a53e
00000150: beba 503e 0dfe d63d 8059 b63d d02d 83be
00000160: e8ae ffbe de96 80be 63d8 4d3e 17bc e83d
00000170: bfcb 4e3d 2d9e 023e b292 58bc d56e 56bd
00000180: f65c a73d 6cdc 033e 7f27 b83d 114c 143c
00000190: 217d bdbe 76a9 54bd 1538 4d3d 24dc 8dbd
000001a0: 3c36 37be 8092 d3bd 56db 523d 6725 9dbe
000001b0: 8aa9 6abe a084 15bd c26c fe3d 5dc4 d63d
000001c0: 3dfa 17bf c616 013e 5ed8 763e efb0 7dbe
000001d0: 36ea 463e 8fb3 8dbd c46b c7be a59e 8f3e
000001e0: e096 d3bd a65c 963d 800f a83e 158b 08bf
000001f0: 868c b13e fda0 bdbe 6483 6a3e 8995 803e
00000200: d455 96bf 4777 9a3e 86a2 f2bd 024e bdbe
00000210: 7d3f f8be b3b3 74bf f67d 8cbf 5fb9 6abe
00000220: 80bd b5be 78b2 823e cb17 64bf 9e52 cc3e
00000230: d05d 75be 370f 2f3d e882 403e 13a6 d3be
00000240: e7b9 323e b09c 1e3c 6d9b c93d 667e 8a3e
00000250: 86ca 31bf b662 053e 9933 0abe 8ea2 6a3d
00000260: 15cc 8f3d 4419 47be d678 14be 9661 d4bd
00000270: e61e a1bc d73c 68be 7541 11be b7ea eabd
00000280: ae5f 4abe 9a61 77be 9cfc 19bc 39c8 7ebe
00000290: ce5b 66be f9f5 d7bb 9a92 21be 3418 61be
000002a0: e485 24be 1a45 b23d 30c2 a33d 8288 1fbe
000002b0: a1bc 1dbd 9ffe 803c bfbd 01be dfea 02be
000002c0: e102 473e 8ac5 c6be 1324 0b3e 7be0 25be
000002d0: c370 fb3d 4c03 c9bd 6dc4 37bf 058f 34bf
000002e0: 6cfc 62be a623 2ebf fcaf 2bbf 463c 47bf
000002f0: 33b0 a0bd f157 e8bd 3153 6ebf bff9 24bd
00000300: 5bd2 a3bc 30ff f5bd 7404 c83c 0989 95be
00000310: 098f c2be 0e41 1ebf 9b1f 4abf 787c 82bf
00000320: 1afa f73d 0f81 e53d 01ec 62be 759e 8dbd
00000330: 6c68 843d 3115 ac3d 7dbf d2bd 6ece bdbd
00000340: 1507 7cbe 0039 463c 0f51 693e 3b89 803e
00000350: e7c6 03bf e4ef 503e c232 833e aae2 f93e
00000360: a69c b2be 5ffa a03d cc0a 2bbd a06e c8be
00000370: 937c fcbe 071f d7be 79d4 e4be 44ed 15bf
00000380: 0a38 fbbd f08b 64be 377e 583d 32f1 6abe
00000390: d1b9 f73d 9ce0 8c3d e34f 05be a7bf 22be
000003a0: 6ba6 0a3e c4cf 383e 50ca 3f3e 46bb b4be
000003b0: dd77 2d3d b42b 203e 802d 3ebe 6dc9 1e3e
000003c0: 3d3d 1abf a200 eabe 6591 283d 83ec 33be
000003d0: 38bb 213e 0474 39bb b9a7 e73d 2875 5cbe
000003e0: c3c4 d9bd 4369 b93d 6d71 f5be 72e5 ccbe
000003f0: 2699 93be c717 7dbe f2ac 3cbd 3b5d bbbc
-0.011717723 -0.24463443 -0.12958589 -0.17821813 -0.2547475 0.06405398 -0.029640052 -0.040212017
-0.23819093 -0.16455635 -0.30542174 -0.05117949 -0.23026164 -0.074147 0.031999987 0.08587528
0.005464408 0.06025342 0.070382036 -0.19635426 -0.04845436 0.057645675 -0.18874913 -0.17884569
-0.0979641 0.26221737 -0.077372625 0.024038473 -0.21377684 0.15749106 0.15771447 0.22206195
-0.39191312 -0.12818025 0.016371557 0.19033048 0.2340898 -0.37063766 -0.30705363 -0.014345214
-0.34811613 -0.62892044 0.07257849 -0.074258536 -0.45738554 -0.15723287 0.1016248 -0.20724587
0.20121555 0.20138352 -0.17078921 0.10540156 0.15401457 -0.21193022 -0.14157373 -0.003319578
0.19632132 0.2771358 0.29111698 -0.67387605 0.08978002 0.16675356 -0.041207366 0.24174607
-0.6178928 -0.057518423 -0.11915777 0.025899364 -0.04414476 -0.22650243 -0.21631984 -0.14521465
0.0614652 0.057206005 -0.09398312 -0.10467594 -0.17668949 -0.03201931 -0.37586176 -0.22671948
-0.14092058 -0.357074 -0.35607997 0.32277015 0.20383736 0.10497675 0.089037895 -0.2562089
-0.4993813 -0.25115103 0.20102076 0.11364 0.050487276 0.12755652 -0.013218569 -0.05235179
0.08172028 0.12877053 0.08991908 0.009051339 -0.37009528 -0.051919423 0.050102312 -0.06926754
-0.17891783 -0.10330677 0.051478706 -0.30692598 -0.22916237 -0.036503434 0.12423088 0.10486672
-0.5936621 0.12606344 0.24105975 -0.24774526 0.19425282 -0.06919014 -0.38949406 0.28050724
-0.103315115 0.0734189 0.32824326 -0.5333722 0.34677523 -0.37036887 0.22901684 0.25114086
-1.1744943 0.30169126 -0.11847405 -0.36973578 -0.48485938 -0.955867 -1.097594 -0.22922276
-0.3549614 0.25526786 -0.89098805 0.39906782 -0.23961568 0.04273912 0.18799937 -0.41337642
0.17453729 0.009680912 0.09844098 0.2704956 -0.6944965 0.13025936 -0.13496245 0.05728393
0.070213474 -0.19443232 -0.1449922 -0.103701755 -0.019668054 -0.22679459 -0.14185126 -0.114705496
-0.19763061 -0.24158326 -0.009398606 -0.24881066 -0.22495958 -0.0065906015 -0.1577858 -0.21981889
-0.160667 0.08704586 0.07996023 -0.15579417 -0.03850997 0.015746413 -0.12670039 -0.12784909
0.19434692 -0.38822585 0.1358798 -0.16198914 0.12277367 -0.09815082 -0.71784097 -0.7053073
-0.22166604 -0.68023145 -0.67065406 -0.77826345 -0.07846107 -0.113448985 -0.9309569 -0.04027724
-0.019997766 -0.12011564 0.024416186 -0.29206112 -0.37999752 -0.61818016 -0.78954476 -1.0194235
0.1210825 0.112062566 -0.22160341 -0.06914989 0.064652294 0.084024794 -0.1029043 -0.09267889
-0.24612077 0.012098551 0.22784828 0.251047 -0.51475376 0.20404011 0.25624663 0.48805743
-0.34885138 0.078602545 -0.041758344 -0.391469 -0.49313793 -0.4201586 -0.44693354 -0.58565164
-0.12266548 -0.22319007 0.052854743 -0.22943571 0.120959885 0.06878778 -0.13018756 -0.15893422
0.13540046 0.18048006 0.1872952 -0.35299128 0.04235064 0.15641671 -0.18572044 0.15506525
-0.6024969 -0.45703608 0.041154284 -0.17570691 0.15794075 -0.002829791 0.113112874 -0.21529067
-0.106332324 0.0905328 -0.479381 -0.40018803 -0.2882778 -0.24716102 -0.04606337 -0.022871604

bias f4 [32]
00000000: 85b9 343e c39c ad3d 1a65 cdbc cb35 48bd
00000010: 58f1 643d 4a23 2c3f 7097 84be 656f 64be
00000020: 2e53 313e 0616 573e 2190 2f3e d0e3 bd3d
00000030: 8b04 1a3e 8edb 4cbe a9d6 dfbd b71b ce3c
00000040: d3e9 2c3d 66b2 22be 23c0 ac3d fa7b b1bd
00000050: 8e66 b03e 5e4f 493e fd5e 08be e019 1ebe
00000060: 669e 70be 3392 5c3d 6263 823e 5e3c 2bbe
00000070: 86dd 25be 01e8 a2bc 7347 f1bd 12aa 303e
0.17648895 0.084771655 -0.025072623 -0.048879426 0.055894226 0.67241347 -0.25896788 -0.22308119
0.17316887 0.21004495 0.17144825 0.092719674 0.15040796 -0.20005628 -0.10929615 0.0251597
0.04221518 -0.15888366 0.08435085 -0.08666225 0.34453243 0.19659182 -0.13317485 -0.15439558
-0.23497924 0.053850364 0.25466448 -0.16722247 -0.16197786 -0.019886019 -0.11781206 0.17252377

weight f4 [64, 32, 5, 5]
00000000: dc13 6c3d 0182 ea3c 086f debd 7ed0 ffbd
00000010: f143 9b3e 2ebc f13e 5894 353d 964b d3bd
00000020: df50 e23d 9311 c6bd 6cf0 303e 5a41 75bc
00000030: f789 b7bc 6a7b e43c 28c1 c2bd dc1a 2e3f
00000040: eb6f 913b a5fc cfbc 38cd 313d 17d9 a9bd
00000050: 422b 833e fa45 e13d aae3 3abd c1f5 30bd
00000060: 1da3 02be 2c8d 8b3f 343d 0cbe a175 17bf
00000070: bda5 54bf ff13 92bf b53f 193f f1c4 4cbf
00000080: 1c8f 82bf a422 b7bf fc2e a1bf cc19 fc3e
00000090: e92e adbe c127 edbe 0409 b5be a3ce 98be
000000a0: 6385 0d3f 85a4 b63e df75 18bf 8f9e 37bf
000000b0: 454b 5bbf 4d30 44bf bf22 873d 5941 6dbf
000000c0: a077 83bf 011b 20bf 255b 90be 79f9 8cbc
000000d0: 3b90 1bbf fd0d 80be a965 b6be b576 c0be
000000e0: 1f9c aabe 8772 0bbf 1901 0dbe 282c e4be
000000f0: 1fdd 99be 4927 8abe 5d8b efbe 94f6 99be
00000100: ba68 cebe 6c2b 4cbe 99b9 95be 18f9 7cbe
00000110: cf72 e7be c9b0 46be 8997 bfbe a14a b23d
00000120: 073a 05bf 8b55 92be 28b7 e33e baa0 c43d
00000130: 1b63 bcbd 4469 d6bd 21c7 363e 3e4d 6f3d
00000140: e09a 2d3f f5f9 bd3e 3d50 093e ee9a 043e
00000150: d69b 243e 2dff 6f3e 602f d03d 7181 08bb
00000160: 83c1 09be 0e61 e7be 9104 8c3e 2a3e 05bd
00000170: ff81 8fbd fd71 0e3d 8c3a dfbe c4d3 423e
00000180: 055e 543e 56c7 383e f535 2e3e 079e 273e
00000190: 42d9 a13f ab38 003e 3ce3 47bf 6a58 afbe
000001a0: dd83 56bf 1b5a 283f d729 4a3f f103 1cbf
000001b0: 4bc3 2dbe 8546 d9bd 3108 b0be 56ff ca3e
000001c0: 5b9b 87bf fde0 a0bf cac2 e8bf 4dd1 37bf
000001d0: 218c eebe cde6 283e 3140 08be dd21 d2bf
000001e0: b2df bcbe 4e4c 26bf 179a e0be 373e 453f
000001f0: 9914 73bf 714a 673f 7282 febd 22d2 5dbe
00000200: 830f 35be 5634 13bf a3ba cb3e 7d66 ec3e
00000210: 4e11 f7be 496e 7ebe 8b5f ecbe 6eb9 9bbe
00000220: fa8a 66bd 6cf5 d9bd 9c00 35bd 2160 6abb
00000230: 6cc1 89be 5fb1 92be 5a43 e8bd 2b49 d13c
00000240: 20f6 e73e 7b7c 18be 95d7 933e db05 483d
00000250: a9ea 12be 7981 403e f47a 7a3d bbee 303d
00000260: 8e7b 91bd 144f 7f3d a58a 513d 670c 34bd
00000270: 246b 883d f188 93bd 2e17 3dbd d29b a1bd
00000280: f330 babd e462 783d 3468 abbd 3c74 57bd
00000290: e587 e3bc def0 29bc 95f8 19bd fab9 d2bc
000002a0: 369e 9bbd 212f b5bd ad06 93bd 504e 37bd
000002b0: b25c 0abd 5aaa 99bd b292 b73d c836 f1bd
000002c0: 3d3f fcbe 49a9 a3be e623 2d3c fb79 84be
000002d0: af44 03bf d9ed a6be 7d84 b6bd db7e 0cbd
000002e0: 7bb9 7cbc 6735 583f 59d3 563e 7c55 01bd
000002f0: bcb9 e3bd f88d 94be 5c9c 183d cb11 1ebe
00000300: 3ad8 0bbe 5ff4 b5bd aca4 903d c643 0a3c
00000310: 6688 203e 0669 233f c2f1 793e 5ad1 613e
00000320: 4d46 ba3e 8c05 e9bd 3c63 e2be 12de f23d
00000330: a28c e23c 0e49 9dbe 66f5 f53c ccf6 d3bd
00000340: b3d4 4dbe 4236 29be 962f c43e 08b8 dfbe
00000350: bff5 d6be c95b 08be b905 593e 0fce 963d
00000360: 856b b6bd c915 63be 8c35 51bc 8591 47bc
00000370: be37 d93e 81ee 893c 41e2 babe 6144 bebe
00000380: 1f81 b5be 2e3f 873e 1ba7 5b3e 18f3 9a3d
00000390: b33c 8dbe bb2f 6bbf b5e2 1a3e 760b 683e
000003a0: 2a1d 79be 23bf 69bf 233a 89bf 6756 8a3d
000003b0: 437d 0abd 621b 04bf 7d54 83bf 3daa 36bf
000003c0: 0d7e db3e 8bf5 573e 4010 94be ef1c 2cbf
000003d0: 5bc3 48bf a6e2 123d 0399 893c 16d1 16bf
000003e0: 5207 1bbf ebba 6cbf 7e68 293f 9aa0 803f
000003f0: dc55 e23e fb42 813e 4a3b 4abf 6d4a 183f
0.057636127 0.028626444 -0.10861021 -0.124909386 0.30325273 0.47213882 0.044330925 -0.10317151
0.11050581 -0.09671321 0.17279214 -0.014969194 -0.022404654 0.02789088 -0.09509498 0.68009734
0.0044383905 -0.025389025 0.043408602 -0.0829336 0.2561894 0.10999675 -0.045627274 -0.04320312
-0.12757535 1.0902457 -0.13695222 -0.5916386 -0.83065397 -1.1412352 0.59862834 -0.7998801
-1.0199924 -1.4307446 -1.2592463 0.4923843 -0.33824852 -0.46319392 -0.3535844 -0.2984515
0.55281657 0.35672393 -0.59554857 -0.71726316 -0.8566173 -0.766362 0.06598424 -0.9267784
-1.0270882 -0.62541205 -0.28194538 -0.017208802 -0.60766953 -0.25010672 -0.35624436 -0.37590566
-0.33322236 -0.5447163 -0.1376995 -0.4456494 -0.30051515 -0.26983097 -0.46786013 -0.30070937
-0.40314275 -0.19938439 -0.29243162 -0.24704397 -0.4520478 -0.19403376 -0.374203 0.087056406
-0.5204167 -0.2858089 0.44475675 0.09600969 -0.0919859 -0.104692966 0.17849399 0.058423273
0.67814445 0.37104765 0.13409515 0.12949726 0.16075072 0.23437186 0.10165286 -0.0020829106
-0.13452725 -0.45191234 0.27347234 -0.032529987 -0.07007217 0.034776676 -0.43599355 0.19026095
0.2073899 0.1804479 0.1701277 0.16368876 1.2644427 0.12521617 -0.7808111 -0.34247142
-0.8379496 0.6576249 0.7897009 -0.60943514 -0.1696903 -0.10609154 -0.3438125 0.3964793
-1.0594286 -1.2568661 -1.8184445 -0.7180374 -0.46591285 0.16494294 -0.13305737 -1.6416584
-0.36889416 -0.6496018 -0.4386756 0.7704806 -0.94953305 0.90347964 -0.12427224 -0.2166219
-0.17681699 -0.57501733 0.3979083 0.46171942 -0.4825539 -0.24846758 -0.46166644 -0.3041491
-0.056284882 -0.10642514 -0.044190034 -0.0035762864 -0.26905382 -0.28650948 -0.11340971 0.025547585
0.45304966 -0.14891236 0.28875414 0.04883371 -0.14347328 0.1879939 0.061152413 0.04319642
-0.07103644 0.062331274 0.051157612 -0.04395714 0.066610605 -0.07203854 -0.046164684 -0.078910485
-0.090913676 0.060641184 -0.083694845 -0.052601084 -0.02777476 -0.010372369 -0.037590582 -0.025723446
-0.07598536 -0.0884688 -0.07179008 -0.04475242 -0.033779807 -0.07503195 0.08963527 -0.11778027
-0.49266997 -0.31965092 0.010567641 -0.25874314 -0.5127668 -0.32603338 -0.08911989 -0.034300666
-0.015425081 0.84456486 0.2097906 -0.031575665 -0.111194104 -0.29014564 0.03725849 -0.15436475
-0.13656703 -0.08884501 0.07062659 0.00843901 0.15677032 0.6383213 0.2440863 0.22052518
0.3638176 -0.11378011 -0.44216335 0.11858763 0.02765495 -0.307198 0.030024242 -0.10349807
-0.2010067 -0.16524604 0.38317555 -0.43695092 -0.41984364 -0.13316263 0.2119359 0.07363521
-0.089072265 -0.22176279 -0.012769114 -0.012180691 0.4242534 0.01683736 -0.36500743 -0.37161544
-0.35450074 0.2641539 0.21450464 0.07565898 -0.27585372 -0.91869706 0.15125544 0.22660622
-0.24327531 -0.91307276 -1.0720867 0.06754761 -0.033810865 -0.5160428 -1.0260159 -0.71353513
0.42869607 0.21089761 -0.28918648 -0.6723165 -0.7842309 0.03586068 0.016796594 -0.5891279
-0.60558045 -0.92472714 0.6617507 1.0049012 0.4420613 0.25246415 -0.7899672 0.59488565

bias f4 [64]
00000000: 00e6 013f 32dc 63bd 02fe 12be a537 1bbe
00000010: 7839 d3bd bf9b 44bd c5e2 71bd f55d 0fbe
00000020: 1b6b cabd 281d 3dbe 4576 cabd b159 b3be
00000030: bea1 11be 630d 87be 96bc ebbe 6b4f adbe
00000040: e7fd 89be 0835 80be f2d1 a7bd 46b7 a5be
00000050: 9df2 e5bc 2a8a 75be 6279 37be b551 67be
00000060: 86c2 d2bd 4a61 3bbe 720b b7be d27e c3bd
00000070: 3284 8fbe 70f7 a0be 6234 21bd a7db 66be
00000080: cac4 a4bd 0c45 46be 2f81 83bd 44c2 20be
00000090: 0fb4 cdbd cf21 41be 386c 60be 8573 e7be
000000a0: d2aa 82bd 7f81 b7be 939b bfbd d18b a4bd
000000b0: 031e d23e ee84 e5be 423d 8abd c2e8 9abd
000000c0: 4370 9fbd 8ff2 9cbe 1485 9ebd 1b56 72bd
000000d0: cb89 bfbd e6ac 0fbd a734 48be d11a 1fbd
000000e0: e6f6 07be 7872 a9bd 4db0 dcbd 33f4 c7bd
000000f0: fe99 88bd 2850 7dbd e16d 8abe 0730 35bf
0.5074158 -0.055629916 -0.14354709 -0.15157945 -0.10313696 -0.048000094 -0.059054155 -0.14000686
-0.0988371 -0.18468153 -0.098858394 -0.35029367 -0.14221856 -0.263774 -0.46042317 -0.33849654
-0.26951525 -0.2504046 -0.08194341 -0.3236639 -0.028069789 -0.23978487 -0.17917398 -0.22589763
-0.10291009 -0.18298832 -0.3575092 -0.095456734 -0.28030545 -0.3143878 -0.039356597 -0.22544728
-0.08045347 -0.19362277 -0.06421124 -0.15699106 -0.10044109 -0.18860553 -0.21916282 -0.45205322
-0.06380238 -0.35840985 -0.09355845 -0.0803448 0.41038522 -0.4482798 -0.06749965 -0.07563926
-0.07785084 -0.30653808 -0.077402264 -0.059164148 -0.09352454 -0.035077 -0.19551335 -0.038843933
-0.13277778 -0.08273786 -0.10775814 -0.09763374 -0.06669997 -0.06184402 -0.27036956 -0.7077641

weight f4 [12, 3136]
00000000: c96b 8abd 07e2 4cbd 59a3 6f3d a44d 79bd
00000010: 8444 0fbd 1ed6 40bd 8086 c6bd 322c 82bf
00000020: 0883 d4be 5fa2 c4be 6d6e a63e 52d7 ab3e
00000030: d02f a43d 8cf3 4cbd d013 e7be 4468 09bf
00000040: 42b9 35bf d9eb e83e 34fe 1a3e eb30 06bd
00000050: 5b6f 843e c6d4 14be d174 88bd e13f 71bb
00000060: 16ff e83e 659e 923e 8497 00bc 3ef0 80bd
00000070: 9215 15bd c131 fbbe 1da4 253d fd97 033e
00000080: 98d2 463e b8bd a93e 8043 a4be 6b90 073d
00000090: 69b5 6abe 8a02 dc3e ed41 ba3e bb95 183f
000000a0: 233e e13e c5b9 b03e 97d7 75be ccb7 cf3c
000000b0: a080 a73e 83d6 82be 9140 843e 28d0 813e
000000c0: 22b4 ac3e 0eca 7e3d 4d72 883d 935d 603d
000000d0: b5f8 673d 342c 4f3d c434 9a3d a6a2 803d
000000e0: f628 5d3d cd57 3c3d 2a06 793d 4a74 343d
000000f0: 2237 8f3d 9e74 603d 274d 293d d601 383d
00000100: 679c 993d 1812 543d 27ce 5e3d 9b21 383d
00000110: 3f27 483d 814c 633d 7511 883d ff22 533d
00000120: 8d82 733d 472c 5f3d bc91 873d 58c8 293d
00000130: 2e6d 5d3d 6dcf 473d 9d3d 733d d35d 453d
00000140: e88a 723d d665 643d a7b8 773d 6fc7 6d3d
00000150: 3e7a 7b3d 12e6 453d f458 673d c140 953d
00000160: 59c7 5d3d 35d2 583d 8893 813d f784 733d
00000170: 67ee 713d 3848 773d 7095 583d fd25 5b3d
00000180: f292 933d 5ae8 463d 31af 68be c85f 46be
00000190: 390f a33b 7e7e 55be ef1b 83be 8106 7bbe
000001a0: d9c8 07be 5838 29be e7a6 61bd e3f1 3d3d
000001b0: 8bb8 82be 999a 64bd 076a 7bbe 8974 fdba
000001c0: ce6c c9bd 6805 e4bd 585a 39bd 7e34 fbbd
000001d0: 62da b9bd ba55 48be fcd3 18bb a2d1 5ebe
000001e0: 4cfe 2dbe 567b f6bd 9a23 fdbd b999 42be
000001f0: 0be5 31be 5db3 08bd a50b 71be 1e09 7abe
00000200: 8537 4abe da5a 6fbe 7df3 55be b971 86be
00000210: 61c3 b53d 618c ddbd f01a dbbd d577 0ebe
00000220: 5cf1 72be b25c 58be 096d 90be 62e4 3d3d
00000230: e827 6cbe 7b47 673c 22cb 54bd 96a1 75bd
00000240: 4c27 ac3c d61d 30be daf5 cbbc b4a8 91bd
00000250: c7c7 95bd f96e 40bd d1ed 81bd 6555 69bd
00000260: 9af0 8dbd 3747 dbbc c7fb 8dbd becd 87bd
00000270: 58aa 99bd 7f44 9dbd 31a2 40bd a83c 63bd
00000280: 33b2 90bd 969e 833d be0f 9bbd 24e6 9cbd
00000290: eef3 86bd 6408 62bd 958c 85bd f2dc 85bd
000002a0: 9eba 823d a1b2 75bd 2a0a 50bd 1757 35bd
000002b0: a347 7bbd e233 53bd df41 45bd 8dbf 663d
000002c0: 1180 6cbd 3af1 6bbd 94de 58bd 247c 87bd
000002d0: 4e01 86bd d447 87bd c1f0 943d 3e18 9ebd
000002e0: f36a 37bd 6f4e 84bd 9c4b 66bd 4a63 89bd
000002f0: 57bc 3dbd d015 4cbd 6e84 80bd 9418 96bd
00000300: cb71 4fbd d2ee 45bd 8234 62bd 0a22 82bd
00000310: 6499 6c3d ed56 983d a02c 4c3d c89d 893d
00000320: 49c6 503d 8b98 3d3d b400 843d 8fe2 783d
00000330: fb08 3c3d 036f 313d 054d 7d3d 1c87 0c3d
00000340: c158 123d 0b55 5e3d 69f8 663d 5a65 633d
00000350: d923 5e3d 2162 0a3d 8f64 2b3d 7a45 313d
00000360: b429 4f3d cdbd 8d3d f587 5a3d 7f0a a93d
00000370: 3b05 753d c057 903d bc82 813d a21b 513d
00000380: d582 383d 2bef 1f3d 19f8 5e3d 2f5d 963d
00000390: cedf 863d 78d1 083d 528a 843d 824a 5e3d
000003a0: 7609 8b3d 0147 6d3d b82c 763d 6849 ae3d
000003b0: e5eb 723d e595 913d 546a 783d 9d34 7e3d
000003c0: a0e7 9a3d 9eb6 8c3d d821 2f3d 51bd 3e3d
000003d0: 204c 453d ab18 4d3d 63a6 683d 3ed8 8c3d
000003e0: a7ea 823d ad4a 653d e29c a93d 37f4 7b3d
000003f0: 990c 8d3d 88d2 393d 7121 3e3d b055 6d3d
-0.0675884 -0.050020244 0.05850539 -0.06086506 -0.03497745 -0.047079198 -0.096936226 -1.0169737
-0.4150622 -0.3840513 0.32506123 0.33562714 0.08016932 -0.050036952 -0.45132303 -0.5367472
-0.70985806 0.45492437 0.15136033 -0.032761496 0.25866207 -0.14534292 -0.06662906 -0.0036811756
0.45507115 0.2863647 -0.007848624 -0.062958226 -0.036397524 -0.49061397 0.040439714 0.12850948
0.19416273 0.33152556 -0.32082748 0.033096712 -0.22920765 0.42970687 0.36378422 0.5960347
0.4399272 0.3451673 -0.24008022 0.025356196 0.3271532 -0.25554284 0.2583051 0.25354123
0.3373118 0.062204413 0.06662426 0.05477674 0.05663367 0.050579265 0.075295955 0.06281023
0.05399414 0.04598217 0.060796894 0.044056214 0.069929376 0.054798715 0.041333344 0.044923626
0.075005345 0.051775068 0.05439582 0.044953924 0.048865553 0.05549288 0.06643955 0.051547047
0.059450675 0.054485586 0.066195935 0.04145083 0.0540592 0.0487818 0.05938493 0.04818518
0.059214503 0.05576118 0.060478833 0.058051523 0.061395876 0.048315115 0.056481317 0.072877415
0.05414519 0.052934844 0.063269675 0.059452977 0.05906525 0.060371608 0.05287689 0.053503025
0.07205762 0.04856143 -0.2272308 -0.19372475 0.00497618 -0.20849034 -0.2560725 -0.245142
-0.13260211 -0.165254 -0.05509081 0.04637326 -0.2553142 -0.0558115 -0.24552165 -0.0019337098
-0.09835206 -0.11133844 -0.045252174 -0.122658715 -0.09074856 -0.19563952 -0.0023319712 -0.21759656
-0.16991538 -0.12035243 -0.12360306 -0.19003953 -0.17372529 -0.03337418 -0.23539598 -0.2441754
-0.19747742 -0.23374501 -0.20893665 -0.26258639 0.08875156 -0.10817791 -0.10698497 -0.139129
-0.23724884 -0.2112911 -0.28208187 0.04636038 -0.23062098 0.014116163 -0.051951535 -0.059968553
0.021014832 -0.17198882 -0.024897505 -0.07112256 -0.07313495 -0.04698083 -0.06344188 -0.056966204
-0.06930657 -0.026767356 -0.06932788 -0.06631039 -0.075031936 -0.0767908 -0.047029678 -0.05547777
-0.07065239 0.06426732 -0.07571362 -0.07661083 -0.06589495 -0.055183783 -0.065209545 -0.065362826
0.06383251 -0.059984807 -0.050790943 -0.04427251 -0.061347615 -0.05156315 -0.048158523 0.05633502
-0.05773932 -0.0576031 -0.052946642 -0.06615475 -0.065432176 -0.06605497 0.07272483 -0.077194676
-0.04477973 -0.064602725 -0.05622445 -0.06708391 -0.046322193 -0.04982549 -0.06275259 -0.07328907
-0.05064563 -0.04832346 -0.055225857 -0.06354149 0.057763472 0.07438455 0.049847245 0.067195475
0.05097035 0.046288054 0.064454466 0.060762938 0.045907002 0.04331876 0.06184103 0.034308538
0.035729174 0.054280322 0.056389246 0.05551658 0.054233406 0.03378499 0.041843947 0.04327915
0.05057688 0.06920967 0.053352315 0.08253955 0.05981944 0.07047987 0.06323764 0.051051743
0.045046646 0.039046448 0.054435823 0.07341992 0.06585656 0.03340289 0.06471695 0.054270275
0.06788914 0.057929043 0.06010124 0.08510095 0.059306998 0.07108668 0.060648277 0.062061895
0.0756371 0.06870769 0.042756885 0.046567265 0.0481683 0.050072353 0.056799304 0.068771824
0.06392413 0.05597942 0.08281876 0.0615122 0.068871684 0.045366794 0.04641861 0.057943046

bias f4 [12]
00000000: ddc5 68be fe2a 243e defc ad3c 3dae 443e
00000010: 0792 65bd ac8a 2c3d 3aea aa3e ce32 4f3e
00000020: 1182 cdbd 1599 86be 95cd 083e aec7 20be
-0.22731729 0.16032025 0.02123874 0.19207092 -0.056047466 0.042124435 0.33381826 0.20234224
-0.10034574 -0.26288667 0.13359673 -0.15701172
