PJ1/CNN/Pytorch_based_CNN_0.001_32_20.pth (torch, 364900 bytes, 6 tensors)

weight f4 [32, 1, 5, 5]
00000000: 1af6 a6bd db39 fc3d 7658 613d f7d4 40bd
00000010: abb3 8fbc 8054 3c3e c4cf 603e a417 b63d
00000020: b49b 643e d269 cc3d f040 8fbe 69d9 9fbe
00000030: fdc9 6dbe 6106 afbe 1ad3 dabd 309a 11be
00000040: 0aef b43c f09e 65bd 9e36 113e 25a1 9abd
00000050: 47d1 763e ac54 f43d eb7e 633e b86f 88bd
00000060: ffdf 13bb 280b 9a3d 2427 9f3c f1fa b4bd
00000070: 44e4 5cbd 3d03 683d ed45 443e 293b 363d
00000080: f31c dabd f528 a7bd 4a7d 363e afdc b6be
00000090: b1fd bfbe eed7 49be 9862 60be d691 4abe
000000a0: 61cc b93d 2b69 5a3e 291c ec3a 9bd3 083e
000000b0: 7f98 8b3e 4c03 a7bd 88fa 2b3d 4c1e 98bc
000000c0: 7a2c 05be a6d8 9a3b 3690 a73d 930e 243e
000000d0: 6212 5b3d 2b06 b0bd 78bb 513e cb1e 133e
000000e0: fbc0 b6bd 7044 8f3d a5d3 673e 298b 2e3e
000000f0: db40 9bbe 9b0f fbbd 4760 8cbe b055 d6be
00000100: 042d c0be a482 84bd b06a f7bc 698c 013e
00000110: ca9d 043e 2936 f33d 1865 ff3d 6b09 4e3e
00000120: 73cc debd f8a8 d33d 78de 74bb 2b75 87be
00000130: 47eb 693d e112 513e 5c38 f13d fc49 323e
00000140: ecbb cbbe 6cf8 113e a6dc 053e dd7f d53d
00000150: 0ccb 9fbd 1890 91be d7a8 23bc e42a 613e
00000160: e87a bb3d 3e6d 21be b876 c5be b2af 6e3d
00000170: afc6 f9bd 8b62 b83d 724f 333e eca7 d1be
00000180: ac31 e43d 4e28 a03d 3546 823c 7c6b 3e3e
00000190: f17d 86be 3023 18be 64f4 92bc d4db e63d
000001a0: 4a54 023e 4673 673e e331 343e 565e a93d
000001b0: 8547 9d3c 96c9 223d 8eef 343e cbc4 0d3d
000001c0: a567 a33d fc42 563b c1ab 1bbe bbbc 9dbe
000001d0: 8a6d 4dbe 1ff4 bcbe 8a90 9dbe 1c2e 44be
000001e0: 26db 073e 8931 843d 004f 2a3e 39fe f33d
000001f0: 1e85 343e df74 1c3e 6bab 52bc 190c 073e
00000200: c95c fd3b e0a1 1e3e 0657 1a3e 2d32 653d
00000210: 78d4 83bc fe91 513e 4477 67bc fe9a 51be
00000220: 6c7d 49be 48b5 993d f088 47be 13d4 083a
00000230: defa f33d 67d7 2e3e 7545 eabd d8fe bbba
00000240: 938a f2bd d8ec ccbc 248e 283e 9834 f13d
00000250: 8fbb 063d 61d8 733d ee8f 303e 5a58 89bd
00000260: e51f 16bd 4848 e3bd e8d5 fd3d 530c 77be
00000270: e70d 54be 4139 68bd 2aa0 83be 1228 2abc
00000280: 8a02 973d 1aae 093e efd4 523e 95ed b4bd
00000290: 2202 543e 455e 9bbd b5c0 3ebe a34c fc3d
000002a0: 54ab 77be 6669 883c ab7b 54be 04c3 983d
000002b0: 15d8 ad3c b4f8 2fbe 0237 db3d 5af0 76bd
000002c0: a8a7 2f3e 9c3c c43d dd9f 093e c896 5bbe
000002d0: 516a 243e cba9 073e 1406 873d 897a dbbd
000002e0: 5c7c 1cb9 be9f ff3d c794 9f3d 161c c6bc
000002f0: 96de 2a3e c945 74be 23b2 353e 3d82 21bd
00000300: d3d1 e23c b4ba b73d 4858 a4be 2c4a 1ebd
00000310: a1af d33d 400f 1fbd 68b4 93be e258 7bbe
00000320: 3034 7f3e dfa5 9bbd 89c7 433e f498 c4be
00000330: 6364 c53d 27b6 d13c f389 213e 6a10 373e
00000340: 85a7 ddbe d559 083e fdd5 1a3e 5cdd 683d
00000350: a660 ecbd 5da6 9cbe 25f1 ff3d 3e86 6c3e
00000360: 241e 61be dc08 82be 72b5 933d 25f1 473d
00000370: 76f5 25be 1053 aabd f8b1 263e 6063 e6bd
00000380: 040c 55bc f8ce 23be e4d4 743e a903 9d3d
00000390: c315 1cbe 34e2 db3a 4351 1bbe 15ae 833e
000003a0: fb3c 56bc ee30 293e a692 f03d a199 493e
000003b0: 1cad 14bd 7d66 53be db98 743e 9540 1fbe
000003c0: aa57 bd3d 046f 653d df72 2cbe 54c8 9abe
000003d0: 699c 9f3d ad49 243e 190d 893e d200 27be
000003e0: 5497 5abe 73a3 02be 4008 e73d 975a 9f3d
000003f0: 4c61 f83d 3a04 12be 8a2d 2c3e 9b8e 123e
-0.08152409 0.123157226 0.055016004 -0.0470781 -0.017541727 0.18391609 0.21954256 0.08891228
0.22325021 0.09981121 -0.2797923 -0.31220558 -0.23221584 -0.34184554 -0.10684796 -0.14218974
0.022086639 -0.056059778 0.14180991 -0.07550267 0.2410327 0.119302124 0.22216384 -0.06661934
-0.0022563932 0.07521659 0.019427843 -0.08836926 -0.05392863 0.056643713 0.191673 0.044490013
-0.10650053 -0.08162109 0.17821231 -0.35715243 -0.3749824 -0.19711277 -0.2191261 -0.19782194
0.09072185 0.21329181 0.0018013763 0.13361971 0.27264783 -0.08154926 0.041986972 -0.018569134
-0.13005248 0.0047255335 0.08181803 0.16021185 0.053484328 -0.085949264 0.2048167 0.14367215
-0.08923527 0.06995475 0.2263933 0.17045273 -0.30322918 -0.12258836 -0.27417204 -0.4186225
-0.37534344 -0.0647023 -0.03020224 0.12651218 0.12950817 0.118755646 0.12470454 0.2012078
-0.10878839 0.103349626 -0.0037364047 -0.2645658 0.057109144 0.20417358 0.11778328 0.17411035
-0.3979181 0.14254922 0.13072452 0.104247786 -0.078024 -0.28430247 -0.009988985 0.21989018
0.09154302 -0.15764329 -0.38567138 0.058273025 -0.12196099 0.090031706 0.17510775 -0.40948427
0.11142287 0.078201875 0.015902618 0.1859569 -0.2626796 -0.14857173 -0.0179388 0.11272398
0.12727466 0.22602567 0.17597155 0.08269946 0.019199142 0.03974303 0.17669508 0.034611505
0.07978753 0.0032693734 -0.15202238 -0.30808052 -0.20061317 -0.36905 -0.30774337 -0.19158214
0.13267192 0.064547606 0.16631699 0.119137235 0.17628905 0.15278958 -0.012858252 0.13188209
0.007732008 0.15491438 0.1507226 0.055956054 -0.016092524 0.20465848 -0.014127556 -0.20469281
-0.19676751 0.0750528 -0.19485831 0.000521959 0.119130835 0.17074357 -0.11439029 -0.0014342917
-0.11842837 -0.02501528 0.16460472 0.117776096 0.032893714 0.059532527 0.17242405 -0.06706305
-0.03665151 -0.11097771 0.12394315 -0.24125795 -0.20708428 -0.056695227 -0.25708133 -0.01038553
0.07373531 0.1344532 0.2058904 -0.08834378 0.20703939 -0.0758634 -0.186282 0.12319305
-0.2418645 0.01665182 -0.207503 0.07459071 0.0212212 -0.17184716 0.10703851 -0.06028781
0.171538 0.09581873 0.13439889 -0.21444237 0.16056181 0.13248365 0.06592956 -0.10716731
-0.00014923647 0.1248164 0.07792049 -0.024183314 0.16686472 -0.23854746 0.17743735 -0.039430846
0.027687943 0.08971158 -0.32098603 -0.038644955 0.10336233 -0.038832903 -0.28848577 -0.24545625
0.24922252 -0.07599997 0.19119085 -0.38397944 0.09638288 0.025599552 0.1577528 0.17877355
-0.4329187 0.13315518 0.15120693 0.05685173 -0.11541872 -0.30595675 0.124971665 0.23098084
-0.21984154 -0.25397384 0.07212342 0.048813958 -0.16206917 -0.08316624 0.16278827 -0.11249423
-0.013003353 -0.15996921 0.23909336 0.07666714 -0.15242676 0.0016775788 -0.15167718 0.25718752
-0.013076062 0.16522571 0.11746721 0.19687511 -0.036297902 -0.20644565 0.23886435 -0.1555198
0.09245236 0.056014076 -0.16840695 -0.30230963 0.07793505 0.1604373 0.26767805 -0.16308907
-0.2134679 -0.12757663 0.112808704 0.077809505 0.12127933 -0.14259425 0.16814247 0.14312212

bias f4 [32]
00000000: dcc8 b7bd 80a4 303e c301 a9bd 23d3 64bd
00000010: 5ebc 8f3d cc6f 6abe 9a76 893e f6f0 c13b
00000020: a1d7 073d 6ab0 dcbd e4bd c1bd b543 af3d
00000030: a2f0 dc3d 1732 793e 9989 853e 12f8 4dbb
00000040: 84c5 d33d 2356 b7bb ea10 843e d4ac 643e
00000050: e35a a43b d98d bd3d b794 543e c18a 573e
00000060: 8922 003e 7f5c 8abd 1daa c1ba e18f c93d
00000070: ba26 64be 3eaf eabd bac5 8c3d f062 a43d
-0.08973858 0.17250252 -0.08252289 -0.05586542 0.0701835 -0.2289421 0.26848298 0.0059186174
0.033164624 -0.10775836 -0.09460047 0.08557836 0.107880846 0.24335514 0.2608154 -0.003142838
0.103404075 -0.005594985 0.25794154 0.22331554 0.0050157174 0.09255571 0.20759855 0.21049024
0.12513174 -0.067559235 -0.0014775429 0.09841896 -0.22280398 -0.11459206 0.06873651 0.08026683

weight f4 [64, 32, 5, 5]
00000000: 9f00 2bbb 52d1 b43b 80e3 b53b 638a b93c
00000010: 5625 0e3d b010 a4bc 0054 bebc 015b 6bbd
00000020: 3d9c 3e3c a9b5 67bd 2f32 3f3c 1e76 8c3c
00000030: 9699 f23c 5bea 443b 65c0 fa3b bb01 c2bc
00000040: 4082 9c3c 685e 403c 2498 9dbc f959 a8bc
00000050: da15 23bc 3e0a 0e3b 208f 413c 71a2 bc3c
00000060: cffb b53b 14cd a13b b08c 14bd fca0 1dbb
00000070: 5e10 b13c 3654 fbbc 2944 0f3c a936 123d
00000080: f1b9 e2bb 41fd 063d 6562 0c3c 40b0 da3c
00000090: 2074 bc3a 069d 70bc 616f 4fbc 67c5 a2bc
000000a0: 26a5 1bbc 36ee 0e3d fe53 293a 9217 173c
000000b0: 5047 063d 8bd2 5a3c c42f 1cbc c198 02bd
000000c0: 7948 dfbb 333e ac3c b300 edbc 845f 333c
000000d0: 5c1a 16bc 3f55 23bd 50fe 47bc fc70 713c
000000e0: b69c 073d d728 113c 0401 3ebc e0b9 c03c
000000f0: bb1e 0abc d125 1ebd e8ee 973c eafc 0fbd
00000100: dd10 d93c ed53 e7bc 11ce 213d ee39 eb3c
00000110: 2524 9dbc 9944 8dbc 40e1 0fbd 0d5d f53b
00000120: f9a2 693c dcf5 14bc e0c3 05bc 15f3 d03c
00000130: 80cb bdbc 3404 38bc 3bdb a23c a1f7 23bd
00000140: 5bf9 0e3d 886e 0fbd 743f 2cb7 960a cdbc
00000150: 93b6 70bb ec8e 9cbc 9fef 15bd 9151 17bd
00000160: 0377 be3b 6581 e1bc 0117 4cbc 0db3 96bc
00000170: 5dfe a9bc 589e b0bc f7f1 ccbc 9437 2dbc
00000180: e0ce e8bb 143e bd3c 9c29 22bc 99f3 883c
00000190: 84f0 57bc 176d e2bc c91b 693c d17d 443b
000001a0: bcd8 813c 8855 cbbc 4d1c 883c 1d1b 9fbc
000001b0: 43f8 0839 4adf f93c 1fe7 d2bc 9090 da3c
000001c0: 33a9 623c 479a 80bb 64a3 8e3c 5159 b13a
000001d0: 4e14 f7bb 6bc9 8b3c 2189 dabc 4aec 67bc
000001e0: 7f49 bcbc 6058 e6bc c5b6 12bb 48a3 843c
000001f0: 690c c6bc b9b8 7c3b e529 2cbc 121c c1bc
00000200: 4822 f9bc 9cdc da3a c259 5cbc 768e 0ebd
00000210: 9d52 14bc 6045 25bc 573e 6b3c bd99 24bc
00000220: 27ff 17bc e729 0dbc e09b 663b c2b1 8d3c
00000230: 7262 5fba 76ba 193d 28c3 fabc 9dd7 7d3c
00000240: c678 283c e8ee 633c c7c1 a83c c9cf 01bd
00000250: 371c e13a dc49 c23c 4324 d5bc 8dec 6abb
00000260: 2a12 a73c 75ef c03c 25c2 013d 8f78 e4bb
00000270: 0d06 a93c 5001 02bc 6daa 7ebc ccde 68bc
00000280: 8cfe 7bbc bfc3 dc3c cb35 ed3c c754 633c
00000290: 3ae5 c2bc fbb6 0ebc 3449 d1bb 0cd5 083d
000002a0: 1a4f 17bb 5440 18bd 7586 cbbc 3b9f 1fbd
000002b0: d42b 213c 9533 4fbc b5ca d339 796e 4b3b
000002c0: 48f0 0abd b213 e7bc 09fe ddbc 2f54 06bb
000002d0: 1d8e 5abc ff0f 7d3c 7fe4 543c 19f3 c7bc
000002e0: ac48 4bbb 61a0 19bd 2083 21bd 1944 63bc
000002f0: c364 08bd aada fabc 14d7 93bb 4fbf 993c
00000300: 84ff f2bc 002b 493c 8324 25bd 0e9f 7bbc
00000310: 0e28 033d 3c9a c63c 9594 823c 7482 a33c
00000320: de64 0d3c 3882 8e3c a80f e53c a4ff e93c
00000330: 724d 573b e900 503b 27bb 2dbb 156d 23bd
00000340: b1c9 bbbc 983a 03bc 471b 8cbc 4d55 2cbd
00000350: dcb6 39bc 3ef7 e4bc 8775 19bc 47f2 01bd
00000360: 6d4c aebc 31a9 e3bc 5d1f b9bc 71b7 bb3c
00000370: 77bf 893c d37b 35bc e263 043d a5fc f13b
00000380: 5eb6 813c 9431 ee3c 286f 7cbc b14f 723b
00000390: 73bc db3c 56a9 813b 92ba c6bc 01b8 3abc
000003a0: 0e86 61bb d07a d43c b205 8abc 293f 83bc
000003b0: cb06 a1bc 9262 f63c d59e ec3b 906d 0d3c
000003c0: 743a 28bd 98b2 c63c 9254 0a3c 4216 d2bc
000003d0: 16d4 b53c 80dd 4cbc b006 6dbd 8fda 553c
000003e0: f88a a53c 6942 aebc c95e 0a3c 5952 4e3c
000003f0: 5e68 203b d24f bd3c 2ac9 0ebd f124 7b3c
-0.00260929 0.005518117 0.0055508018 0.022648996 0.034703575 -0.020027488 -0.023233414 -0.057459835
0.01163393 -0.05656973 0.01166968 0.017146166 0.029614251 0.0030046913 0.0076523297 -0.023682466
0.019105077 0.011741258 -0.019237585 -0.020550715 -0.00995394 0.0021673585 0.011813909 0.023026677
0.0055536996 0.0049377773 -0.036266983 -0.0024052253 0.02161425 -0.030679803 0.008744278 0.03569666
-0.0069191386 0.032956365 0.008568381 0.02669537 0.001437787 -0.014685875 -0.012660832 -0.01986952
-0.009499824 0.034895144 0.0006459354 0.009221928 0.032782853 0.013355861 -0.009532873 -0.03188396
-0.0068140593 0.021025753 -0.028930997 0.010948066 -0.009161558 -0.03987622 -0.012206629 0.01473641
0.033108436 0.008859835 -0.011596922 0.023526132 -0.008430178 -0.038610283 0.018546537 -0.035153307
0.026497299 -0.028238261 0.03950316 0.028714146 -0.019182274 -0.017244624 -0.035126925 0.007487899
0.014260047 -0.009091821 -0.008164376 0.025506536 -0.023168325 -0.011231471 0.019879928 -0.04003108
0.034905773 -0.03501752 -1.0266773e-05 -0.025029462 -0.0036729916 -0.01911112 -0.036605474 -0.036943022
0.005812527 -0.02752752 -0.012456656 -0.018395925 -0.020751173 -0.02155988 -0.025017722 -0.010572333
-0.0071047395 0.02310089 -0.009897616 0.016717719 -0.013179902 -0.027639909 0.014227816 0.002998222
0.015850417 -0.024821058 0.016615057 -0.019422108 0.00013062455 0.03050198 -0.025744973 0.02668026
0.013834286 -0.0039246413 0.017411895 0.0013530647 -0.0075402623 0.017063817 -0.026676716 -0.014155457
-0.022984264 -0.028118312 -0.002238677 0.01619114 -0.02417584 0.0038562252 -0.010508035 -0.023572955
-0.030411854 0.0016697827 -0.013449134 -0.03480383 -0.0090529 -0.010087341 0.014358125 -0.01004642
-0.009277142 -0.008615947 0.0035188124 0.017296676 -0.00085214444 0.03753134 -0.030610636 0.015493301
0.010282701 0.01391194 0.020600213 -0.0316923 0.0017174546 0.02371686 -0.026018267 -0.0035846562
0.020394403 0.023551682 0.03167929 -0.0069723795 0.020632768 -0.007934883 -0.015543562 -0.014213275
-0.015380513 0.026948808 0.028956315 0.013875193 -0.023790944 -0.008710618 -0.0063869003 0.033406302
-0.002308792 -0.037170723 -0.024844388 -0.038970213 0.00983711 -0.012646575 0.00040396085 0.0031041189
-0.033920556 -0.028207634 -0.027098672 -0.0020496955 -0.0133395465 0.015445708 0.012993931 -0.02440791
-0.0031018658 -0.037506465 -0.03943169 -0.013871216 -0.03329922 -0.030621845 -0.0045117233 0.01876798
-0.029662855 0.012278318 -0.040318023 -0.015357746 0.03202062 0.024243467 0.01593999 0.019959666
0.008630006 0.017396078 0.027961567 0.028564282 0.0032852557 0.0031738824 -0.0026509257 -0.03989895
-0.022923322 -0.008009575 -0.01710285 -0.042073537 -0.011335101 -0.027949926 -0.0093664 -0.031725194
-0.021276677 -0.027790638 -0.022597963 0.02291462 0.01681493 -0.011076885 0.03232182 0.007384854
0.01583403 0.029076375 -0.015407361 0.003697377 0.026823258 0.003956954 -0.024258886 -0.011396409
-0.0034412178 0.025937468 -0.016848419 -0.016021328 -0.01965656 0.030076299 0.0072210827 0.008632079
-0.04107137 0.024255082 0.008443015 -0.025645379 0.022195857 -0.012503982 -0.057867706 0.013052597
0.020207867 -0.021271901 0.00844545 0.012592875 0.002447627 0.02310935 -0.034859814 0.015328632

bias f4 [64]
00000000: be48 4abc f0da adbc 8258 03bd 020a 74bc
00000010: 298c 08bc aba7 31bc be65 2abd 68a2 7f3c
00000020: 0eba 4dbc 797a d8bb a130 af3c 5881 87bc
00000030: e7e2 fdbc dc04 733b 46a0 01bd 51fb c8bc
00000040: c87c 2a3c 1a54 1dbd 9131 9a3c 8c52 d5bb
00000050: 9888 55bd dfe4 dc3c 1da0 85bc 2fc2 603c
00000060: 0a34 183c fb8c 23bd bae3 61bc 6e34 983c
00000070: 3aea 9dbb 5071 fb3c 2034 97bc 6b20 d1bb
00000080: 620f 7c3c 1512 a6bb 4d5b 0abd 2155 ddba
00000090: 2365 f6bc b57d babc 2b6c d23c 5c47 94bb
000000a0: c1d8 d7bb 6e76 eb3c c72f 803c 38fc b73b
000000b0: 9f3b 033c 7f01 7b3c c7d2 2e3c 6140 9abc
000000c0: 5a64 4ebc 2df4 54b9 8ef8 86bb d1de 64bc
000000d0: f279 a03c 3e21 41bc 3c91 01bd ff12 423c
000000e0: b7b5 0a3d 2723 653d 539c 87bd 05a0 863c
000000f0: dca5 c4bc 7cae 37bb 875e 86bd 44d8 623b
-0.012346445 -0.021222562 -0.03206683 -0.014894964 -0.008334198 -0.010843198 -0.041600935 0.0156026855
-0.012556566 -0.0066063968 0.021385493 -0.016541168 -0.030991985 0.0037081754 -0.03164699 -0.0245339
0.010405727 -0.038410284 0.018822463 -0.0065100845 -0.05213222 0.026964603 -0.0163117 0.013718172
0.009289751 -0.03992937 -0.013787204 0.018579688 -0.0048191817 0.03069368 -0.018457472 -0.0063820384
0.015384527 -0.0050680735 -0.033778477 -0.0016886332 -0.030077523 -0.02276502 0.025686344 -0.0045251083
-0.0065871184 0.028742995 0.015647782 0.0056147836 0.00800982 0.015320181 0.01067037 -0.018829526
-0.012597168 -0.00020308858 -0.0041189855 -0.013969139 0.019589398 -0.011787711 -0.031632647 0.011845349
0.033864703 0.055941727 -0.06621613 0.016433725 -0.02400487 -0.0028027585 -0.065609984 0.0034613768

weight f4 [12, 3136]
00000000: d6d2 95bb 1666 efbb 0255 b83b f2ac 9aba
00000010: 792d 543c e66a 9d3c 6622 573c d55e c23b
00000020: 615a 52bc 8bf3 84bc 2295 95bc 00aa b8bb
00000030: 5bed 79bc d130 8e3c fe7a 03bc 67db cdbb
00000040: 24e6 b2bc d64c aa3c 3dcb b13c b30c ae3c
00000050: d63f 393c 5216 4abb be71 e3bb 9e50 17bc
00000060: 286b 663b 9e18 7b3c f046 6c3b a887 103b
00000070: bfaa 203c 55ac f83b 4a29 0e3c 98be b23c
00000080: 542a 8e3c 1b0b acba d062 a43a 0998 023c
00000090: 81e3 bdbc 0b87 85bc a728 eebb 32fe 40bb
000000a0: 514e 733b f23b b1bb 6853 79bc b0fd d73a
000000b0: d65d 5ebb 3193 503b b467 92bc 5113 a3bc
000000c0: 00f3 0eba b2da 3c3c a192 e73b 0664 dabb
000000d0: c2c3 143c 81c6 953b 915b 89bb 379a 9abb
000000e0: a2d7 dd3b bd47 9e3b fe78 6c3c 580a a2bb
000000f0: fa9f 693c a860 47bc 6a84 b2bb 722b 18bc
00000100: bfbd a83b b13d f0bb 1384 45bc 398f 94bc
00000110: 6c74 32bc 76a7 0abc 7a4a 4a3c cdc5 af3b
00000120: 5b2a c13c 716d 46bc 30eb 98bc 7f84 8abc
00000130: 448a 1cb9 072e 6d3c 9069 17bc 2ab3 c2bb
00000140: 54f6 603c 66cc a7bc 6e41 27bc d349 ffbb
00000150: 983a ebbb b837 5ebc a8e0 8f3c 7bff d73b
00000160: ea4b febb a1d1 42bb 3171 e03b 1ed6 bd3b
00000170: d548 37bc 8c1f 5c3a e64f b839 3f41 bfbb
00000180: 10f7 b4bb 3ab8 cc3c 5d6e 12bb d1f1 353b
00000190: b966 573c 02b0 bcba 5698 32bc 939c 8c3c
000001a0: 508d 703a 9395 503c 1cf6 0f3b ddcc 8bbc
000001b0: 15e4 9f3c ea79 9a3c 615f 0f3c 7033 03bc
000001c0: 1a3c 643b 0fcf 1e3c 51f2 ae3b 1766 053c
000001d0: 7c91 cb3c 2adb 823b 99ed 0abc 543b 28bc
000001e0: 6292 dbbb 27f4 3f3c 6672 1f3c f573 3e3c
000001f0: 67b2 3a3c ea00 23bc cd68 6e3b 6475 2c3c
00000200: 0633 a4bc 6937 7b3a 7bb3 8c3b 1e5d 233c
00000210: 25a2 833b cc68 6e3c 4917 47bc ae1a 97bc
00000220: 2b68 25bc 930f 473b be58 803c e1d2 0cbc
00000230: 5ccd ffbb de0e f4bb dab7 4f3c 4f08 933c
00000240: 1a26 603c 56b1 5d3c 445e deba cb5b 02bc
00000250: 4e8e 823c e646 ccba ff5a 0b3b 35ac 3fbb
00000260: 27da ee3b 3ff4 43bb 718a 85bc 799a 683b
00000270: 7e85 52bb cbec 043c 0746 983a eb85 04bc
00000280: 2c7d ccba bedb 193a 98e8 993c ed36 6dba
00000290: ac06 adbc 35c9 fe3b c10d f1ba b979 ac38
000002a0: 7611 78bc 44fd 923c 04fb 0d3b 316c 96bc
000002b0: 1fe0 89bb d672 e2bb f80c 7dbb d20c 1cbc
000002c0: 37ba 1bbb 26ac 8b3a 18cf b8bc d47b aa3c
000002d0: 8248 f8bb f528 8e3b d745 69bc 7cb4 2a3c
000002e0: 4ec1 a7bb b781 ba3c 0c12 43bb 9cba 9d3c
000002f0: 176b 8eba f590 5abc 389b 80bc 67fa 08bc
00000300: 78d1 3fbb 3073 843a 1c0d 5dbb e6ef 06bb
00000310: 80d6 adba 40da 62bb 24aa 8abb 8071 18b9
00000320: a6ee 563c 98c9 64bc 61c8 f4bb d373 1cbc
00000330: a049 94bb a21a 753c 8e2a 7e3c e43c 033c
00000340: e3ae 44bc 0867 54bc 7eba 333c 52e6 eebb
00000350: c0c9 2fbc 2074 d1bb 5930 863c b075 5fbc
00000360: 40de df3b 60cd b8bb 066a 713c 13a7 21bc
00000370: 6ecd 133c acc8 23bc 4e41 0dbc df97 c63b
00000380: ae68 4d3c 2659 253c 5cda 83bb f05a 0bbb
00000390: c05a 103c 2acb 10bc 1115 693b a13b 803c
000003a0: 2e55 25bc 4016 f7bb 10ab 423c 1ec7 6c3c
000003b0: 4075 663b e735 f23b 2c8b 85bc b186 7bbc
000003c0: ae55 2ebc cc37 07bc e5fb 1cbc a865 09bb
000003d0: 288a 9abc c0b4 78bd 0f21 893c 4c04 f6bc
000003e0: 6b08 8e3d 0d9d 2b3d b2d0 37bc f175 063d
000003f0: cbb3 19bc 72d5 59ba 1fa1 0cbd 3f87 953c
-0.0045722527 -0.0073058708 0.005625368 -0.0011800809 0.012950295 0.019216012 0.01313076 0.005931715
-0.012838931 -0.016229412 -0.018259589 -0.0056355 -0.015254344 0.017357262 -0.008024929 -0.0062822583
-0.021838255 0.020788591 0.021703357 0.02124629 0.011306724 -0.0030836058 -0.0069410494 -0.009235529
0.0035159085 0.015325693 0.0036053024 0.0022053514 0.009806334 0.007588903 0.008676836 0.021819398
0.017354168 -0.0013125868 0.0012541655 0.007970818 -0.023179771 -0.016299745 -0.0072680297 -0.0029448387
0.0037125538 -0.0054087574 -0.0152176395 0.0016478803 -0.0033930442 0.0031826014 -0.017871715 -0.019906672
-0.000545308 0.01152675 0.00706704 -0.0066647558 0.009079875 0.0045707827 -0.004191824 -0.004718091
0.00677009 0.004830329 0.014433144 -0.0049450807 0.014259333 -0.012169041 -0.005447914 -0.009287702
0.0051495726 -0.007331573 -0.012055415 -0.0181347 -0.010892015 -0.008462777 0.012346858 0.005364156
0.023579767 -0.012111054 -0.018666834 -0.016908882 -0.00014928827 0.014476306 -0.009241477 -0.005941768
0.013730604 -0.020483207 -0.010208471 -0.007790783 -0.007178616 -0.013563089 0.01756318 0.006591735
-0.0077605145 -0.0029727 0.006849431 0.005793347 -0.011186798 0.0008397035 0.00035154744 -0.0058366354
-0.005522616 0.02499019 -0.0022343614 0.0027762542 0.01314705 -0.0014395716 -0.0109005775 0.017164504
0.00091763306 0.012730974 0.002196676 -0.01706546 0.019517938 0.018856961 0.008750767 -0.008007869
0.0034825862 0.009692921 0.005338945 0.008142016 0.024849646 0.0039934115 -0.008479499 -0.010268051
-0.0067008 0.011715925 0.009731865 0.011624326 0.0113950735 -0.009948948 0.0036378384 0.010526035
-0.020043861 0.0009583147 0.0042938567 0.009970931 0.004017132 0.014551353 -0.012151548 -0.018445339
-0.010095636 0.0030374273 0.015667316 -0.008595199 -0.007806463 -0.0074480614 0.012678111 0.017948298
0.013680959 0.01353105 -0.0016965349 -0.007956455 0.015936997 -0.0015585094 0.0021263955 -0.002924693
0.0072891894 -0.002990022 -0.016301366 0.0035492464 -0.0032123025 0.0081130965 0.001161755 -0.008088569
-0.0015601269 0.0005869231 0.018787667 -0.0009049017 -0.021121345 0.0077754506 -0.001839094 8.224272e-05
-0.015140882 0.017943032 0.002166451 -0.018362137 -0.0042076255 -0.006910662 -0.0038612466 -0.009524541
-0.0023762116 0.0010656163 -0.022559687 0.020810999 -0.007577003 0.0043383786 -0.0142378425 0.010419007
-0.0051194793 0.022766931 -0.0029765395 0.019254021 -0.0010865655 -0.0133402245 -0.015699014 -0.008360482
-0.002926914 0.0010105129 -0.0033729738 -0.0020589768 -0.0013262779 -0.003461495 -0.004231708 -0.00014538132
0.013118422 -0.013964079 -0.007470176 -0.009549099 -0.0045253783 0.014959963 0.0155130755 0.008010123
-0.012004587 -0.012964018 0.010969756 -0.00729064 -0.010729253 -0.006392017 0.016380476 -0.013638899
0.006831914 -0.005639717 0.014734751 -0.009866494 0.009021146 -0.009996574 -0.008621527 0.006060585
0.012537165 0.010092055 -0.004023833 -0.002126392 0.008810699 -0.008837501 0.0035565535 0.015653433
-0.010091109 -0.007540494 0.011881605 0.01445177 0.0035165101 0.0073916796 -0.016301714 -0.015351937
-0.010640545 -0.008253049 -0.009581541 -0.0020965133 -0.018864706 -0.06071925 0.016739396 -0.030031346
0.06935199 0.041897822 -0.01121919 0.03282732 -0.009381245 -0.0008309699 -0.034333345 0.018252967

bias f4 [12]
00000000: 8901 20bd 3c66 cf3a a165 27bc d8ea e83c
00000010: 9b9f 333c 0fc3 143d ba52 62bb 76c2 b33b
00000020: 8c4a 39bc 552e e4bc 4c32 20bc 46e7 04bd
-0.039063964 0.0015823315 -0.010217101 0.028432295 0.010963346 0.036318835 -0.0034534172 0.005485828
-0.011309277 -0.027854124 -0.009777617 -0.032447122
