PJ1/CNN/Pytorch_based_CNN_0.001_32_40.pth (torch, 364900 bytes, 6 tensors)

weight f4 [32, 1, 5, 5]
0	0x3ced3d48	0.028959885
1	0x3e1affe6	0.1513668
2	0x3d740839	0.059578154
3	0x3e6962ca	0.22791591
4	0x3e1e34d1	0.15449835
5	0x3d96745c	0.073464125
6	0xbe0ab68a	-0.13546196
7	0x3d515f5f	0.051116344
8	0xbdc6b6a2	-0.09702803
9	0xbe56dad3	-0.20981912
10	0x3e6c1278	0.2305392
11	0x3e950d9d	0.2911195
12	0xbe84a5a8	-0.25907636
13	0xbe841c06	-0.2580263
14	0xbd40cb3c	-0.04706882
15	0xbe76046a	-0.24025121
16	0xbe9a63b4	-0.30154192
17	0x3c40e210	0.0117726475
18	0x3e0158a3	0.12631468
19	0xbcb7c6d9	-0.022433685
20	0xbe2d06d7	-0.1689714
21	0xbd71e1da	-0.05905328
22	0x3e1098fd	0.1412086
23	0x3e821dbd	0.25413314
24	0x3d56107d	0.05226182
25	0xbe0a95de	-0.13533732
26	0x3e14d816	0.14535555
27	0x3e721ac0	0.23643017
28	0xbe50e642	-0.20400336
29	0xbd4719ea	-0.048608698
30	0x3e040277	0.12891565
31	0x3d944831	0.07240332
32	0xbdd210dc	-0.10257122
33	0xbc3c3c56	-0.011488995
34	0xbd1f94ef	-0.038960394
35	0x3de2f7aa	0.110823944
36	0xbc753a7b	-0.014967556
37	0xbe99fa95	-0.3007399
38	0xbe3c9225	-0.18415125
39	0x3e3b36c1	0.18282606
40	0xbe59596d	-0.2122552
41	0xbeb79cdd	-0.35861865
42	0xbe0322d2	-0.12806252
43	0xbded26c6	-0.11579661
44	0x3e01604d	0.12634392
45	0x3b29863a	0.0025867359
46	0x3dedc403	0.11609652
47	0x3e4b3463	0.19844203
48	0x3e63aefb	0.22234719
49	0xbd6228ab	-0.055214565
50	0xbd935e02	-0.07195665
51	0x3e15729f	0.14594506
52	0x3dec0fd1	0.11526454
53	0xbdb6b009	-0.08920295
54	0x3de6b106	0.11264233
55	0x3d7d6599	0.06186447
56	0x3dbafcc4	0.091302425
57	0x3e6852f0	0.22687888
58	0xbdeb8b50	-0.11501181
59	0x3e34d1ec	0.17658204
60	0x3e12a9fc	0.14322656
61	0xbdcfdca7	-0.10149508
62	0x3e264546	0.16237363
63	0x3e036245	0.12830456
64	0xbddb0ef0	-0.106962085
65	0xbe17bc4b	-0.14817922
66	0x3e37778d	0.17916699
67	0xbe38327b	-0.17988007
68	0x3e74ca13	0.2390521
69	0xbd891149	-0.0669275
70	0xbdd4e286	-0.103947684
71	0xbeaa6d88	-0.3328669
72	0xbe8c97b3	-0.27459487
73	0xbd9f4373	-0.07776537
74	0xbe075eaa	-0.13219705
75	0x3db5b3a4	0.08872154
76	0xba017148	-0.00049378397
77	0x3e2d072d	0.16897269
78	0xbdbb6f39	-0.091520734
79	0xbca0b036	-0.019615274
80	0x3e4438ce	0.19162294
81	0x3dc81a7d	0.09770677
82	0x3e0c9d91	0.13731982
83	0x3cefb872	0.029262755
84	0xbe2edc26	-0.17076167
85	0x3e4ea9b6	0.20181927
86	0x3e82c4b7	0.25540707
87	0x3e47334a	0.19453159
88	0xbe8950a7	-0.26819345
89	0xbeb2d41b	-0.3492745
90	0xbc313b82	-0.01081741
91	0x3e3bfa21	0.18357135
92	0xbe72f853	-0.2372754
93	0x3e05da5a	0.13071576
94	0xbd0219e0	-0.031762958
95	0xbe6ae464	-0.22938687
96	0xbe811d80	-0.2521782
97	0xbe8b8c4f	-0.27255484
98	0xbd865f2d	-0.06561122
99	0x3e06e1f2	0.13172129
100	0xbe79d608	-0.24398053
101	0xbe16b704	-0.14718252
102	0xbecd8395	-0.40139452
103	0xbeccd887	-0.40008947
104	0xbe4940fc	-0.19653696
105	0xbd1e02ad	-0.03857677
106	0x3e3b36b6	0.1828259
107	0x3e431783	0.19051938
108	0x3e7e9011	0.24859644
109	0xbe0f6c34	-0.1400612
110	0xbdb2cd23	-0.08730533
111	0xbd081b4d	-0.03322916
112	0xbd2ced65	-0.042218585
113	0xbbf8be6a	-0.0075910585
114	0x3c7463df	0.014916389
115	0x3e0e6d2b	0.13908832
116	0x3e2ff06e	0.1718156
117	0x3e5a18a3	0.2129846
118	0x3d59318d	0.05302577
119	0x3e02823d	0.12744994
120	0xbc772e5e	-0.015086738
121	0x3d81ab96	0.063315555
122	0x3d06930f	0.03285509
123	0xbdbdb5f8	-0.092632234
124	0xbe0a99e5	-0.13535269
125	0x3c8d4134	0.017243005
126	0x3ddeb99e	0.108752474
127	0x3ca69c72	0.02033827
128	0xbe445832	-0.19174269
129	0x3e177aaa	0.14792886
130	0x3e432945	0.19058712
131	0x3d1e9373	0.038714837
132	0x3df0b9db	0.11754199
133	0x3e24f16c	0.1610772
134	0xbe110fe4	-0.14166218
135	0x3dd51677	0.104046755
136	0x3e1b37af	0.1515796
137	0xbd86a23f	-0.06573915
138	0xbe0cf15b	-0.13763945
139	0x3e181c1a	0.1485447
140	0xbd1f0282	-0.03882075
141	0xbe1bc3ad	-0.15211363
142	0xbe2d04ef	-0.16896413
143	0xbd36fd57	-0.044675197
144	0x3e2e82b5	0.17042048
145	0xbe6ad32d	-0.2293212
146	0xbc689b47	-0.014197177
147	0xbe74decd	-0.23913117
148	0x3d082c76	0.033245526
149	0x3d993863	0.07481458
150	0xbe385ec2	-0.18004897
151	0x3dfa638e	0.1222602
152	0x3e05bb6c	0.13059777
153	0x3dd8bfee	0.10583483
154	0xbe2c8af1	-0.16849877
155	0xbdf38264	-0.118901044
156	0x3e1cd4c5	0.1531554
157	0x3da877b2	0.08225955
158	0x3e045f7b	0.12927048
159	0xbe566ce7	-0.2093998
160	0x3debe5f5	0.1151847
161	0x3c78b03f	0.015178739
162	0x3d001210	0.031267226
163	0x3e4cda60	0.20005178
164	0xbe660a02	-0.22464755
165	0xbc0b0c90	-0.008486882
166	0xbdc02ad5	-0.093831696
167	0x3dfcf24b	0.12350901
168	0x3e19d14a	0.15021244
169	0xbe29bf60	-0.1657691
170	0x3e166996	0.14688715
171	0xbddc2771	-0.1074971
172	0xbe0f6b40	-0.14005756
173	0xbd77ac22	-0.060466893
174	0xbe7e6e37	-0.24846731
175	0x3de6caaf	0.112691276
176	0xbe71fd0e	-0.23631689
177	0xbe306c0e	-0.1722872
178	0xb9c7d446	-0.00038114394
179	0x3e6ee7d3	0.23330621
180	0x3e347f45	0.17626674
181	0xbe2319d0	-0.15927815
182	0x3d74771d	0.059683908
183	0x3d0ecbd3	0.03486235
184	0x3e147a70	0.14499831
185	0x3e7b8cae	0.24565384
186	0xbea4593e	-0.32099336
187	0xbdb8479f	-0.08998036
188	0xbe0e9c29	-0.13926758
189	0xbd25353f	-0.040333983
190	0x3e07e8ca	0.13272396
191	0xbec88745	-0.39165702
192	0xbe4de0f2	-0.20105341
193	0x3dc21f03	0.09478571
194	0xbd9b00e3	-0.075685285
195	0x3cbd7ea5	0.023131678
196	0xbdb982df	-0.09058165
197	0x3e5adc3f	0.2137308
198	0x3dfbabff	0.12288665
199	0xbcb682c9	-0.02227916
200	0x3e2e4461	0.17018272
201	0xbd1d3cb5	-0.038387973
202	0xbcd01cde	-0.02540439
203	0x3dda6db1	0.10665453
204	0x3c19bdb9	0.009383612
205	0x3e451b1d	0.19248624
206	0xbdd50f57	-0.104033165
207	0xbe38ea17	-0.18058048
208	0xbde644fe	-0.11243628
209	0xbe37e7f1	-0.17959572
210	0xbd80ac0e	-0.06282817
211	0x3cfd710c	0.030937694
212	0xbcd29e96	-0.025710385
213	0x3e248325	0.16065653
214	0xbe661a4e	-0.22470972
215	0x3e6bc0a0	0.230227
216	0x3dde5e9f	0.10857891
217	0xbdccd5d9	-0.10001726
218	0xbd93e6ad	-0.07221732
219	0x3dd1a427	0.10236388
220	0xbe034284	-0.12818342
221	0x3d8a4c64	0.067528516
222	0xbe697269	-0.2279755
223	0xbe2e277a	-0.17007247
224	0xbdf438f5	-0.11924926
225	0x3e14d2e6	0.14533576
226	0xbe417539	-0.18892373
227	0x3e36ef7d	0.17864795
228	0x3d9eca34	0.07753411
229	0x3d841864	0.06449965
230	0x3e568a49	0.20951189
231	0xbe634587	-0.22194491
232	0x3d38822b	0.045046013
233	0xbe28769f	-0.164515
234	0x3de49564	0.111613065
235	0xbe2f7522	-0.17134526
236	0x3cfbe40b	0.030748388
237	0x3ccb5d5c	0.02482479
238	0xbe4c71ae	-0.1996524
239	0x3d85dc6d	0.065361835
240	0x3d64401e	0.05572521
241	0xbe9f70ba	-0.3114069
242	0xbe8255d5	-0.2545611
243	0xbdb1531e	-0.086584315
244	0x3e497154	0.19672137
245	0x3e137509	0.14400114
246	0xbe3e0d96	-0.1855987
247	0x3e4ec170	0.20190978
248	0x3dbb9848	0.09159905
249	0x3dca1e91	0.09869111
250	0x3e78f96e	0.243139
251	0x3dfe6e36	0.12423365
252	0xbdff81dd	-0.12475941
253	0xbd1b9b0b	-0.037989657
254	0xbe77678c	-0.24160594
255	0xbda0f5b0	-0.07859361

bias f4 [32]
0	0xbc8f87da	-0.017520834
1	0x3dfe26f8	0.124097764
2	0x3d295fef	0.041351255
3	0x3e619525	0.2202955
4	0x3946d2fe	0.00018961352
5	0xbde07493	-0.10959735
6	0xbd998b2f	-0.0749725
7	0x3e305aa0	0.1722207
8	0x3d935a2d	0.07194934
9	0xbdaeb98e	-0.085314855
10	0x3e59044f	0.2119305
11	0x3e716b32	0.23576048
12	0x3d13e298	0.03610477
13	0x3e38fe16	0.18065676
14	0xbd89c704	-0.06727412
15	0x3e2ceb2c	0.16886586
16	0x3da3bb75	0.07994739
17	0xbd0b9703	-0.034079563
18	0x3e670989	0.22562231
19	0xbd43ccbf	-0.047802683
20	0x3e0aa384	0.13538939
21	0xbe227811	-0.15866114
22	0x3e1bbe5e	0.15209338
23	0x3d8a8e35	0.06765405
24	0xbe65f16a	-0.22455373
25	0x3e6e0b5a	0.23246518
26	0x3e454a44	0.19266611
27	0x3d40cdbc	0.047071204
28	0xbd97a10a	-0.07403763
29	0xbde120ca	-0.10992582
30	0x3e448118	0.1918987
31	0xbd6a3a09	-0.057184253

weight f4 [64, 32, 5, 5]
0	0xbd2ade1f	-0.041715737
1	0x3da94c87	0.082665496
2	0xbd611152	-0.05494816
3	0x3ade46fd	0.0016958412
4	0xbd627b37	-0.055293288
5	0x3c935d96	0.017988961
6	0x3e413fc0	0.18871975
7	0x3da26e17	0.07931154
8	0xbc926ed1	-0.017875107
9	0xbdeb5ff7	-0.11492913
10	0x3d94be38	0.07262844
11	0x3e351e72	0.17687395
12	0x3e22ad2c	0.15886372
13	0x3da17420	0.07883477
14	0xbc9cfc2c	-0.019163214
15	0xbd0bc17f	-0.03412008
16	0x3d983201	0.074314125
17	0x3be5482d	0.0069971294
18	0xbc8618c9	-0.01636924
19	0xbd412641	-0.047155622
20	0xba8dfc92	-0.0010832718
21	0xbcc96cb6	-0.02458797
22	0xbd32c440	-0.04364419
23	0xbd9fecdc	-0.07808849
24	0xbc0fd29b	-0.00877824
25	0xbcd87aa3	-0.026425665
26	0x3db7e41a	0.08979054
27	0xbd828cfd	-0.06374548
28	0xbdad6be1	-0.08467842
29	0xbe1ea0e2	-0.1549106
30	0xbd8beec0	-0.06832647
31	0x3df6d946	0.1205316
32	0x3da3a22a	0.07989915
33	0x3da3137b	0.079627
34	0xbde334d1	-0.11094058
35	0xbdf0a959	-0.117510505
36	0x3d9c8f13	0.07644477
37	0x3e2cb380	0.16865349
38	0x3da521e2	0.08063103
39	0xbdd71719	-0.105024524
40	0xbd63c579	-0.055608246
41	0x3d95d479	0.073159166
42	0x3dc43799	0.09580917
43	0x3e180d54	0.14848834
44	0xbcea72d6	-0.028619211
45	0x3c0dbea5	0.00865141
46	0xbbf1438a	-0.0073627876
47	0x3c82aea5	0.015952418
48	0x3c1d8fb3	0.00961678
49	0x3d5831d2	0.052781887
50	0x3caa5598	0.020792767
51	0x3d8e2b6e	0.06941877
52	0x3df54050	0.11975157
53	0x3e0af936	0.13571629
54	0xbd1a542c	-0.03767793
55	0xbe22bf85	-0.15893371
56	0x3dc2458b	0.094859205
57	0x3e07b0f4	0.13251096
58	0x3e1c01d2	0.1523507
59	0x3d2b863e	0.04187607
60	0xbddff65c	-0.10935661
61	0x3cc71184	0.024300344
62	0x3d8edec7	0.06976085
63	0x3de51420	0.11185479
64	0x3ce0e00a	0.02745058
65	0xbccf9418	-0.025339171
66	0x3c8fc426	0.017549586
67	0x3c24c4bc	0.010056671
68	0x3d612082	0.054962642
69	0x3d10b1f5	0.035325963
70	0x3b8dfe0c	0.0043332633
71	0xba80bbd6	-0.0009821604
72	0x3b16c054	0.002300282
73	0x3c3ad932	0.011404322
74	0xbce03220	-0.027367651
75	0xbb3a4a67	-0.0028425695
76	0x3d1dc4c7	0.03851774
77	0x3d2b7d7c	0.041867718
78	0xbcac86f5	-0.021060446
79	0xbd16bff4	-0.036804155
80	0xbd19f1a1	-0.03758395
81	0x3d715733	0.05892105
82	0x3d42bf28	0.047545582
83	0x3bc44a0a	0.0059902715
84	0xbde67de7	-0.11254483
85	0x3c5bfd5a	0.013427103
86	0x3ddcca62	0.10780789
87	0x3d614edc	0.055006847
88	0xbd22c6fb	-0.039740544
89	0xbd304ef2	-0.043044038
90	0x3d329021	0.043594483
91	0x3d3159ea	0.04329864
92	0x3d7d154b	0.061787885
93	0xbd24fd0e	-0.040280394
94	0xbc90a021	-0.01765448
95	0x3d37549e	0.04475843
96	0xbd6baece	-0.057539754
97	0x3c1a7205	0.009426598
98	0x3d9f69c9	0.07783849
99	0xbd13d291	-0.036089484
100	0x3e07f396	0.13276514
101	0x3d80a489	0.062813826
102	0xbdb13c8a	-0.08654125
103	0xbdd86606	-0.105663344
104	0xbe35283d	-0.17691131
105	0x3e384409	0.17994703
106	0x3dd79a48	0.10527474
107	0x3c37b3b7	0.011212281
108	0xbd838053	-0.0642096
109	0xbdc03976	-0.0938596
110	0x3c09e8ee	0.008417351
111	0x3d7425c2	0.05960632
112	0xbcbdd4a7	-0.02317269
113	0xbd067ebb	-0.032835703
114	0xbe11e16a	-0.14246145
115	0xbd073a7e	-0.033014767
116	0x3d86e47e	0.0658655
117	0x3df8ccbf	0.12148427
118	0x3e162f27	0.14666425
119	0xbc32d730	-0.0109155625
120	0xbdbf9914	-0.09355369
121	0x3d2ee471	0.042698327
122	0x3e0424bc	0.12904638
123	0x3d94bac2	0.07262184
124	0x3d2a3650	0.041555703
125	0xbd8a31f5	-0.0674781
126	0x3ca83e8b	0.020537635
127	0x3d16c8ec	0.036812708
128	0x3c70e1cc	0.014702272
129	0x3d0a6cc1	0.033795122
130	0xbd722bd0	-0.059123814
131	0xbd47e46e	-0.048801832
132	0x3b466ccc	0.003027725
133	0x3d87ee09	0.066371985
134	0x3c18265b	0.009286488
135	0xbd4abfe3	-0.049499404
136	0x3bf95c40	0.007609874
137	0x3bd77947	0.0065757367
138	0xbc998d28	-0.018744066
139	0xbd279d0d	-0.04092126
140	0xbd94443d	-0.07239578
141	0xbc990036	-0.018676858
142	0xbd203d66	-0.039121054
143	0xbd3b733f	-0.045764204
144	0x3bc04a54	0.0058682356
145	0xbd7418de	-0.059594028
146	0xbd444610	-0.04791838
147	0xbc9080d4	-0.017639555
148	0xbd82b3f6	-0.06381981
149	0xbd5488b9	-0.0518882
150	0x3d0a8209	0.033815417
151	0x3ce683d9	0.028139042
152	0xbd0828fa	-0.033242203
153	0x3ca61b7f	0.020276783
154	0x3a6958b2	0.0008901461
155	0xbd0f14fa	-0.034932114
156	0xbb7ec1da	-0.0038872869
157	0x3b2054f1	0.0024464692
158	0x3ca53ae1	0.020169677
159	0xbb9114a0	-0.0044275075
160	0xbd016b40	-0.031596422
161	0xbcdf025d	-0.027222807
162	0xbd96452b	-0.073374115
163	0xb9816a71	-0.00024684102
164	0x3c439569	0.011937478
165	0xbcedc761	-0.029025735
166	0xbd15bdc2	-0.03655792
167	0xbb55214c	-0.0032521067
168	0xbb3353e3	-0.0027363233
169	0x3cb18b79	0.021672951
170	0xbc743fcb	-0.014907788
171	0xbd84b4fd	-0.06479833
172	0xbb930228	-0.004486341
173	0xbd3b211c	-0.045685872
174	0xbccf6a64	-0.025319286
175	0xbdc23ce2	-0.09484269
176	0xbd8ec41d	-0.069709994
177	0xbd9ebb32	-0.077505484
178	0xbd1e9429	-0.038715515
179	0xbdc9e1fc	-0.09857556
180	0xbd93f5a9	-0.0722459
181	0xbc717d76	-0.014739385
182	0x3c42fb1c	0.011900689
183	0x3d0c140d	0.03419881
184	0xbd89a9a0	-0.067218065
185	0xbde8a131	-0.1135887
186	0xbd2ca4b5	-0.042149264
187	0x3d10688c	0.035255954
188	0x3d826652	0.06367172
189	0xbd8d72c4	-0.069066554
190	0xbd33589e	-0.043785684
191	0xbd81c235	-0.0633587
192	0x3c497b22	0.012297424
193	0x3db1278e	0.086501226
194	0x3cb69621	0.022288384
195	0xbce53a05	-0.027981767
196	0xbd081fa4	-0.0332333
197	0xbe3a8ba8	-0.18217337
198	0xbe07d450	-0.13264585
199	0xbccf153c	-0.02527868
200	0x3d0b61d3	0.03402884
201	0x3e23e1ad	0.16004057
202	0x3da3cb21	0.07997728
203	0xbc9c70fc	-0.019096844
204	0xbdcc728f	-0.09982788
205	0x3d6f455b	0.058415752
206	0x3d793243	0.06083895
207	0x3dbf2cdb	0.093347274
208	0x3d180884	0.037117496
209	0xbdd93a75	-0.10606853
210	0x3d662720	0.056189656
211	0x3db18cba	0.086694196
212	0x3e072f36	0.13201603
213	0xbae9f44c	-0.0017849295
214	0xbdc319a4	-0.09526375
215	0x3cbbb594	0.022913732
216	0x3cfe4659	0.031039404
217	0x3dbb8ca1	0.09157682
218	0xbd8e6548	-0.069529116
219	0xbd6ed6bd	-0.05831026
220	0x3cc651d8	0.024208948
221	0x3ca9a92d	0.020710552
222	0xbcd92c4b	-0.026510378
223	0x3ddaea83	0.10689261
224	0x3d3323bf	0.043735262
225	0xbe180c42	-0.14848426
226	0xbdb75504	-0.08951762
227	0xbb8056ea	-0.003916611
228	0xbbd053ce	-0.0063576465
229	0xbdedae45	-0.11605505
230	0xbdf6ea60	-0.12056422
231	0xbdf287cb	-0.11842307
232	0x3dddfb13	0.10838904
233	0x3df22e62	0.11825253
234	0xbd6f6093	-0.05844171
235	0xbdab05f7	-0.08350747
236	0xbd800ca5	-0.06252412
237	0x3afeb709	0.0019433211
238	0x3da48505	0.08033184
239	0xbd1dd2e1	-0.038531188
240	0xbd35a2c1	-0.044344667
241	0xbceadcf0	-0.028669804
242	0x3cbf065c	0.023318462
243	0xbb96cabd	-0.004601805
244	0x3d938936	0.07203905
245	0xbcb6ce04	-0.022315033
246	0xbd9dfb65	-0.07713965
247	0xbe015c30	-0.12632823
248	0xbe0ce6f1	-0.13759972
249	0x3ce9ddd4	0.028548159
250	0xbac6873f	-0.0015146508
251	0x3cee592a	0.029095251
252	0xbc5a12a7	-0.013310111
253	0x3cceff9b	0.025268367
254	0x3d560650	0.052252114
255	0x3d94261a	0.0723383

bias f4 [64]
0	0x3b7a22f5	0.0038167809
1	0xbccebd40	-0.025236726
2	0xbceb23eb	-0.02870365
3	0xbd15a79d	-0.0365368
4	0xbcede458	-0.029039547
5	0xbcfa7d46	-0.030577313
6	0x3ce1f8e9	0.02758451
7	0xbd91dd91	-0.071223386
8	0xbd24a2bd	-0.04019426
9	0xbd246a4a	-0.040140428
10	0xbd001cc1	-0.03127742
11	0xbd968e01	-0.07351304
12	0x3c8cc30c	0.01718285
13	0xbd4faa26	-0.050699376
14	0xbd1aab79	-0.037761185
15	0x3c911400	0.017709732
16	0xbcf9468e	-0.03042915
17	0xbd2f616e	-0.042817526
18	0xbd1692a9	-0.03676096
19	0x3bcf0c10	0.0063185766
20	0xbc72dfe1	-0.014823885
21	0xbd1ab5ef	-0.03777116
22	0xbcb99e1b	-0.022658398
23	0x3c591a66	0.013250923
24	0xbd533020	-0.051559567
25	0xbc620c88	-0.013796933
26	0xbce9bb55	-0.02853171
27	0xbcd50889	-0.026005046
28	0xbc63336a	-0.013867239
29	0x3ccf2904	0.025288112
30	0x3b166974	0.0022951039
31	0x3bc64dc2	0.00605175
32	0xbcb82528	-0.022478655
33	0x3c316a6f	0.010828598
34	0x3bca247d	0.0061689005
35	0xbd8c9ada	-0.06865473
36	0xbd1ce614	-0.038305357
37	0x3cbbba5a	0.022916008
38	0xbdd97dc0	-0.10619688
39	0x3c27d566	0.010243749
40	0x3c0ac9fd	0.008471009
41	0xbcc741a5	-0.024323294
42	0xbc7e29e4	-0.015512917
43	0xbc010b86	-0.007876283
44	0xbb8b3aa0	-0.004248932
45	0x3bf18509	0.0073705954
46	0x3c345860	0.011007398
47	0xbca9e6c3	-0.020739919
48	0xbd81f570	-0.063456416
49	0x39e06d78	0.0004280617
50	0x3c13d80b	0.009023677
51	0x3b20e991	0.002455328
52	0x3cb2f8b7	0.021847112
53	0xbcefefb5	-0.029289106
54	0x3c32203b	0.010871942
55	0x3b0f4f8c	0.0021867482
56	0xbcb39357	-0.021920843
57	0xba06bf30	-0.00051401835
58	0xbc0a5138	-0.008442216
59	0x3c8ea6dd	0.017413551
60	0xbc59b4b6	-0.013287714
61	0x3c3cbb37	0.011519245
62	0xbca77d88	-0.0204456
63	0x3b927074	0.004468972

weight f4 [12, 3136]
0	0xbbf3d4a9	-0.0074411226
1	0xbd863a82	-0.06554128
2	0xbc0bfa7a	-0.008543605
3	0x3cc60ac9	0.024175065
4	0x3d19d671	0.037558023
5	0x3cd7bacd	0.02633419
6	0x3b81da32	0.0039627785
7	0x3cb4cc93	0.022070205
8	0xbd0a5d5b	-0.033780437
9	0xbd738657	-0.05945429
10	0x3d126750	0.035743058
11	0x3c6aff03	0.014343026
12	0x3c152cc3	0.00910491
13	0x3bf0eb9d	0.007352306
14	0x3d2e51f6	0.042558633
15	0x3cf4cd54	0.029883064
16	0x3b72e5cc	0.003706324
17	0x3d57f62f	0.052725013
18	0x3c0a7a78	0.00845205
19	0xbbd91777	-0.0066251117
20	0xbbf9a97d	-0.0076190815
21	0x3d0a5193	0.0337692
22	0xbc89bf49	-0.016814845
23	0xbd456e8c	-0.04820113
24	0x3c21dba6	0.009879028
25	0x3cb287a6	0.021793198
26	0xbbc3665b	-0.0059631295
27	0x3bbb9c5e	0.0057254275
28	0xbcb0f9c4	-0.021603473
29	0xbdb2d7b6	-0.0873255
30	0xbcd7b1fc	-0.026329987
31	0xbcf494a8	-0.029856041
32	0xbcb269ae	-0.021778908
33	0xbd1d3bb8	-0.03838703
34	0xbd75fc2e	-0.06005495
35	0x3c8d4e4e	0.017249253
36	0xbdab3de7	-0.08361416
37	0x3c532843	0.012888017
38	0x3cf497e4	0.029857583
39	0xbac2d9a2	-0.0014865885
40	0xbd080652	-0.033209153
41	0xbd971a2e	-0.0737804
42	0xbc479c6e	-0.012183292
43	0xbd055077	-0.03254744
44	0xba9aa3bc	-0.0011798064
45	0x3d0014f6	0.03126999
46	0x3cacce6e	0.021094527
47	0xbcdc1dbd	-0.026869649
48	0xbd998d7e	-0.074976906
49	0xbb664720	-0.0035137609
50	0xbc98748e	-0.018610265
51	0xbc068be6	-0.008212065
52	0xbc1101f9	-0.008850568
53	0x3c35980d	0.011083615
54	0x3afc4be8	0.0019248696
55	0xbcb609a3	-0.022221392
56	0xbc9655be	-0.018351432
57	0xbc4f36a6	-0.012647307
58	0x39453b5e	0.000188095
59	0xbbb619c7	-0.005557272
60	0xbbd59b42	-0.0065187523
61	0x398d9820	0.00027006958
62	0xbcbb174f	-0.022838263
63	0xbc46e9dd	-0.012140718
64	0x3c4d6b30	0.0125377625
65	0x3a04d160	0.00050665997
66	0x3c846654	0.016162075
67	0x3a24450f	0.0006266394
68	0x3be98fe7	0.00712775
69	0xbc05e70e	-0.0081727635
70	0xbc42224e	-0.011848999
71	0xbc6ad287	-0.01433242
72	0x3c0f3c42	0.008742394
73	0xbc09f5eb	-0.008420448
74	0x3b7732fa	0.0037719593
75	0xbca4c84d	-0.020115042
76	0xbafbf71f	-0.0019223428
77	0xbb404485	-0.0029337716
78	0x3b3c3c60	0.002872251
79	0x3c4a01ae	0.012329502
80	0x3ba9a34e	0.005176938
81	0x3bca2d29	0.0061699343
82	0xbc0c9abb	-0.0085818125
83	0xba82bca4	-0.0009974432
84	0xbc9c1488	-0.019052759
85	0xbc9408cc	-0.0180706
86	0xbc15f215	-0.009151955
87	0x3c339f9c	0.010963347
88	0xbb2cb542	-0.0026353155
89	0xbc3d14e8	-0.011540629
90	0xbce6213e	-0.028092023
91	0xbca556ca	-0.020182986
92	0xbc9dd6d9	-0.019267486
93	0x3c035cd3	0.0080177365
94	0x3c05e391	0.008171932
95	0x3c83e3ac	0.016099773
96	0x3c25873a	0.010103041
97	0xbc0c5ecd	-0.008567524
98	0xbca470c0	-0.020073295
99	0x3c32def5	0.010917415
100	0x3c7b9c22	0.015357049
101	0x3b910522	0.0044256607
102	0xbc7073ab	-0.014676015
103	0x3c1f70e3	0.009731504
104	0xbc434ab4	-0.011919666
105	0xba62eb2b	-0.00086562586
106	0xbc376bda	-0.011195147
107	0x3c04975e	0.008092729
108	0xbca7d6a3	-0.020488089
109	0x3c228d06	0.009921318
110	0xbadece7c	-0.0016998793
111	0xbc0a709e	-0.008449702
112	0xbc8bdf95	-0.017074386
113	0x3c4e54a8	0.012593426
114	0x3bbce9b4	0.0057651643
115	0xbc011dfd	-0.007880685
116	0xbb2193a7	-0.0024654658
117	0xbc40035f	-0.011719554
118	0xbc2ba0a1	-0.010475309
119	0x3c645335	0.013935854
120	0x3b85e7ec	0.004086485
121	0xbc70f2d3	-0.014706331
122	0x3b08867a	0.0020832107
123	0xbcc0845d	-0.023500616
124	0x3a6e67ff	0.0009094476
125	0xbb8aafc0	-0.004232377
126	0xbc34c67b	-0.01103365
127	0x3c432068	0.011909582
128	0xbc9e7bbe	-0.019346114
129	0xbca60f4f	-0.020270972
130	0xbc87caae	-0.016576137
131	0xbbf3008d	-0.007415837
132	0xba6c8942	-0.00090231386
133	0x3bc6b420	0.006063953
134	0x3c1e2398	0.009652041
135	0xbc1c79ce	-0.009550525
136	0xbb8028ef	-0.0039111297
137	0x3c419970	0.0118163675
138	0xbc37bf7d	-0.011215088
139	0x3c175b8b	0.009238134
140	0xbca24949	-0.019810336
141	0x3a62e21c	0.0008654909
142	0xbbc141de	-0.0058977446
143	0xbc165c9a	-0.009177351
144	0xbc01a7d3	-0.007913548
145	0x3b79c17b	0.0038109708
146	0xbbd819df	-0.006594881
147	0x3c836930	0.016041368
148	0xbc782c47	-0.015147275
149	0x3c067d85	0.008208637
150	0x3d03d833	0.032188606
151	0x3cbe14b0	0.023203224
152	0x3d19a42b	0.03751008
153	0x3b5ef1ae	0.0034018564
154	0x3c4e9957	0.012609801
155	0x3c270f3b	0.010196502
156	0xbb282b27	-0.0025660486
157	0xbb4422ea	-0.0029928037
158	0x3d3fd7c8	0.046836644
159	0x3cc4188e	0.02393749
160	0x3c7aa7ff	0.015298842
161	0x3cddaa72	0.027058814
162	0xbc3365fe	-0.01094961
163	0x3c47a425	0.012185131
164	0x3bac8593	0.0052649467
165	0x3d21bd9d	0.03948747
166	0x3d001422	0.0312692
167	0x3c19a56a	0.009377817
168	0x3c897f46	0.016784322
169	0x3c892ffd	0.016746515
170	0x3cc65572	0.024210665
171	0x3c77c4b2	0.015122579
172	0x3c2ae9ab	0.010431687
173	0x3d45db0e	0.04830461
174	0x3c5f00e7	0.013611055
175	0x3cd853af	0.026407091
176	0x3ca78f8b	0.020454189
177	0x3c547dd7	0.012969456
178	0x3c5cccb5	0.01347654
179	0x3c309f95	0.010780235
180	0xbac937ef	-0.0015351753
181	0x3cafba7b	0.021451226
182	0x3d017ff8	0.03161618
183	0x3a144bdf	0.00056570576
184	0xbba6f575	-0.0050951787
185	0x3d1505e1	0.03638256
186	0x3ca49abe	0.020093318
187	0x39c7433b	0.00038006328
188	0x3bf2bd8f	0.007407851
189	0x3d2186b4	0.039435104
190	0x3c50beee	0.012740834
191	0x3c66d650	0.014089182
192	0x3cec5672	0.028849814
193	0x3c0ba27f	0.008522629
194	0xbba6e539	-0.0050932434
195	0x3c9b71e0	0.018975198
196	0x3c350ab5	0.011049916
197	0x3dd78fbf	0.10525464
198	0x3de4016e	0.11133085
199	0xbbf7d338	-0.007563021
200	0xbde82b97	-0.11336439
201	0xbd1e0dfe	-0.038587563
202	0xbe269466	-0.16267547
203	0xbcce7a80	-0.025204897
204	0xbd0b1dd0	-0.03396398
205	0xbe1f048f	-0.15529083
206	0xbe3482e7	-0.1762806
207	0xbe14628d	-0.14490719
208	0xbc2ea21e	-0.010658769
209	0x3def30bb	0.116792165
210	0x3e90da7b	0.28291687
211	0xbd5953b7	-0.053058352
212	0xbe33667a	-0.1751956
213	0xbdafb9aa	-0.085803345
214	0xbd7bcd84	-0.06147529
215	0xbcbef567	-0.023310376
216	0x3e0e4fed	0.13897677
217	0x3e3f684d	0.18692131
218	0x3d31d3f2	0.043415017
219	0xbe39f8af	-0.18161272
220	0xbdff6ab4	-0.12471524
221	0xbe84f6a1	-0.25969413
222	0xbe3ade76	-0.18248925
223	0xbdf20776	-0.11817829
224	0x3db39ed0	0.087705255
225	0xbd5d9252	-0.05409462
226	0xbe0055b5	-0.12532695
227	0xbe27e504	-0.16395956
228	0xbb940357	-0.0045169997
229	0x3c66d675	0.0140892165
230	0xbd42d2f7	-0.047564473
231	0xbd7b67c8	-0.06137827
232	0xbc906715	-0.017627278
233	0x3cc82c5f	0.02443522
234	0xbe0705f1	-0.1318586
235	0xbd9bbdf9	-0.07604594
236	0xbb5249c8	-0.0032087434
237	0xbd68bbdd	-0.056819785
238	0xbdde5f8c	-0.10858068
239	0xbe0b836e	-0.13624355
240	0x3d2c46a6	0.042059563
241	0xbcb35acb	-0.02189388
242	0xbe0df5b3	-0.13863258
243	0xbe363054	-0.17791873
244	0x3c54dc89	0.012992033
245	0xbc03f1fb	-0.008053298
246	0xbcdc65f9	-0.026904093
247	0xbca21b75	-0.019788483
248	0xbde5ee9c	-0.11227152
249	0xbdd673ad	-0.10471282
250	0x3b50cb8f	0.0031859612
251	0xbd2e6236	-0.04257413
252	0x3b2a91e1	0.0026026892
253	0xbd9c26ae	-0.07624565
254	0x3b3cd17b	0.0028811384
255	0xbd3183ef	-0.043338712

bias f4 [12]
0	0xbd1eb8bb	-0.03875039
1	0xbbc09a7d	-0.0058777914
2	0xbc0d335f	-0.008618205
3	0x3d4dbcd1	0.050228897
4	0xbc1ced87	-0.009578115
5	0x3cb0043a	0.02148639
6	0x3bc22b2d	0.005925557
7	0x3cf96ebc	0.03044831
8	0xbc3b641e	-0.011437444
9	0xbc3cdbcc	-0.011527013
10	0xbb85019c	-0.0040590297
11	0xbc9e5c2f	-0.019331066
