PJ1/CNN/Pytorch_based_CNN_0.01_32_40.pth (torch, 364890 bytes, 6 tensors)

weight f4 [32, 1, 5, 5]
-0.26893488 -0.4727925 0.10016838 0.041027963 -0.5366982 -0.23966184 -0.34875268 -0.15627922
-0.47415686 -0.68856573 0.083181486 -0.051204406 -0.21709049 -0.525871 0.14359747 -0.074415594
-0.253361 -0.1310771 -0.24397586 -0.1574287 -0.42289302 -0.6776527 -0.17989056 -0.14929454
0.0024910432 0.5756631 0.2539689 0.08982933 -0.21164156 -0.16771792 0.18149209 0.66234124
-0.998418 -0.48278096 -0.047219265 0.52515453 0.5186062 -2.2505202 0.2392664 0.4376744
0.30791032 -2.9002016 0.49362466 0.5146015 0.10194254 -1.2621958 -0.52784675 0.1011545
-0.19911902 -0.42688447 -0.34224045 -0.1739488 -0.18335807 -0.40260568 0.48831427 0.10811845
0.26826456 -1.4298007 0.06023751 0.0815658 0.13352467 0.057994425 -1.5769802 0.3157286
0.1387311 0.63984776 0.6786531 -2.8124585 0.3089143 0.42197317 0.038448658 -0.5255558
0.051860213 -0.5526867 -0.097417966 -0.17943539 -0.4246549 -0.398066 0.009256431 -0.73321986
0.022235224 -0.48977563 -0.47978643 -0.8837969 -0.72110224 0.17953344 -0.59505695 -0.8511772
-0.265567 -0.24261937 -0.43845803 -0.54336405 -0.8100031 -0.5377693 -0.71763587 -0.9526529
-0.43017444 0.2827765 -0.51540333 -0.35100013 0.2602136 0.6821278 0.4183849 0.35134572
-0.27911854 0.279317 0.8085656 0.096216135 -0.8645486 -1.0503316 0.23612365 -0.89122796
-2.4246347 -0.22459896 0.2561247 -1.3776354 -0.27816975 0.7055312 0.25606447 -0.40482506
-0.9634422 -0.23572272 -0.052247964 -0.23564631 -0.27303582 -0.22748412 -0.12859856 -0.09554106
-0.3000098 -0.49322918 0.0021953715 -0.53944284 0.11877599 0.010455568 -0.017527904 -0.09627777
-0.48273957 -0.28698513 0.01736713 -0.25991458 -0.0377683 -0.13841794 -0.27390924 0.014122477
-0.051936176 0.054508045 -0.37485248 0.05325838 -0.33822012 -0.21996665 -0.96414155 -0.6933228
-1.2171555 -1.0749632 -0.088310465 -0.044947673 0.56774515 -0.9230938 0.21921612 0.19798762
-0.11507106 -1.1151978 -0.6244077 -0.62522346 -1.6375498 0.16988444 -0.8669684 -0.9749087
-0.77562195 0.19939122 0.3920595 0.6808856 -1.0341989 -0.51117516 0.28117758 -0.1957386
0.01682657 0.009438936 -0.18839438 -0.3073153 -0.07038802 -0.19669867 -0.4201979 -0.4764459
0.108743146 -0.28343955 -0.43484858 -0.44074965 0.12835816 -0.04743504 -0.4180559 -0.32140097
0.053334773 -0.36952093 -0.24019043 -0.066710696 -0.08720084 -0.28447366 0.020889947 -0.19599317
-0.27833435 0.06285263 0.09360244 -0.22681983 -0.026766963 -0.27950373 0.032631073 -0.11734802
-0.167313 -0.16467519 -0.34174982 0.093926646 -0.188006 -0.17358516 -0.027436225 -0.22723475
-0.20103294 -0.0051235063 -0.02565548 -0.18262272 -0.1190582 -0.05438136 -0.27471998 -0.025065513
-0.17283149 -0.43805298 0.010352426 -0.07431459 0.5271227 -0.2592568 -0.63161063 -0.49344248
-0.29539505 0.05954297 -0.2268279 0.22145608 0.20121191 -0.047684796 -0.91506654 0.11653625
0.0939889 0.17983928 0.17348862 -2.348181 0.9776109 0.052273925 0.013912061 -0.6362093
-0.5508934 0.25250188 -0.4319144 -0.4952859 -0.4149498 -0.16046306 -0.0905746 -0.2584596
00000000: d5b1 89be dc11 f2be 1425 cd3d f00c 283d
00000010: 0e65 09bf ea69 75be b68f b2be a907 20be
00000020: b0c4 f2be d845 30bf 0e5b aa3d b6bb 51bd
00000030: f84c 5ebe 7b9f 06bf 370b 133e 3467 98bd
00000040: 88b8 81be 1339 06be cfd4 79be fd34 21be
00000050: 6f85 d8be a67a 2dbf 3b35 38be abe0 18be
00000060: c540 233b a85e 133f 3608 823e 71f8 b73d
00000070: 91b8 58be 3fbe 2bbe 10d9 393e 328f 293f
00000080: 5298 7fbf 112f f7be fd68 41bd 8770 063f
00000090: 60c3 043f 8608 10c0 4002 753e dc16 e03e
000000a0: 6ca6 9d3e e79c 39c0 5fbc fc3e edbc 033f
000000b0: 40c7 d03d a28f a1bf f720 07bf 172a cf3d
000000c0: dbe5 4bbe 9a90 dabe 243a afbe a21f 32be
000000d0: 38c2 3bbe 5522 cebe 5404 fa3e 356d dd3d
000000e0: f959 893e b603 b7bf 9bbb 763d f80b a73d
000000f0: b1ba 083e 908b 6d3d 7dda c9bf 2ea7 a13e
00000100: 870f 0e3e 10cd 233f 36bc 2d3f 52ff 33c0
00000110: 042a 9e3e de0c d83e 577c 1d3d d38a 06bf
00000120: 606b 543d e07c 0dbf 1283 c7bd e9bd 37be
00000130: 5e6c d9be 4fcf cbbe 49a8 173c 4cb4 3bbf
00000140: a526 b63c dfc3 fabe 91a6 f5be 8340 62bf
00000150: 289a 38bf 9dd7 373e a755 18bf c0e6 59bf
00000160: 66f8 87be 3671 78be 927d e0be e819 0bbf
00000170: 5d5c 4fbf 40ab 09bf fcb6 37bf 0fe1 73bf
00000180: d33f dcbe 15c8 903e 79f1 03bf 4ab6 b3be
00000190: b83a 853e ed9f 2e3f 8c36 d63e 96e3 b33e
000001a0: a0e8 8ebe a302 8f3e 28fe 4e3f f70c c53d
000001b0: 0f53 5dbf 4471 86bf 66ca 713e 8427 64bf
000001c0: 372d 1bc0 45fd 65be c722 833e 5b56 b0bf
000001d0: 446c 8ebe b19d 343f e21a 833e 3b45 cfbe
000001e0: 26a4 76bf 4c61 71be f601 56bd 444d 71be
000001f0: 5acb 8bbe 99f1 68be 57af 03be 08ab c3bd
00000200: e29a 99be 8988 fcbe 39e0 0f3b ed18 0abf
00000210: d440 f33d d54d 2b3c ae96 8fbc 482d c5bd
00000220: a429 f7be b7ef 92be 8345 8e3c 8613 85be
00000230: efb2 1abd 6fbd 0dbe d53d 8cbe f661 673c
00000240: 07bb 54bd d443 5f3d aaec bfbe 7625 5a3d
00000250: 302b adbe f03e 61be fbd1 76bf 9a7d 31bf
00000260: c0cb 9bbf 6598 89bf 1edc b4bd 0d1b 38bd
00000270: bf57 113f e04f 6cbf 317a 603e 44bd 4a3e
00000280: 60aa ebbd cdbe 8ebf 2fd9 1fbf a50e 20bf
00000290: 3b9b d1bf 30f6 2d3e a4f1 5dbf 9e93 79bf
000002a0: 298f 46bf 362d 4c3e 06bc c83e 854e 2e3f
000002b0: a160 84bf 60dc 02bf 82f6 8f3e b36f 48be
000002c0: e0d7 893c c4a5 1a3c 75ea 40be 6e58 9dbe
000002d0: 9827 90bd 606b 49be 2e24 d7be b8f0 f3be
000002e0: bab4 de3d fd1e 91be 79a4 debe f0a9 e1be
000002f0: 5270 033e 3f4b 42bd 6c0b d6be ab8e a4be
00000300: 9075 5a3d d931 bdbe 7bf4 75be 9e9f 88bd
00000310: 5b96 b2bd 88a6 91be 6521 ab3c 6fb2 48be
00000320: d781 8ebe e1b8 803d a3b2 bf3d 7543 68be
00000330: 6446 dbbc 1d1b 8fbe 29a8 053d 2954 f0bd
00000340: 1954 2bbe 9da0 28be d5f9 aebe 9d5c c03d
00000350: a584 40be 4fc0 31be efc1 e0bc 3ab0 68be
00000360: 94db 4dbe 16e3 a7bb 712b d2bc 7301 3bbe
00000370: c9d4 f3bd fdbe 5ebd 19a8 8cbe 3156 cdbc
00000380: bdfa 30be 7b48 e0be 399d 293c 3f32 98bd
00000390: 83f1 063f 4fbd 84be 3cb1 21bf 7ea4 fcbe
000003a0: 053e 97be 54e3 733d 9345 68be 62c5 623e
000003b0: 7f0a 4e3e 2251 43bd cd41 6abf 8faa ee3d
000003c0: 417d c03d ca27 383e 00a7 313e 9948 16c0
000003d0: b544 7a3f 2f1d 563d 6aef 633c 9dde 22bf
000003e0: 5a07 0dbf ed47 813e e223 ddbe 1d96 fdbe
000003f0: 4d74 d4be 6e50 24be 2d7f b9bd d154 84be

bias f4 [32]
0.234362 -0.11504124 0.643237 0.081360124 0.29781416 -0.004907962 0.6838106 0.09724328
0.012816606 -0.09475438 -0.17326665 0.06321786 -0.16859783 0.15444578 0.032451253 0.029580936
-0.121654674 -0.043290466 0.09136923 -0.041524377 0.15972078 0.28887278 -0.08148843 -0.3890204
0.64266324 0.78513765 0.06672595 -0.25123695 -0.22151762 -0.30478764 0.38433397 0.138625
00000000: 98fc 6f3e be9a ebbd 2eab 243f 23a0 a63d
00000010: 197b 983e f8d2 a0bb 360e 2f3f 7c27 c73d
00000020: befc 513c 960e c2bd d06c 31be 5e78 813d
00000030: e9a4 2cbe 0927 1e3e 9beb 043d b853 f23c
00000040: 1626 f9bd 5851 31bd ca1f bb3d 7715 2abd
00000050: d88d 233e 22e7 933e 68e3 a6bd af2d c7be
00000060: 9485 243f c8fe 483f 9da7 883d 21a2 80be
00000070: 84d5 62be 200d 9cbe 6cc7 c43e b6f3 0d3e

weight f4 [64, 32, 5, 5]
-0.46195102 0.07258065 0.3160847 -0.24903578 -0.06271522 -0.04516475 0.2557256 -0.10547918
-0.13104832 0.53258425 0.0629815 -0.13859314 -0.048696738 -0.18453735 0.56432045 0.17863163
-0.53407097 -0.3189743 -0.32231095 0.2754435 -0.0084300395 -0.12072127 -0.14024931 0.32790482
0.09312926 0.50485635 0.21254617 1.0449834 0.72921056 0.61771923 0.23507257 -1.3371253
-0.326531 -0.0017162941 -0.87772584 0.0065099965 0.4188467 -0.46687007 0.85096216 0.03963858
-0.16115722 0.2407989 -0.6802979 -0.44373935 -0.061762102 0.42937902 -0.3105006 0.27232093
-1.2783704 0.14158882 -1.3602475 -0.21181743 -0.19075538 0.9590295 -0.72026944 -0.51754016
-0.4185798 -1.2865714 -0.677869 -1.0922427 -0.45571303 -0.027384833 -1.3473437 -0.061581753
-0.51293087 -0.7052076 -0.31620586 0.24522562 -0.09628388 0.008523218 -0.27861536 0.21296045
0.6214344 -1.0673114 1.3037478 -0.1197651 -0.43890536 0.07487348 -0.36579862 -0.47751576
-0.46646065 -0.096596874 -0.025831878 -0.41982415 -0.17448235 -0.4905123 -0.3089146 -0.14024125
-0.05558217 0.16822018 0.078766406 0.15788886 -0.2070135 -0.18627582 -0.37047657 -0.17130366
0.15829162 -0.076961964 -0.4894086 0.27194226 0.20489542 -0.16180976 1.0604578 0.5750816
0.14480242 -0.7043173 -0.27292505 0.26796618 -0.14780782 -0.3593326 0.89121866 -0.4525645
-1.0288268 -0.8421298 -0.23805158 -1.2738098 -0.50424504 -0.0913778 -1.584204 -0.95325243
0.28376055 -0.19372776 -0.2515906 -0.11707102 0.0256468 -0.04508987 -0.1480613 -0.20619547
0.040285055 -0.079911046 -0.0407976 -0.07043172 -0.070852645 -0.055789445 -0.015621074 -0.06690504
0.0030746846 -0.075928494 -0.063127086 0.0025274719 -0.12768826 0.021224486 -0.1264931 -0.15740152
-0.17461811 0.026256522 -0.0065548206 -0.13797829 -0.086488344 -0.22412546 -0.54850364 -0.28952497
-0.46907157 -0.34403986 0.08789815 -0.62021685 0.16928342 -0.13140967 -0.69910485 -0.26352713
-0.3867886 -0.38676074 -0.28238934 -0.41582552 0.24577136 -0.32891586 -0.3659565 -0.030411871
-0.08541672 -0.10161742 0.8859687 -0.4204713 -0.19332644 -0.46351138 -0.9185242 -0.028282331
-0.023127275 0.12300168 0.04881687 0.0054886146 0.04178154 -0.13464938 -0.17365181 0.17429993
-0.02856275 0.2297791 -0.03743412 0.11921534 -0.06430087 -0.11239075 0.031694256 0.077487364
-0.06522542 -0.13044722 0.053283967 0.15318877 0.06253272 -0.21905875 -0.08151143 0.029055722
-9.056849e-05 -0.19700359 -0.18124256 -0.001863452 -0.049251504 -0.012430301 -0.06897939 -0.09601931
-0.038556777 -0.041585047 -0.025600905 -0.07033346 -0.06010336 0.03202143 -0.009584941 -0.015312807
-0.04406005 -0.07144186 0.0027373785 -0.04758487 0.07060506 -0.022543896 -0.019610832 0.010719736
-0.0409641 -0.506525 -0.18159758 0.6778619 -0.51201206 -0.5125728 -0.09199481 0.21103066
-0.30621666 -0.71412426 -0.5371727 -0.15011778 -0.5752227 -1.0610776 -0.3020348 -0.3529467
-0.052813422 -0.8365159 -0.5260204 -0.057810154 -0.21680532 -1.2781646 -0.29164317 -1.483024
-0.71080226 -0.48270017 0.24085829 -0.021195974 0.07218042 0.083159365 -0.07238329 0.14794384
00000000: d884 ecbe 2aa5 943d dbd5 a13e 3c03 7fbe
00000010: d670 80bd acfe 38bd 77ee 823e 7805 d8bd
00000020: 8831 06be 7157 083f 72fc 803d 5ceb 0dbe
00000030: 3b76 47bd 5cf7 3cbe 4e77 103f 36eb 363e
00000040: e0b8 08bf 9950 a3be f105 a5be ee06 8d3e
00000050: 261e 0abc b73c f7bd 849d 0fbe 24e3 a73e
00000060: 8eba be3d 443e 013f b4a5 593e 04c2 853f
00000070: 8bad 3a3f d922 1e3f ddb6 703e ec26 abbf
00000080: 122f a7be 46f5 e0ba a4b2 60bf cf51 d53b
00000090: 1373 d63e 9809 efbe a8d8 593f 105c 223d
000000a0: 6606 25be fd93 763e 0128 2ebf ce31 e3be
000000b0: 42fa 7cbd 91d7 db3e eff9 9ebe a66d 8b3e
000000c0: a4a1 a3bf a9fc 103e 971c aebf abe6 58be
000000d0: 6155 43be f582 753f 9463 38bf 837d 04bf
000000e0: 1750 d6be 5fae a4bf d388 2dbf 9cce 8bbf
000000f0: 3853 e9be 2856 e0bc c275 acbf 263d 7cbd
00000100: 704f 03bf 7c88 34bf bce5 a1be 6d1c 7b3e
00000110: 7c30 c5bd f8a4 0b3c aca6 8ebe 4e12 5a3e
00000120: 5316 1f3f a99d 88bf 35e1 a63f 6847 f5bd
00000130: 34b8 e0be 4457 993d f549 bbbe f27c f4be
00000140: eed3 eebe 95d4 c5bd 609d d3bc 31f3 d6be
00000150: 80ab 32be 6e24 fbbe 0e2a 9ebe 679b 0fbe
00000160: 21aa 63bd e941 2c3e 4850 a13d 9ead 213e
00000170: 59fb 53be 17bf 3ebe 1baf bdbe 3a6a 2fbe
00000180: 3317 223e 3c9e 9dbd c493 fabe 043c 8b3e
00000190: 1bd0 513e 75b1 25be 15bd 873f 8c38 133f
000001a0: 1647 143e 234e 34bf d5bc 8bbe dd32 893e
000001b0: ef5a 17be 71fa b7be e826 643f 89b6 e7be
000001c0: 99b0 83bf d295 57bf cbc3 73be 330c a3bf
000001d0: 3416 01bf 4924 bbbd 32c7 cabf 5a08 74bf
000001e0: 1049 913e 9260 46be 7cd0 80be eec2 efbd
000001f0: 3d19 d23c 28b0 38bd 629d 17be e824 53be
00000200: f101 253d 67a8 a3bd 621b 27bd 813e 90bd
00000210: 311b 91bd 7983 64bd 88ef 7fbc 8205 89bd
00000220: a680 493b 6680 9bbd c648 81bd f1a3 253b
00000230: b6c0 02be f9de ad3c 6887 01be dd2d 21be
00000240: 17cf 32be eb17 d73c d2c9 d6bb 2e4a 0dbe
00000250: cd20 b1bd 2581 65be bc6a 0cbf 9e3c 94be
00000260: 262a f0be fe25 b0be f203 b43d 88c6 1ebf
00000270: a258 2d3e 4290 06be 89f8 32bf 07ed 86be
00000280: 2809 c6be 8105 c6be 5695 90be 15e7 d4be
00000290: 7dab 7b3e a967 a8be a65e bbbe 5122 f9bc
000002a0: f6ee aebd cb1c d0bd d8ce 623f 0448 d7be
000002b0: 5ef7 45be 5d51 edbe 6724 6bbf 59b0 e7bc
000002c0: 6975 bdbc 4ee8 fb3d 33f4 473d d6d9 b33b
000002d0: 1f23 2b3d 87e1 09be c8d1 31be ae7b 323e
000002e0: 6efc e9bc 364b 6b3e 8554 19bd 2c27 f43d
000002f0: 2db0 83bd 1f2d e6bd d6d1 013d b2b1 9e3d
00000300: e894 85bd f593 05be 4a40 5a3d 84dd 1c3e
00000310: 2811 803d f050 60be 77ef a6bd 4406 ee3c
00000320: 96ef bdb8 4fbb 49be a697 39be 133f f4ba
00000330: f2bb 49bd 76a8 4bbc 1145 8dbd c6a5 c4bd
00000340: b6ed 1dbd 1555 2abd fdb8 d1bc fd0a 90bd
00000350: f12e 76bd e728 033d 280a 1dbc 91e2 7abc
00000360: 5078 34bd 1c50 92bd 9765 333b 5ae8 42bd
00000370: 6399 903d faad b8bc e5a6 a0bc d5a1 2f3c
00000380: f9c9 27bd 9fab 01bf b7f4 39be 5c88 2d3f
00000390: 3913 03bf f937 03bf c667 bcbd 6c18 583e
000003a0: 6ec8 9cbe d9d0 36bf 2684 09bf 7ab8 19be
000003b0: cb41 13bf 64d1 87bf 4ea4 9abe 6eb5 b4be
000003c0: e352 58bd e825 56bf 46a9 06bf 57ca 6cbd
000003d0: 3702 5ebe e69a a3bf 4152 95be bbd3 bdbf
000003e0: 23f7 35bf 7a24 f7be 8ea3 763e 2ea3 adbc
000003f0: 54d3 933d 754f aa3d b13d 94bd 977e 173e

bias f4 [64]
-0.60435116 -2.0090659 -2.3201318 -0.052821606 -2.1535516 -0.50742716 -0.7819064 -2.1945615
-0.91542065 -1.0549538 -0.040977396 -0.1038501 -0.066752106 -0.80594784 -0.056663103 -0.041689303
-0.09176478 -0.49865413 -1.1995572 -0.27002072 -0.0923729 -1.8453455 -0.8871135 -0.075140424
-0.43106538 -0.08648244 -0.15090382 -0.09856084 -0.0578578 -0.5041612 -0.4298367 -0.12005376
-0.055502437 -1.0608742 -1.0816252 -0.13148305 -0.035095487 -0.7411016 -0.7984304 -0.021796647
-0.07360474 -0.057856344 -1.0770708 -0.091673724 -2.2490873 -1.123936 -1.4985151 -0.056485422
-0.36743477 -0.09888188 -2.2613997 -0.09694799 -1.276959 0.14068146 -0.10772693 -0.3986444
-1.3027596 -0.27202594 -1.4916003 -0.16907096 -0.072294526 -0.037647236 -0.067442514 -1.2020206
00000000: c2b6 1abf 8994 00c0 0a7d 14c0 785b 58bd
00000010: cad3 09c0 bfe6 01bf 052b 48bf b273 0cc0
00000020: 0259 6abf ba08 87bf ead7 27bd 5caf d4bd
00000030: 54b5 88bd 9952 4ebf 9217 68bd 67c2 2abd
00000040: 2cef bbbd 984f ffbe 178b 99bf 2840 8abe
00000050: 012e bdbd 4834 ecbf df19 63bf 39e3 99bd
00000060: 9ab4 dcbe b51d b1bd 8886 1abe 44da c9bd
00000070: 4dfc 6cbd b510 01bf 8e13 dcbe bfde f5bd
00000080: 8656 63bd baca 87bf b272 8abf 7ea3 06be
00000090: 49c0 0fbd d6b8 3dbf ef65 4cbf e28e b2bc
000000a0: 15be 96bd c6fa 6cbd 75dd 89bf 6fbf bbbd
000000b0: 0cf1 0fc0 23dd 8fbf 58cf bfbf 425d 67bd
000000c0: 6920 bcbe 9582 cabd c6ba 10c0 ab8c c6bd
000000d0: 6473 a3bf cd0e 103e f09f dcbd 1e1b ccbe
000000e0: d4c0 a6bf fc46 8bbe c2ec bebf f020 2dbe
000000f0: 270f 94bd fd33 1abd 4d1f 8abd d0db 99bf

weight f4 [12, 3136]
0.47981566 0.24035946 0.58194655 0.7070217 -0.43779603 -0.6066752 0.19062029 -0.6648774
0.7967322 0.663374 -0.43012732 -1.0112814 -0.030270584 0.114825316 -1.4613247 -0.26826122
0.5887095 -0.6286194 -0.66878337 -0.1410911 -0.006140164 -0.9659169 0.113224216 0.17939842
-0.30908898 -0.8905128 -0.3809955 -0.25413314 -0.20395876 0.20799664 -0.43132004 -1.3118434
-0.45808604 -0.27929863 0.14213827 0.89531827 0.025308648 -0.14557964 -0.7948708 -0.3121724
0.40741232 -0.05218012 0.19414745 0.30070385 0.6796869 0.34865627 -0.0751388 0.3728846
0.3425559 0.102145284 0.80722296 0.04312127 -0.4716822 -0.24927875 0.7748229 -0.06916416
0.6513248 0.62908334 0.27985185 -0.9330876 -1.1786397 -0.6608114 -0.17711014 0.89372337
0.607983 0.2661751 -1.0049608 -1.9077543 0.1923729 0.14973807 0.5291782 0.8728195
0.7930079 -0.80543494 -0.5190461 -0.88847965 -0.76361376 0.39947098 0.18339558 -0.17122242
0.25412792 -0.6965365 0.191261 -0.6609509 0.8368711 0.2642578 0.37344256 -0.10706799
-0.07997614 -0.014067009 0.50240946 0.35960636 0.1338557 -0.4693616 -0.32111737 -1.1368861
0.14636223 -0.11822797 0.04297491 0.046697315 0.0652903 0.067315064 0.062340237 0.059679307
0.06965413 0.07740118 0.042441934 0.04782282 0.074262336 0.04719959 0.04907102 0.070597135
0.06676306 0.06101258 0.06472681 0.0487115 -0.035457306 -0.2728926 0.049486026 0.05971759
0.06516764 0.058815 -0.55762345 -0.44720322 -0.087534 0.08284282 -0.02914207 -0.21957882
-0.41912502 -0.26576322 0.47052556 -0.2134775 -0.28864664 0.06429993 -0.5468621 -0.22159463
-0.46020153 0.020671634 -1.0371754 -0.017420882 0.35047877 0.050702594 0.13206844 0.050101656
0.2854265 -0.61604995 0.063535996 -0.05500176 -0.037534323 -0.03470713 -0.04280011 -0.040378045
-0.043239824 -0.029934661 -0.05499046 -0.03503258 -0.030274522 -0.037467584 -0.022048945 -0.049701177
-0.05000409 -0.057194334 -0.032750584 -0.05873784 -0.036207866 -0.041260947 -0.046101864 -0.022839531
-0.03793216 -0.03169872 -0.0526194 -0.027442941 -0.04018019 -0.034587394 -0.023579663 -0.056080453
-0.034427352 -0.04053322 -0.02432552 -0.03223102 -0.024246665 -0.033257194 -0.040257644 -0.036014784
-0.0491036 -0.034959193 -0.048949827 -0.041177113 -0.029085001 -0.052758574 -0.04638904 -0.040126484
-0.044756442 -0.043577645 -0.056194477 -0.03018974 0.3456492 -0.7035066 0.5007977 0.3877505
0.36146903 0.17573345 -0.23599006 -0.063084215 0.19163138 -0.33470157 0.9124651 0.30181563
-0.71942574 -0.4121731 0.5008045 0.5646684 -0.4227326 0.17910889 -0.4897871 -1.0901898
-0.14645086 0.358548 0.34434894 -0.5727022 -0.19961104 -1.0788822 -1.2311063 -0.6368666
0.91280264 0.9545679 0.66018337 -0.847161 0.7767177 -1.2265227 -0.763065 1.2502915
0.14489797 1.0812068 -0.8280457 -0.056831494 0.17996521 0.19899677 0.5687815 -0.33130538
0.7776427 -0.19996326 -0.18374917 0.7950626 -0.0060015507 -0.22155955 -0.5218223 -0.43411046
-0.37587908 0.099749126 0.11237001 -0.5842693 0.21757269 -0.6592469 -0.5160541 -1.3416569
00000000: 66aa f53e ca20 763e 73fa 143f 60ff 343f
00000010: cd26 e0be 114f 1bbf f731 433e 6835 2abf
00000020: a4f6 4b3f e1d2 293f a639 dcbe ab71 81bf
00000030: 04fa f7bc 8929 eb3d b00c bbbf 8959 89be
00000040: aab5 163f 33ed 20bf 6335 2bbf 2f7a 10be
00000050: 6e33 c9bb 5446 77bf 19e2 e73d 38b4 373e
00000060: e940 9ebe a6f8 63bf d811 c3be bd1d 82be
00000070: 91da 50be 12fd 543e fbd5 dcbe 7cea a7bf
00000080: 418a eabe 3b00 8fbe b28c 113e 9433 653f
00000090: 1554 cf3c d412 15be a77c 4bbf 10d5 9fbe
000000a0: 5998 d03e d2ba 55bd 97ce 463e dbf5 993e
000000b0: f6ff 2d3f 1383 b23e 5fe2 99bd bbea be3e
000000c0: 7d63 af3e 8c31 d13d 2aa6 4e3f ee9f 303d
000000d0: 5480 f1be ee42 7fbe cb5a 463f f0a5 8dbd
000000e0: 39bd 263f 9b0b 213f be48 8f3e d4de 6ebf
000000f0: aadd 96bf f02a 29bf 5c5c 35be 0ecb 643f
00000100: c6a4 1b3f 1a48 883e 8ea2 80bf 4b31 f4bf
00000110: 67fd 443e f054 193e 3978 073f 1971 5f3f
00000120: 9102 4b3f fc30 4ebf 35e0 04bf 6773 63bf
00000130: 317c 43bf 7687 cc3e 0dcc 3b3e ee54 2fbe
00000140: 0e1d 823e 3750 32bf ecd9 433e 1434 29bf
00000150: 2f3d 563f cc4c 873e dd33 bf3e 7646 dbbd
00000160: 88ca a3bd 5079 66bc e89d 003f 531e b83e
00000170: 7811 093e 2a50 f0be 7f69 a4be 7c85 91bf
00000180: fbdf 153e 8221 f2bd 7606 303d af45 3f3d
00000190: ecb6 853d 7bdc 893d 7a58 7f3d 4a72 743d
000001a0: d3a6 8e3d 8384 9e3d 98d7 2d3d dce1 433d
000001b0: da16 983d 5b54 413d b2fe 483d 3b95 903d
000001c0: 12bb 883d 54e8 793d 7d8f 843d b685 473d
000001d0: ae3b 11bd 94b8 8bbe dcb1 4a3d 6f9a 743d
000001e0: 9d76 853d ffe7 703d 69c0 0ebf d2f7 e4be
000001f0: 0745 b3bd 7fa9 a93d 5abb eebc 45d9 60be
00000200: 8e97 d6be 1e12 88be bae8 f03e d999 5abe
00000210: 7ec9 93be afaf 833d 28ff 0bbf b4e9 62be
00000220: 899f ebbe 8f57 a93c 2ac2 84bf 3db6 8ebc
00000230: f471 b33e 86ad 4f3d f33c 073e 6537 4d3d
00000240: 6c23 923e 73b5 1dbf 291f 823d 8749 61bd
00000250: 97bd 19bd 1029 0ebd 2b4f 2fbd 7363 25bd
00000260: 3e1c 31bd 8939 f5bc ad3d 61bd 537e 0fbd
00000270: 4602 f8bc 9c77 19bd fd9f b4bc 7693 4bbd
00000280: 17d1 4cbd 9b44 6abd 7a25 06bd 1797 70bd
00000290: b34e 14bd 3d01 29bd 4fd5 3cbd f819 bbbc
000002a0: c15e 1bbd 84d6 01bd 7187 57bd 05d0 e0bc
000002b0: fc93 24bd 83ab 0dbd 232a c1bc 9eb4 65bd
000002c0: b203 0dbd 2906 26bd 5046 c7bc ad04 04bd
000002d0: f1a0 c6bc b238 08bd 33e5 24bd 3d84 13bd
000002e0: db20 49bd 5f31 0fbd 9d7f 48bd 55a9 28bd
000002f0: ab43 eebc 6019 58bd 6f02 3ebd ab5b 24bd
00000300: 8852 37bd 797e 32bd 2e2c 66bd 7950 f7bc
00000310: eff8 b03e 0219 34bf 4734 003f 3c87 c63e
00000320: 7812 b93e 78f3 333e 61a7 71be 4c32 81bd
00000330: 043b 443e 015e abbe 5097 693f 9487 9a3e
00000340: 492c 38bf 5a08 d3be b934 003f 1c8e 103f
00000350: 6870 d8be 5268 373e 60c5 fabe 578b 8bbf
00000360: 37f7 15be 9a93 b73e 814e b03e 9d9c 12bf
00000370: d666 4cbe d018 8abf e494 9dbf b109 23bf
00000380: 6fad 693f 905e 743f c701 293f 8bdf 58bf
00000390: f9d6 463f b2fe 9cbf 3a58 43bf 8d09 a03f
000003a0: 2260 143e fc64 8a3f cefa 53bf 24c8 68bd
000003b0: cd48 383e cfc5 4b3e aa9b 113f dca0 a9be
000003c0: 9813 473f 2bc3 4cbe be28 3cbe 3989 4b3f
000003d0: a8a8 c4bb 82e0 62be 2596 05bf ba43 debe
000003e0: 3973 c0be 4549 cc3d 3f22 e63d ac92 15bf
000003f0: 60cb 5e3e 68c4 28bf 1f1c 04bf 6abb abbf

bias f4 [12]
-0.1943275 0.6084437 -0.0039087674 0.5752596 -0.07768824 0.01207865 0.2787395 0.110752255
-0.4411296 -0.13289407 -0.08817632 -0.36362505
00000000: cafd 46be f7c2 1b3f 1e15 80bb 3744 133f
00000010: 031b 9fbd 88e5 453c f2b6 8e3e 14d2 e23d
00000020: bddb e1be 6215 08be c995 b4bd 102d babe
